agent1_checkpoint_critic.target.pth (torch_old, 164612 bytes, 5 tensors)

fc1.weight f4 [200, 52]
0	0x3e89a67a	0.26884824
1	0x3f29a531	0.6626769
2	0x3e0604dc	0.13087791
3	0x3ddc2cfc	0.107507676
4	0x3dbcb5e4	0.092143804
5	0xbd7a4c32	-0.06110782
6	0x3cc27381	0.023736717
7	0x3ddaf4dc	0.106912345
8	0x3eb1ab5c	0.3470105
9	0x3f11382a	0.56726325
10	0x3c8fe790	0.017566472
11	0xbda20241	-0.07910586
12	0xbd77da0e	-0.060510688
13	0xbe68c340	-0.22730732
14	0x3c9c831f	0.019105492
15	0xbd962adc	-0.073323935
16	0x3e39cfa0	0.18145609
17	0x3f32a7a7	0.6978707
18	0xbdd21e86	-0.10259728
19	0x3e47e301	0.19520189
20	0xbdd056b2	-0.10172786
21	0xbe9d7057	-0.3074977
22	0xbde8cd5c	-0.11367294
23	0x3e168822	0.14700368
24	0x3cbeaaf2	0.023274872
25	0x3dc58d5c	0.09646103
26	0xbccf1520	-0.025278628
27	0xbde5aa0d	-0.11214075
28	0xbc78c94d	-0.015184713
29	0xbe23c62a	-0.15993562
30	0xbce25948	-0.027630463
31	0xbe20c02d	-0.15698309
32	0x3cd77e24	0.026305266
33	0x3d7746bb	0.06037019
34	0xbd583aeb	-0.052790564
35	0xbd600dfe	-0.054700844
36	0xbca82c7e	-0.020529028
37	0xbe1947b6	-0.14968762
38	0xbd82ffca	-0.06396444
39	0xbdc4ab96	-0.0960304
40	0xbd4869d8	-0.048929065
41	0x3a2addce	0.0006518037
42	0xbb95aa84	-0.004567446
43	0xbd2cb036	-0.042160235
44	0x3e1c42e9	0.15259899
45	0xbe8c23b0	-0.27370977
46	0x3d28fe15	0.041257937
47	0xbd0a5ae8	-0.0337781
48	0x3f34c563	0.7061369
49	0xbe20f1bb	-0.15717213
50	0xbee83d66	-0.45359343
51	0x3d9e009b	0.07714959
52	0x3e192f8c	0.14959544
53	0xbf292e59	-0.66086346
54	0xbd906475	-0.07050411
55	0x3e2e1ca8	0.17003119
56	0x3e8b383b	0.27191338
57	0xbeaa2c4b	-0.33236918
58	0xba192178	-0.0005841474
59	0x3e007c2e	0.12547371
60	0x3d912d68	0.07088739
61	0xbf3ee862	-0.7457334
62	0xbdb5929d	-0.08865855
63	0xbd0cdf8b	-0.034392875
64	0x3dfd9fb6	0.12383978
65	0xbdbb46c5	-0.091443576
66	0x3c828532	0.015932653
67	0xbc1c0e15	-0.009524842
68	0x3daacdac	0.0834001
69	0xbf29a449	-0.66266304
70	0x3d1a245a	0.037632324
71	0x3ec7663c	0.38945186
72	0xbe01d37e	-0.12678334
73	0x3d852d69	0.06502802
74	0x3d6d5bbf	0.057948824
75	0x3ec9787c	0.39349735
76	0x3dd2c17a	0.10290809
77	0xbd17e1c6	-0.03708055
78	0x3d967627	0.073467545
79	0x3dea2917	0.114336185
80	0xbe835c78	-0.25656486
81	0xbe68c56c	-0.2273156
82	0x3d7d603c	0.061859354
83	0x3dfdda76	0.12395184
84	0x3d48a0d0	0.048981488
85	0xbe1562ff	-0.14588545
86	0xbcf83378	-0.03029798
87	0x3cd5f1ce	0.026116278
88	0xbd646339	-0.05575869
89	0xbd8fd429	-0.07022888
90	0xbd5ac9a2	-0.05341495
91	0x3d2868d0	0.041115582
92	0x3de4b3b8	0.11167091
93	0xbdfb3ebe	-0.122678265
94	0xbd87728e	-0.066136464
95	0x3e02bc22	0.1276708
96	0x3d0ac005	0.03387453
97	0x3df874a5	0.12131623
98	0x3b1ef57a	0.0024255202
99	0x3df151df	0.11783194
100	0xbe8a5969	-0.2702134
101	0x3f1616d3	0.58628577
102	0x3f59dcbc	0.8510244
103	0xbe4a73d8	-0.19770753
104	0x3e41a060	0.18908834
105	0x3ee2fd3d	0.4433383
106	0x3d81f117	0.06344812
107	0xbda66f64	-0.08126715
108	0x3d63086e	0.05542796
109	0xbb9ddd1f	-0.0048176195
110	0xbc6e8fdd	-0.014560667
111	0xbe0861fd	-0.1331863
112	0x3e2cd59d	0.16878362
113	0x3ec74064	0.38916314
114	0xbd6b596b	-0.057458322
115	0xbe1486db	-0.14504568
116	0x3d80f8da	0.06297465
117	0xbe27781e	-0.16354415
118	0x3d4ac0a6	0.04950013
119	0xbe75cb76	-0.24003395
120	0x3dd14d82	0.102198616
121	0x3eb6e410	0.35720873
122	0xbd2990fd	-0.041398037
123	0xbe4cd979	-0.20004834
124	0x3d724249	0.059145246
125	0xbeeec6c8	-0.46636033
126	0xbd4c96f3	-0.049948644
127	0xbe059bfc	-0.13047785
128	0xbd9d9c76	-0.07695858
129	0x3f3b3b22	0.73137105
130	0xbcb1a48f	-0.021684913
131	0xbe2ba371	-0.16761567
132	0x3c77a79b	0.015115644
133	0x3cabab0c	0.020955585
134	0xbd2a094e	-0.04151278
135	0xbe58ad8d	-0.21159954
136	0x3d8907b1	0.0669092
137	0x3f3c18bc	0.7347524
138	0xbd9264f1	-0.07148159
139	0xbd5f9e7b	-0.054594498
140	0xbdba2409	-0.090889044
141	0xbdfab9f9	-0.12242503
142	0xbd4517f1	-0.048118535
143	0xbe0183da	-0.12647954
144	0x3c8da8dd	0.017292434
145	0x3f3f481b	0.747194
146	0x3cc3d1f9	0.023903834
147	0x3d9455c0	0.07242918
148	0xbddc5270	-0.10757911
149	0xbf094f23	-0.5363638
150	0x3d117c83	0.035519134
151	0x3c0ade3f	0.008475839
152	0xbf505dd2	-0.8139316
153	0x3f580799	0.84386593
154	0xbeec24d4	-0.46121848
155	0x3f157dc6	0.5839504
156	0x3c87e6eb	0.016589602
157	0xbe86f4a7	-0.2635853
158	0xbdc35e88	-0.09539515
159	0xbe2c9d9d	-0.16857
160	0x3cfffd7f	0.031248806
161	0xbee6d168	-0.4508164
162	0x3a57d9a6	0.0008234031
163	0xbe3dadea	-0.18523374
164	0x3c3838dd	0.011244026
165	0xbdbda66e	-0.092602596
166	0x3d23d08f	0.03999382
167	0x3b8e0752	0.0043343687
168	0xbd777322	-0.060412534
169	0xbef8920c	-0.48548925
170	0x3cd21cd4	0.025648512
171	0x3c874fa3	0.016517466
172	0xbc494fe5	-0.012287115
173	0xbe5dcda8	-0.21660483
174	0x3cca3616	0.024683993
175	0x3e1c0313	0.15235548
176	0x3d912725	0.07087544
177	0xbefbefcb	-0.49206385
178	0x3d2f5360	0.042804122
179	0x3dfbef44	0.12301496
180	0xbd53e16b	-0.051728647
181	0x3f5635f4	0.83676076
182	0xbcd236a1	-0.025660815
183	0xbcb965f1	-0.022631617
184	0xbd217236	-0.03941556
185	0xbebae68d	-0.3650402
186	0xbd25e9f0	-0.040506303
187	0xbc7821f2	-0.015144812
188	0xbd28abbc	-0.041179404
189	0x3f3ab478	0.72931623
190	0xbd8f1b0b	-0.0698758
191	0x3d2e6c4f	0.04258376
192	0xbd570a43	-0.05250002
193	0xbf0428ef	-0.5162496
194	0xbdb88fe7	-0.09011822
195	0x3db1a377	0.086737566
196	0xbdf7d974	-0.12102023
197	0x3f220cc1	0.6330071
198	0xbdd4731c	-0.10373518
199	0xbd59b391	-0.053149763
200	0xbb422113	-0.0029621765
201	0xbed7b2bb	-0.42128548
202	0xbc944356	-0.018098515
203	0xbcb2a535	-0.021807292
204	0xbf1148ea	-0.56751883
205	0xbddd02d8	-0.10791558
206	0xbd529c98	-0.05141887
207	0xbe26e6b8	-0.1629895
208	0xbdbc327b	-0.09189316
209	0x3efc7e04	0.49314892
210	0x3d3e6950	0.046487153
211	0xbd978822	-0.07399012
212	0xbd32a150	-0.04361087
213	0xbe8e7f18	-0.2783134
214	0x3c8ce141	0.017197253
215	0xbc2083ff	-0.009797095
216	0xbc0f90b4	-0.008762527
217	0x3f134fd6	0.57543695
218	0xbc7904d0	-0.015198901
219	0x3e263491	0.1623099
220	0x3d3e1b08	0.046412498
221	0xbf091c45	-0.5355876
222	0x3d029326	0.031878613
223	0x3e37c504	0.17946249
224	0xbd43abf5	-0.047771413
225	0x3f49435d	0.78618413
226	0xbdba7623	-0.09104564
227	0x3e03bc07	0.12864695
228	0xbd95551b	-0.07291623
229	0xbf63f35b	-0.89043206
230	0xbe34ccfb	-0.17656319
231	0x3daf1fe8	0.085510075
232	0xbde7c109	-0.113161154
233	0x3cfde2b3	0.030991888
234	0xbce885ba	-0.028384078
235	0x3e2bd2b8	0.16779602
236	0xbd094721	-0.0335151
237	0xbe813fda	-0.25244027
238	0xbad8343a	-0.0016495057
239	0x3e0cc786	0.13747987
240	0xbcbee50e	-0.023302581
241	0xbc46dd4b	-0.012137721
242	0xbdc71538	-0.09720844
243	0x3e226c98	0.15861738
244	0x3c73851d	0.01486328
245	0xbef76371	-0.48318055
246	0xbd85bb54	-0.06529871
247	0x3de7bb20	0.11314988
248	0xbd53af3a	-0.05168078
249	0xbcbda4d3	-0.023149883
250	0xbd9fed17	-0.07808893
251	0x3ec1204c	0.37719953
252	0x3db0b699	0.08628578
253	0xbf694aa3	-0.9112951
254	0xbd22e3fc	-0.039768204
255	0x3eb4d39e	0.353177

fc1.bias f4 [200]
0	0xbe5a0c13	-0.21293668
1	0xbecaa99d	-0.3958253
2	0xbd83e325	-0.06439809
3	0xbc90806b	-0.01763936
4	0xbd24bb1f	-0.040217515
5	0xbed2bd0b	-0.41159853
6	0xbeb4f2b0	-0.35341406
7	0x3d157d43	0.036496412
8	0xbd5c52cd	-0.053789902
9	0xbdb223ef	-0.0869826
10	0xbe25f4e8	-0.16206706
11	0x3de28559	0.1106059
12	0x3c8a0ff1	0.016853305
13	0xbe56a32f	-0.20960687
14	0x3d5c9c70	0.053860128
15	0xbc07434c	-0.008255791
16	0xbe9cf16f	-0.3065295
17	0x3dbaf0b1	0.091279395
18	0xbe0c9e1c	-0.13732189
19	0xbd4ef33a	-0.050524928
20	0x3e18e0b3	0.14929466
21	0x3e26dd28	0.16295302
22	0x3bf15c41	0.007365734
23	0x3d72b76a	0.05925695
24	0xbdcb7c45	-0.09935812
25	0xbe4576c5	-0.19283588
26	0xbe973813	-0.2953497
27	0xbde93d0a	-0.113885954
28	0xbe09f3b2	-0.13471869
29	0xbe83cb75	-0.25741163
30	0x3e25f77f	0.16207694
31	0xbe757272	-0.23969439
32	0xbe72f861	-0.23727562
33	0xbdaab5b0	-0.083354354
34	0xbe46b32a	-0.19404283
35	0xbe519000	-0.20465088
36	0xbd1de011	-0.038543765
37	0xbe4fe635	-0.20302661
38	0xbe417b1f	-0.18894623
39	0xbe05605e	-0.13025042
40	0xbeb2ce0a	-0.3492282
41	0xbdc10102	-0.0942402
42	0xbddc88ac	-0.107682556
43	0xbe8af432	-0.2713943
44	0xbd6986d4	-0.057013348
45	0xbdd342de	-0.10315488
46	0x3d351a05	0.044214267
47	0xbe94ebaf	-0.29086062
48	0xbe1f2f55	-0.155454
49	0xbcfc1dec	-0.030775987
50	0xbdd3a787	-0.10334688
51	0xbe8b8e0b	-0.27256808
52	0x3e7ef6f5	0.24898894
53	0xbcfaef02	-0.030631546
54	0xbe1ff820	-0.15621996
55	0xbe69e397	-0.22840725
56	0xbeda1387	-0.42593023
57	0xbd17f1f6	-0.037095986
58	0xbe293ad5	-0.16526349
59	0x3e73b10d	0.23798008
60	0x3d21f2f3	0.039538335
61	0x3e414c17	0.18876682
62	0xbe81dfa5	-0.2536594
63	0xbda37bce	-0.07982598
64	0xbdfe82f8	-0.12427324
65	0xbe43c7fd	-0.19119258
66	0xbea2b449	-0.31778172
67	0xbdc263a4	-0.09491661
68	0xbe954695	-0.29155412
69	0xbdaa60e8	-0.08319265
70	0xbd5d3c8a	-0.054012813
71	0xbe0e2f87	-0.13885318
72	0xbe29903a	-0.16558924
73	0xbe4efc91	-0.20213534
74	0xbd5f0812	-0.054451056
75	0xbc85525f	-0.01627463
76	0xbea26acc	-0.31722105
77	0xbe482354	-0.19544727
78	0xbe7babf2	-0.2457731
79	0xbd70a9c1	-0.05875564
80	0xbe1d2200	-0.15345001
81	0xbd515e38	-0.051115245
82	0xbd335690	-0.043783724
83	0xbe174a9b	-0.14774553
84	0x3ddccb7e	0.107810006
85	0x3e082f82	0.13299373
86	0xbce03444	-0.027368672
87	0xbdfbf547	-0.12302642
88	0xbe472e28	-0.19451201
89	0xbdca4901	-0.09877206
90	0x3b3195f6	0.002709744
91	0xbe3c8429	-0.1840979
92	0xbcb0c69b	-0.021579077
93	0x3c73650a	0.014855633
94	0xbe198fab	-0.14996211
95	0xbdac7e18	-0.08422488
96	0xbe9b3caf	-0.30319735
97	0xbdf8515c	-0.12124893
98	0x3c9eb928	0.019375399
99	0xbe4ef48d	-0.20210476
100	0xbde5f9b4	-0.11229268
101	0xbecf182a	-0.40448123
102	0xbdbf914a	-0.093538836
103	0xbe2db0c1	-0.16961958
104	0xbe8de94c	-0.27717054
105	0xbeb3eb26	-0.35140342
106	0xbd9f0346	-0.07764296
107	0xbe5c6d6d	-0.21526118
108	0xbe7f1c1b	-0.24913065
109	0xbe39e241	-0.18152715
110	0xbe179286	-0.14801988
111	0xbde08f6b	-0.10964855
112	0xbed4ebe8	-0.41586232
113	0xbf0721d2	-0.5278598
114	0xbdc90d0b	-0.09816941
115	0xbdcce7a9	-0.10005123
116	0xbe15e549	-0.14638247
117	0xbd53c717	-0.05170354
118	0xbe3149fd	-0.1731338
119	0xbea4b668	-0.32170415
120	0xbddc7532	-0.10764541
121	0x3c741149	0.014896699
122	0xbe180e99	-0.14849319
123	0xbe587482	-0.21138194
124	0xbdceecfb	-0.10103794
125	0xbe3a3c46	-0.18187055
126	0xbba66aa5	-0.005078631
127	0xbcfc7872	-0.030819152
128	0xbe3f136b	-0.18659751
129	0xbe027eb6	-0.12743649
130	0xbd63f412	-0.055652685
131	0xbda1892d	-0.07887492
132	0xbd88b3ac	-0.06674895
133	0xbdedefe3	-0.116180204
134	0xbe6316ca	-0.22176662
135	0x3e3f79cb	0.18698804
136	0xbe8415f0	-0.25797987
137	0x3e6d01e5	0.23145254
138	0xbd0769e6	-0.033059977
139	0xbe56e02a	-0.2098395
140	0xbec750cb	-0.38928828
141	0xbe1e0e12	-0.15435055
142	0xbde4804a	-0.11157282
143	0xbe0c3207	-0.13690959
144	0xbe8c3030	-0.27380514
145	0xbd8a15e4	-0.067424566
146	0xbe5473fb	-0.20747368
147	0xbe224c03	-0.15849309
148	0xbe8089cb	-0.25105128
149	0xbe981d68	-0.29709935
150	0xbe8b88d7	-0.27252838
151	0xbd1dea1c	-0.038553342
152	0xbe87e1e0	-0.26539516
153	0xbcaaba83	-0.020840889
154	0xbdf78b0c	-0.12087068
155	0xbe5335ea	-0.20626035
156	0xbc99e151	-0.018784197
157	0xbe9e2d83	-0.30894098
158	0xbe195407	-0.1497346
159	0xbc878635	-0.016543487
160	0x3e5acb00	0.21366501
161	0xbe4f2db0	-0.20232272
162	0xbe2a63e7	-0.16639672
163	0xbe708f9b	-0.23492281
164	0xbe7ab12c	-0.24481648
165	0x3d492eeb	0.04911701
166	0xbe0b2639	-0.135888
167	0xbcec9019	-0.028877305
168	0xbe96fdce	-0.29490513
169	0xbd1936d2	-0.037405796
170	0xbe00d5a0	-0.12581491
171	0xbc29c7a2	-0.010362538
172	0x3d409349	0.047015462
173	0xbe1efabf	-0.1552534
174	0x3cc102af	0.02356085
175	0xbe1d7fac	-0.15380734
176	0xbe43d34a	-0.19123569
177	0xbd5624b9	-0.052281115
178	0xbe915f96	-0.2839324
179	0xbe440ef9	-0.19146337
180	0xbe306224	-0.17224938
181	0xbe966dce	-0.2938065
182	0x3c8d6091	0.01725796
183	0xbe3b7aff	-0.18308638
184	0xbcb92833	-0.022602176
185	0xbdc3c442	-0.095589176
186	0xbe7f0c59	-0.24907054
187	0xbe380200	-0.17969513
188	0xbe8e9cf7	-0.2785413
189	0xbe4a05c8	-0.19728768
190	0xbe98ec74	-0.298679
191	0xbe873777	-0.26409504
192	0xbe518266	-0.204599
193	0xbe06788f	-0.13131927
194	0xbe232f27	-0.15935956
195	0x3c9b3ee2	0.018950883
196	0xbe5c4881	-0.21512033
197	0x3d294306	0.041323684
198	0x3c3f12ea	0.011662224
199	0xbe40513a	-0.18780985

fc2.weight f4 [150, 200]
0	0xbe83dcf8	-0.25754523
1	0xbe3729ce	-0.17887041
2	0xbc4e1cc9	-0.012580105
3	0xbe92ad71	-0.2864795
4	0xbcaf9eee	-0.021438088
5	0xbd939f81	-0.07208157
6	0xbda4851f	-0.08033203
7	0x3d997b85	0.074942626
8	0x3c52bef2	0.012862908
9	0x3cfb8ce4	0.03070683
10	0xbca50940	-0.020146012
11	0xbdaefeeb	-0.085447155
12	0x3cfd4a39	0.030919181
13	0xbd31959a	-0.04335556
14	0xbd4f165a	-0.050558425
15	0xbe6ce90e	-0.23135778
16	0x3dce4aaf	0.100728385
17	0xbe869732	-0.26287228
18	0xbe6ca01e	-0.23107955
19	0xbe058dfd	-0.13042445
20	0x3cd8ab0f	0.026448755
21	0xbddc3d96	-0.10753934
22	0xbe1b5c34	-0.15171891
23	0xbebaab08	-0.3645861
24	0x3ac7ace4	0.001523402
25	0xbd4d5b9c	-0.050136194
26	0x3dd74a26	0.105121896
27	0x3e2bce30	0.16777873
28	0x3d994f3f	0.07485818
29	0xbdeebe3f	-0.1165738
30	0xbe2f9857	-0.17147957
31	0xbd7942bb	-0.060854655
32	0xbe7826cf	-0.24233554
33	0xbeab6103	-0.33472452
34	0xbee4911f	-0.4464197
35	0xbe4be9d9	-0.19913425
36	0x3df48910	0.11940205
37	0xbcb086f4	-0.021548726
38	0xbe7e7cfa	-0.24852362
39	0x3e2196d1	0.15780188
40	0xbe270bbb	-0.16313069
41	0xbd1e2235	-0.03860684
42	0xbe6acd53	-0.22929887
43	0xbe3998e0	-0.18124723
44	0xbd0e3eb5	-0.03472777
45	0xbe8dd5ee	-0.27702278
46	0x3ea47861	0.32123092
47	0xbe8f4a14	-0.27986205
48	0x3dec4854	0.11537233
49	0xbeadeac0	-0.33968163
50	0x3d5af2d0	0.05345422
51	0xbde5ef87	-0.11227327
52	0xbd739f98	-0.059478372
53	0x3d074094	0.03302057
54	0xbe32cc13	-0.1746066
55	0x3c1cd522	0.009572299
56	0xbe2a7370	-0.16645598
57	0xbe8e7922	-0.27826792
58	0xbe362544	-0.17787653
59	0x3d52c081	0.051453117
60	0xbee3e3db	-0.44509777
61	0x3d34e832	0.04416675
62	0xbc28fa3e	-0.010313569
63	0xbdd9cac5	-0.10634378
64	0xbef33644	-0.4750234
65	0x3d5ba0ea	0.053620256
66	0x3e21bb46	0.15794095
67	0xbd4dd34f	-0.050250348
68	0xbe4bf558	-0.1991781
69	0x3d552567	0.052037623
70	0xbf38856d	-0.7207859
71	0xbe95a537	-0.2922761
72	0xbeae4eb9	-0.34044436
73	0xbe104f99	-0.14092864
74	0xbe2da8c2	-0.16958907
75	0xbe02598c	-0.12729472
76	0xbddc434f	-0.107550256
77	0xbddf3437	-0.10898631
78	0xbde0f4a2	-0.1098416
79	0xbdeb3734	-0.114851385
80	0xbd666a1a	-0.05625353
81	0x3d7af304	0.061266914
82	0x3c3077eb	0.010770778
83	0xbdad0ab8	-0.0844931
84	0xbc072104	-0.008247618
85	0xbe43a17f	-0.19104575
86	0xbf0e4564	-0.5557463
87	0x3d01da84	0.031702533
88	0xbe398c16	-0.18119845
89	0x3d76fc74	0.06029935
90	0xbe994ca6	-0.2994129
91	0xbde850b0	-0.11343515
92	0xbca9e0dc	-0.020737104
93	0xbb599b19	-0.0033204018
94	0x3cfa49ad	0.03055271
95	0x3e03ac5b	0.12858717
96	0xbe22efe4	-0.15911824
97	0xbde31bcc	-0.11089286
98	0x3b9dba70	0.004813485
99	0x3dcfde10	0.10149777
100	0x3d580ffa	0.05274961
101	0xbe923bab	-0.28561148
102	0xbd577eb9	-0.052611087
103	0xbde9f651	-0.11423934
104	0x3e58ebca	0.21183696
105	0xbca42f5c	-0.020042114
106	0x3e1dd854	0.15414554
107	0xbe01ccfe	-0.12675855
108	0xbe1ae4ba	-0.15126315
109	0xbdee7d97	-0.11645048
110	0xbc49d631	-0.012319134
111	0x3e09174b	0.13387792
112	0xbe8250ce	-0.25452274
113	0xbd0e1691	-0.03468949
114	0x3d707548	0.058705598
115	0xbed2fcc7	-0.4120848
116	0xbdcddaf1	-0.100515254
117	0xbe3db56b	-0.18526237
118	0x3c90f87a	0.017696608
119	0xbe9e51d1	-0.30921796
120	0x3d965a9b	0.073415
121	0x3d7b812a	0.061402477
122	0xbebe5f33	-0.37182006
123	0xbd11210c	-0.035431907
124	0xbe7c5a4d	-0.24643822
125	0xbe04b896	-0.12961039
126	0xbe898e9d	-0.26866618
127	0x3dac38cc	0.08409271
128	0x3cdf9bb6	0.027295928
129	0xbdaaa9b2	-0.08333148
130	0x3c692c2f	0.014231726
131	0xbe24f15f	-0.16107701
132	0x3d747c08	0.059688598
133	0xbc99bfa5	-0.018768141
134	0x3d3e6d26	0.04649081
135	0x3cac7454	0.021051563
136	0xbdd5716c	-0.10422024
137	0x3e2dd5a3	0.16976027
138	0xbf0f15cd	-0.5589264
139	0xbdb6579b	-0.08903428
140	0xbe39c0b4	-0.18139917
141	0xbc47434f	-0.012162044
142	0xbe9a76ed	-0.30168858
143	0xbd5e5fca	-0.05429057
144	0x3d778262	0.060427077
145	0xbe1797ee	-0.1480405
146	0xbd79c0e0	-0.060974956
147	0xbd88f34e	-0.06687032
148	0x3d89da7d	0.067311265
149	0xbe9a7c49	-0.30172947
150	0xbdb5be16	-0.08874147
151	0xbd9cda8a	-0.076588705
152	0xbde07b48	-0.10961014
153	0x3e45a594	0.19301444
154	0xbb780d6b	-0.0037849795
155	0xbe40b8b3	-0.18820457
156	0xbccb5c61	-0.024824323
157	0xbed5268e	-0.41630977
158	0x3c982c85	0.018575916
159	0xbd91fca0	-0.071282625
160	0xbe99e593	-0.30057964
161	0xbe36cba9	-0.17851128
162	0xbe240ee2	-0.16021302
163	0xbe3c6cf2	-0.18400934
164	0xbc0fcd79	-0.008777016
165	0xbe1ab834	-0.1510933
166	0xbefb82db	-0.49123272
167	0x3e02a84f	0.12759517
168	0xbe4cbc34	-0.19993669
169	0xbe86e06c	-0.26343095
170	0x3d3176a5	0.04332604
171	0xbe2214ed	-0.15828295
172	0xbe1de833	-0.15420608
173	0x3d5d1f4b	0.05398492
174	0xbe116825	-0.14199884
175	0xbeafc54f	-0.34330222
176	0x3c0d1f6b	0.008613448
177	0xbd12304f	-0.035690602
178	0xbe46b2f2	-0.194042
179	0xbd74fe10	-0.059812605
180	0x3cad4217	0.021149678
181	0xbe35ea0a	-0.1776506
182	0xbe9a8897	-0.30182335
183	0xbcc3f706	-0.0239215
184	0xbe6dbd62	-0.23216775
185	0xbe353446	-0.17695722
186	0xbdcbb58a	-0.09946735
187	0xbeb936eb	-0.36174712
188	0xbdec97f5	-0.11552421
189	0xbeef79d0	-0.46772623
190	0x3d87884a	0.06617792
191	0xbe226591	-0.15859057
192	0xbe94b472	-0.2904392
193	0xbdb02c31	-0.08602179
194	0xbd231ec6	-0.03982427
195	0x3cb31f34	0.021865465
196	0xbcd9bcf3	-0.026579356
197	0x3d1adb16	0.037806593
198	0x3d7db7b5	0.061942775
199	0xbcf8431d	-0.03030544
200	0xbe9b48ff	-0.3032913
201	0xbe56e9fa	-0.20987692
202	0x3c25f233	0.010128546
203	0xbd942222	-0.07233073
204	0xbe0c3f05	-0.13695915
205	0xbe4d4751	-0.20046736
206	0xbb8e7cc9	-0.0043483716
207	0xbda96f0d	-0.082731344
208	0x3d468774	0.048469022
209	0x3dbe104f	0.09280454
210	0x3dc510d6	0.09622352
211	0xbdcd9539	-0.100382276
212	0xbe9e5abc	-0.309286
213	0xbd3278d0	-0.043572247
214	0xbea5ac6d	-0.32358113
215	0x3e53fd73	0.20702152
216	0x3d0c1738	0.03420183
217	0xbd966b53	-0.07344689
218	0xbdb869e5	-0.09004573
219	0x3d45ab0a	0.04825882
220	0xbeaebe27	-0.3412945
221	0xbd8e1aca	-0.06938703
222	0xbe10ef89	-0.14153875
223	0x3dadc36d	0.0848454
224	0xbeb2605d	-0.34839144
225	0xbdb1a403	-0.08673861
226	0xbd20d0cd	-0.039261628
227	0x3d7fc598	0.0624443
228	0xbc7431f8	-0.014904492
229	0x3e3ddaf0	0.1854055
230	0x3d08d2ec	0.033404276
231	0x3d2ef867	0.042717364
232	0xbe8d28c6	-0.2757017
233	0xbdbe3f5d	-0.09289429
234	0x3d25a077	0.040436234
235	0xbde4f9ce	-0.11180459
236	0xbd40d557	-0.047078457
237	0x3c134c47	0.008990354
238	0x3d03b017	0.032150354
239	0x3d2e8883	0.042610656
240	0x3dea9bcd	0.11455498
241	0xbc6ab992	-0.01432647
242	0xbc783458	-0.0151491985
243	0x3e67d3d1	0.22639395
244	0xbb0156c5	-0.0019735557
245	0x3dd21c92	0.102593556
246	0xbdeaae27	-0.11458998
247	0xbd4c978d	-0.049949218
248	0xbb787ab8	-0.0037914943
249	0xbe01351e	-0.12617919
250	0xbc8f84a2	-0.017519299
251	0xbe0ca9e8	-0.13736689
252	0xbe046550	-0.12929273
253	0xbedd2e84	-0.4319955
254	0x3e6a1d27	0.22862683
255	0x3e03cc42	0.12870887

fc2.bias f4 [150]
0	0x3d82343b	0.063576184
1	0xbe88185c	-0.26581085
2	0xbc80aa89	-0.015706317
3	0xbddfe0f2	-0.10931577
4	0xbd249f0c	-0.04019074
5	0xbe7126d2	-0.23549965
6	0xbdc2c7ca	-0.09510763
7	0x3df59db1	0.11992968
8	0xbd655bf5	-0.0559959
9	0xbde6bf09	-0.11266906
10	0x3dabbe32	0.08385886
11	0xbc8f7dc4	-0.017516024
12	0x3d0353d9	0.032062385
13	0xbd885eba	-0.06658693
14	0x3dcc6fa2	0.0998223
15	0x3da5ef15	0.08102242
16	0xbe035b63	-0.1282783
17	0xbe0ea9f5	-0.13932021
18	0xbdae8214	-0.08520904
19	0xbec3f847	-0.38275358
20	0x3e9bef46	0.3045599
21	0x3e56cfc7	0.20977698
22	0xbdb0a054	-0.0862433
23	0xbf05c99f	-0.52260774
24	0xbdb0f03d	-0.08639572
25	0xbe0b527a	-0.13605681
26	0x3dad0968	0.0844906
27	0xbe0787b8	-0.13235366
28	0x3de92b5f	0.113852255
29	0xbd63b248	-0.055589944
30	0xbdca865f	-0.098889105
31	0x3d639e33	0.055570792
32	0xbe04805c	-0.1293959
33	0x3ce89bd6	0.02839462
34	0x3d057925	0.032586236
35	0x3e5fa1cf	0.21839069
36	0xbd3dc4b5	-0.046330173
37	0x39a2d0e8	0.00031054695
38	0xbef96f61	-0.48717788
39	0x3e230ed8	0.15923631
40	0x3e76144e	0.24031183
41	0xbd877f77	-0.06616109
42	0xbd9582dc	-0.0730035
43	0x3e39bc2d	0.1813819
44	0x3df568c5	0.11982874
45	0xbd8ac9c2	-0.067767635
46	0x3e0a44d4	0.13502818
47	0xbe43f643	-0.1913691
48	0xbdb25de7	-0.08709317
49	0xbdc6978a	-0.096968725
50	0xbec1cecd	-0.3785309
51	0xbe65f522	-0.22456792
52	0xbc809b14	-0.015698947
53	0x3db1e640	0.08686495
54	0xbe09f2e9	-0.13471569
55	0xbd8c92cb	-0.06863936
56	0xbdd8a7b3	-0.10578861
57	0xbd78358a	-0.060597934
58	0x3efb516a	0.49085552
59	0xbd0133a9	-0.031543408
60	0xbe5d220b	-0.21595018
61	0x3e11e4b4	0.142474
62	0x3dbaebe0	0.09127021
63	0xbda37971	-0.079821475
64	0xbdac24ee	-0.08405481
65	0xbdb6268a	-0.088940695
66	0x3e27101b	0.16314737
67	0xbdbeb2fd	-0.09311483
68	0xbd994903	-0.07484629
69	0xbd5f3b39	-0.05449984
70	0xbbb1aab9	-0.005421963
71	0x3e29dd79	0.16588391
72	0xbd880a79	-0.066426225
73	0xbe1a5cc6	-0.15074453
74	0xbe0badc7	-0.1364051
75	0x3df404be	0.11914967
76	0x3e912fef	0.28356883
77	0xbe1c72e4	-0.15278202
78	0x3e89822f	0.26857135
79	0x3d9f2e03	0.07772448
80	0x3e797944	0.24362665
81	0xbe3c01ae	-0.18360016
82	0xbe0312f1	-0.12800194
83	0xbca9d32c	-0.020730577
84	0xbdbc0e96	-0.091824695
85	0xbe509bee	-0.20371982
86	0xbe2eed07	-0.17082606
87	0xbd06d416	-0.032917105
88	0xbd74d0e3	-0.059769522
89	0x3dc7ee2d	0.09762225
90	0xbdaa0335	-0.08301393
91	0xbd33cb4b	-0.043895047
92	0xbc50fa96	-0.012755057
93	0xbde4e476	-0.11176388
94	0x3dd54439	0.10413403
95	0xbe36df0f	-0.17858528
96	0x3d9cba30	0.076527
97	0xbe0e2524	-0.13881356
98	0xbe0c2ea3	-0.13689665
99	0x3e1b18cf	0.15146182
100	0xbe19508e	-0.14972135
101	0x3df565a5	0.11982278
102	0xbe359695	-0.17733224
103	0x3e02ab98	0.1276077
104	0x3e5add08	0.21373379
105	0x3ec9f622	0.39445597
106	0xbd57ec99	-0.05271587
107	0xbdd40661	-0.10352779
108	0x3de1cee4	0.110257894
109	0xbda46487	-0.080269866
110	0x3e287dee	0.16454288
111	0x3d51792e	0.051140957
112	0xbdc993ae	-0.09842621
113	0x3d829af7	0.063772134
114	0xbd0702c9	-0.03296164
115	0x3d875a28	0.06608993
116	0xbd92db6a	-0.07170756
117	0xbd72fde2	-0.059324153
118	0xbc9b848f	-0.018984107
119	0xbe840bf8	-0.2579038
120	0xbda0de2c	-0.07854876
121	0x3e523e66	0.20531616
122	0x3e676781	0.22598077
123	0xbe06a9f1	-0.13150765
124	0x3e1a8c90	0.15092683
125	0x3c5bb52e	0.013409896
126	0xbe1e7cfc	-0.15477365
127	0x3c8b855f	0.01703137
128	0x3e157ad1	0.14597632
129	0xbdd38ee7	-0.10329991
130	0x3c6a0eb9	0.014285737
131	0x3e04b420	0.12959337
132	0x3deb8fa0	0.11502004
133	0x3e96c7c0	0.29449272
134	0xbd6f92df	-0.058489677
135	0xbd894708	-0.06703001
136	0x3d9964de	0.07489942
137	0xbd9c1398	-0.07620925
138	0x38bf23a8	9.114231e-05
139	0x3d8c8e8d	0.06863127
140	0xbe9ce1f1	-0.3064113
141	0x3dc0f817	0.094223194
142	0xbdbd5754	-0.09245172
143	0xbee71f28	-0.45140958
144	0xbca5b173	-0.020226216
145	0xbe9c7825	-0.30560413
146	0xbdccb0c1	-0.09994651
147	0x3e4fe05d	0.20300432
148	0x3c9bf246	0.019036423
149	0xbe573103	-0.2101479

fc3.weight f4 [1, 150]
0	0xbcbe26f1	-0.023211928
1	0xbc1b25bf	-0.009469449
2	0x3c939d4c	0.018019341
3	0x3bc26e6b	0.005933573
4	0xbc1e19bb	-0.009649689
5	0xbbc37990	-0.005965419
6	0x3c79fe31	0.015258358
7	0x3c234abf	0.009966551
8	0x3c979e1e	0.018508013
9	0xbc826e77	-0.015921814
10	0x3c7bb2f4	0.01536249
11	0xbc3b4602	-0.011430265
12	0xbc4d0d88	-0.012515433
13	0x3cd4f1c0	0.025994182
14	0xbc1c66f6	-0.009546032
15	0x3c97ced8	0.018531248
16	0xbc93b308	-0.018029705
17	0x3c4254af	0.01186101
18	0xbd02e7e0	-0.031959414
19	0xbbf7aece	-0.00755868
20	0xbcaa7f76	-0.020812731
21	0x3c340f21	0.010989935
22	0x3caaa3d7	0.020830078
23	0xbc2ad843	-0.010427537
24	0xbc8fda6b	-0.017560204
25	0x3c23bc6d	0.009993655
26	0xbca7f93e	-0.02050459
27	0xba85a833	-0.0010197222
28	0xbcb6e039	-0.022323715
29	0xbc09b9eb	-0.008406143
30	0xbbc31031	-0.005952858
31	0xbcaf34ba	-0.021387447
32	0x3bccad7a	0.006246266
33	0xbc2bd210	-0.0104870945
34	0xbc535e8a	-0.012900958
35	0x3bc7fd73	0.0061032115
36	0x3bf56afc	0.00748956
37	0xbcb96a95	-0.02263383
38	0xbcb0194f	-0.021496443
39	0x3c2c252c	0.010506909
40	0xbc4ef6e4	-0.0126321055
41	0x3c51c9a3	0.012804422
42	0xbc8e86b2	-0.017398212
43	0x3c7e7fe4	0.015533421
44	0x3c6cf5f8	0.01446294
45	0x3ca54b00	0.020177364
46	0x3c6ad43c	0.014332827
47	0xbc345398	-0.011006258
48	0xbc029958	-0.00797113
49	0xbc7f055c	-0.015565243
50	0xbc21dd24	-0.009879384
51	0xbc17e319	-0.009270453
52	0x3c3e35b2	0.011609482
53	0xbc82039f	-0.015870867
54	0xb97f107e	-0.00024324839
55	0xbca8a02b	-0.020584187
56	0xbc98b3b0	-0.01864037
57	0xbc606447	-0.013695783
58	0xbbdc7268	-0.0067275055
59	0x3b68e2fb	0.0035535682
60	0xbc26f390	-0.010189906
61	0x3ccd49d9	0.025059627
62	0xbc962f79	-0.018333184
63	0xbc1861c6	-0.009300655
64	0xbcae6edf	-0.021293102
65	0x3b9d1293	0.004793474
66	0x3c645070	0.013935193
67	0x39c1874b	0.0003691263
68	0xbc66807a	-0.014068717
69	0x3cca47df	0.024692474
70	0xbc85cfb1	-0.016334387
71	0x3cb7d3cf	0.022439865
72	0xbcf92567	-0.030413343
73	0xbc2dcff9	-0.010608667
74	0xbcb74109	-0.022369878
75	0x3bc42774	0.0059861485
76	0x3bce9bc0	0.006305188
77	0xba8959a5	-0.0010478987
78	0x3bfadb5e	0.007655545
79	0x3c7e4216	0.015518686
80	0x3c62f362	0.013851972
81	0xbc69923e	-0.014256058
82	0xbc8fc402	-0.017549518
83	0x3c2199ac	0.009863298
84	0x3c092410	0.008370414
85	0xbbc6fe40	-0.0060727894
86	0x3c77f6b0	0.0151344985
87	0x3c574cb8	0.01314085
88	0x3c9697e3	0.018382972
89	0xbce03021	-0.0273667
90	0xbc6307ec	-0.013856869
91	0x3bd9d513	0.006647715
92	0x39edf5ba	0.00045387243
93	0x3a2c730d	0.0006578423
94	0x3c2c7148	0.010525055
95	0xbc481656	-0.012212357
96	0x3c5212b8	0.012821846
97	0x3b478906	0.0030446663
98	0xbb0db4a9	-0.0021622574
99	0x3c4ee5d4	0.0126280375
100	0x3ab47ef5	0.0013770746
101	0xbc57044f	-0.013123586
102	0xbbb7f97e	-0.0056144586
103	0xbc72c0b5	-0.014816453
104	0x3c4b4249	0.01240594
105	0xbc28af10	-0.010295644
106	0xbc424fe7	-0.0118598705
107	0xbc85d008	-0.016334549
108	0x3c7dc310	0.015488401
109	0xbc9852a5	-0.018594095
110	0xbc23aa71	-0.009989367
111	0x3c61c3f9	0.013779634
112	0xbc7f96de	-0.015599934
113	0xbbeec0db	-0.0072861738
114	0x3c95ed2d	0.01830157
115	0x3c2ad54b	0.01042683
116	0xbbef542c	-0.0073037352
117	0xbbdbcc4e	-0.0067077046
118	0xbcac46c6	-0.021029841
119	0xbc83aa3c	-0.016072385
120	0xbad6e661	-0.0016395563
121	0x3c2feb12	0.0107371975
122	0x3bd0ae00	0.0063683987
123	0xbc614582	-0.013749482
124	0x3c361786	0.011114007
125	0xbc8f166c	-0.017466746
126	0xbbe72928	-0.0070544668
127	0x3c73a4d5	0.014870842
128	0x3c5bd6e5	0.013417934
129	0xbcb6332e	-0.022241201
130	0x3c157510	0.009122148
131	0xbcebcc08	-0.028783813
132	0x3c0f28c7	0.008737749
133	0xbc3ca582	-0.0115140695
134	0xbca2c28e	-0.019868162
135	0x3bf40e3a	0.007447985
136	0x3c8003ba	0.015626777
137	0xbc16e75c	-0.009210434
138	0x3c125c0e	0.00893308
139	0xbbe696b4	-0.007037008
140	0xbc868ed5	-0.01642553
141	0xbcbee4dc	-0.023302488
142	0x3b0dec90	0.0021655895
143	0xbc1ed715	-0.009694834
144	0x3c94eb56	0.018178623
145	0xbbda80d9	-0.006668192
146	0xbc28ef18	-0.010310911
147	0xbd068c4e	-0.03284865
148	0xbd00ffb8	-0.031493872
149	0xbc15599d	-0.009115604
