agent1_checkpoint_critic.pth (torch_old, 164612 bytes, 5 tensors)

fc1.weight f4 [200, 52]
0.26542675 0.68436533 0.12903203 0.13172343 0.09938623 -0.05670017 0.02189226 0.13112807
0.3377414 0.5907629 0.01978834 -0.070542224 -0.05910328 -0.23101225 0.021327378 -0.06476041
0.17881724 0.73529947 -0.09508215 0.20741507 -0.108670235 -0.32320097 -0.106157824 0.15921727
0.024231983 0.10969958 -0.025312496 -0.12143908 -0.022428103 -0.15552668 -0.027664375 -0.16628079
0.025543801 0.06732409 -0.04830397 -0.07738533 -0.021935506 -0.15339363 -0.059477717 -0.11871441
-0.0496891 -0.0013080935 0.006863708 -0.07566538 0.15954019 -0.28941408 0.05268854 -0.06728326
0.71046054 -0.14114334 -0.46267462 0.056396082 0.15891828 -0.66110843 -0.06174608 0.1770682
0.26913625 -0.34410986 0.008173111 0.13251129 0.07963734 -0.7447373 -0.07174302 -0.039534744
0.11791505 -0.10149408 0.03284691 -0.014667049 0.089785606 -0.66093403 0.035571955 0.40283686
-0.13676523 0.056156937 0.05588827 0.40688217 0.11079604 -0.017999057 0.075060174 0.11380649
-0.25378793 -0.23905812 0.0634521 0.12342222 0.054936524 -0.12964097 -0.037774213 0.022999048
-0.049834885 -0.080279745 -0.060890883 0.037998132 0.11466197 -0.10886427 -0.0678977 0.13161542
0.043857627 0.112444274 0.0006634161 0.12177664 -0.28003412 0.5976821 0.8609375 -0.18729109
0.19462968 0.39313796 0.0689893 -0.09831418 0.064489804 -0.0108436 -0.009018431 -0.15023315
0.17463677 0.34862882 -0.058474205 -0.15682547 0.06840465 -0.16937372 0.04848286 -0.25181243
0.10944927 0.32053643 -0.03780767 -0.21624579 0.06325966 -0.47321376 -0.04635818 -0.14667635
-0.068388075 0.7390857 -0.0035008742 -0.16840017 0.006052949 0.014929256 -0.02332839 -0.21238342
0.07513027 0.74314517 -0.07407498 -0.05636206 -0.09631876 -0.12825514 -0.050712343 -0.12824608
0.025730865 0.7570937 0.020281127 0.08500458 -0.111692876 -0.54321533 0.03189623 0.021051954
-0.82899505 0.86892813 -0.45517647 0.5797126 0.025987301 -0.25206816 -0.0926295 -0.17264684
0.023350446 -0.45513794 0.003587826 -0.18931018 0.02015807 -0.08623982 0.03499813 -0.015549604
-0.067898706 -0.493907 0.020652989 -0.0033666566 -0.003200587 -0.20921722 0.028944574 0.14003912
0.06461179 -0.5068241 0.047064517 0.11069915 -0.044107836 0.87475586 -0.036469717 -0.010440269
-0.031517137 -0.36936298 -0.051315002 -0.0029535715 -0.03473021 0.7638539 -0.07819084 0.036172938
-0.045012433 -0.5246648 -0.098432906 0.08032617 -0.114749536 0.66634035 -0.09848691 -0.04300447
0.0033005527 -0.43604624 -0.012851357 -0.011662376 -0.5651706 -0.106662445 -0.047333073 -0.15888011
-0.08929413 0.5080581 0.057614766 -0.078177445 -0.038405683 -0.27431294 0.028325275 -0.013985253
-0.005976631 0.5905942 -0.015228231 0.1640503 0.052555062 -0.5383961 0.031848725 0.18120275
-0.046836074 0.7990336 -0.08336976 0.12317105 -0.06745931 -0.90422094 -0.16888587 0.08003466
-0.11305276 0.04612231 -0.029087417 0.1606866 -0.03871934 -0.2484394 -0.0023532459 0.13037075
-0.022448676 0.005206556 -0.096516736 0.16518402 0.008719992 -0.4859907 -0.06460732 0.119717196
-0.050444506 -0.0056032822 -0.07403843 0.3806042 0.08082868 -0.9250835 -0.035718195 0.35658228
00000000: 04e6 873e 9132 2f3f f920 043e 82e2 063e
00000010: 028b cb3d 703e 68bd 6657 b33c 7046 063e
00000020: 71ec ac3e 3d3c 173f 281b a23c 7178 90bd
00000030: 4816 72bd 7a8e 6cbe c1b6 ae3c 1ba1 84bd
00000040: de1b 373e 963c 3c3f 6eba c2bd 9e64 543e
00000050: 808e debd 997a a5be 4669 d9bd da09 233e
00000060: 2782 c63c 2caa e03d 275c cfbc 0db5 f8bd
00000070: 24bb b7bc 6342 1fbe 66a0 e2bc 8345 2abe
00000080: 3c41 d13c 36e1 893d 62da 45bd 337c 9ebd
00000090: 17b2 b3bc 3813 1dbe e89e 73bd 8a20 f3bd
000000a0: cc86 4bbd 5674 abba f5e8 e03b 73f6 9abd
000000b0: 815e 233e 152e 94be f0cf 573d cecb 89bd
000000c0: bee0 353f e187 10be b0e3 ecbe 94ff 663d
000000d0: 79bb 223e 673e 29bf 75e9 7cbd 5e51 353e
000000e0: 3acc 893e 2b2f b0be 83e8 053c 0ab1 073e
000000f0: e718 a33d 1ba7 3ebf 01ee 92bd 2fef 21bd
00000100: 727d f13d 21dc cfbd 7b8a 063d 104e 70bc
00000110: 84e1 b73d f932 29bf e6b3 113d a240 ce3e
00000120: 2f0c 0cbe d104 663d 19eb 643d dc52 d03e
00000130: 09e9 e23d c272 93bc 26b9 993d 6113 e93d
00000140: 7ef0 81be a7cb 74be 2df3 813d cac4 fc3d
00000150: 1f05 613d 9ac0 04be 22b9 1abd 8068 bc3c
00000160: aa1f 4cbd b569 a4bd b868 79bd eea3 1b3d
00000170: e5d3 ea3d 3bf4 debd f30d 8bbd 31c6 063e
00000180: 0ea4 333d 2f49 e63d 1ae9 2d3a 0866 f93d
00000190: a260 8fbe b201 193f 6666 5c3f 3cc9 3fbe
000001a0: 014d 473e 6149 c93e 434a 8d3d f258 c9bd
000001b0: 3b13 843d 5ba9 31bc 0bc2 13bc b8d6 19be
000001c0: fbd3 323e 7a7f b23e a682 6fbd db96 20be
000001d0: bd17 8c3d 4e70 2dbe f795 463d 8fed 80be
000001e0: f026 e03d 5a1d a43e 37dc 1abd 896f 5dbe
000001f0: 488e 813d 1349 f2be 13e2 3dbd 5332 16be
00000200: 0c0f 8cbd b834 3d3f ec6e 65bb 1871 2cbe
00000210: d157 c63b d799 743c 2e1b bfbc 0a7b 59be
00000220: e6dd 993d c33e 3e3f a0b4 97bd e7db 66bd
00000230: c542 c5bd 5155 03be bfb7 4fbd f152 03be
00000240: 89c9 d23c e5d0 413f 9b24 a63c e216 ae3d
00000250: 3cbf e4bd 2910 0bbf 9fa5 023d 2675 ac3c
00000260: 0539 54bf 1372 5e3f e40c e9be 0c68 143f
00000270: 52e3 d43c 140f 81be 89b4 bdbd 55ca 30be
00000280: 6f49 bf3c d707 e9be bb21 6b3b 87da 41be
00000290: 8922 a53c 819e b0bd 335a 0f3d c4c3 7ebc
000002a0: 7a0e 8bbd 61e1 fcbe 7530 a93c 20a3 5cbb
000002b0: f0c0 51bb 0a3d 56be 2c1d ed3c 6a66 0f3e
000002c0: 3053 843d 39bf 01bf b9c6 403d 3cb6 e23d
000002d0: 6baa 34bd 00f0 5f3f 4561 15bd a90d 2bbc
000002e0: 1d18 01bd 251d bdbe ae2f 52bd b590 41bb
000002f0: 4441 0ebd ee8b 433f 8522 a0bd 132a 143d
00000300: f55e 38bd 6f50 06bf 3197 c9bd 0c82 a43d
00000310: ce01 ebbd 4895 2a3f 81b3 c9bd 7525 30bd
00000320: 164e 583b 7441 dfbe 808e 52bc 8d13 3fbc
00000330: 05af 10bf d771 dabd 53e0 41bd 78b1 22be
00000340: d7df b6bd 1810 023f 76fd 6b3d 7f1b a0bd
00000350: 474f 1dbd bf72 8cbe 680a e83c 6722 65bc
00000360: 9dd7 c3bb 2e31 173f d57f 79bc cdfc 273e
00000370: fa43 573d 54d4 09bf cf73 023d 378d 393e
00000380: 2fd7 3fbd 778d 4c3f c4bd aabd 1a41 fc3d
00000390: 1b28 8abd 067b 67bf 6bf0 2cbe 36e9 a33d
000003a0: 3588 e7bd bfea 3c3d bc48 eebc 078b 243e
000003b0: 2c98 1ebd e666 7ebe ea38 1abb e97f 053e
000003c0: 49e6 b7bc c29b aa3b 91aa c5bd 0026 293e
000003d0: 4cde 0e3c c6d3 f8be d850 84bd 4a2e f53d
000003e0: e69e 4ebd bd9b b7bb 76a1 97bd 8ede c23e
000003f0: 8289 a53d 46d2 6cbf 3e4d 12bd f491 b63e

fc1.bias f4 [200]
-0.21045797 -0.40369368 -0.073366165 -0.026162466 -0.04216188 -0.42469972 -0.35474136 0.048959453
-0.057167828 -0.08524023 -0.16098234 0.11302836 0.014580805 -0.21087675 0.056584924 -0.012080726
-0.32153085 0.09803332 -0.135762 -0.04583891 0.15727288 0.17534086 0.0043460494 0.06394655
-0.10028856 -0.2034173 -0.2941885 -0.1095989 -0.13763218 -0.2676646 0.17351517 -0.23241736
-0.24417973 -0.08795985 -0.19216779 -0.20061027 -0.047584277 -0.20690112 -0.1962128 -0.13843136
-0.349819 -0.09726034 -0.10621744 -0.26975238 -0.052610315 -0.102918305 0.051631175 -0.2903018
-0.154617 -0.0320091 -0.10966058 -0.27285898 0.24518813 -0.036291618 -0.16124491 -0.22712319
-0.43179688 -0.04111176 -0.16912428 0.22588 0.028537134 0.19071533 -0.2592966 -0.08302919
-0.1259366 -0.19483687 -0.31905556 -0.09401944 -0.29717407 -0.09253439 -0.05508876 -0.14292704
-0.16280751 -0.20815805 -0.05209655 -0.01302007 -0.31639433 -0.20065418 -0.24262103 -0.05799074
-0.15703626 -0.04811963 -0.034669977 -0.1503601 0.10863996 0.13787444 -0.026410853 -0.123751774
-0.19843243 -0.10001517 -0.000982859 -0.1886744 -0.023140585 0.016151246 -0.14807588 -0.08788592
-0.30031386 -0.12376622 0.026625752 -0.20511885 -0.11726562 -0.4122917 -0.078549616 -0.16606988
-0.27778718 -0.35589308 -0.082672775 -0.21609579 -0.25033915 -0.19081616 -0.15791108 -0.10350479
-0.4281487 -0.54599875 -0.1023991 -0.106047966 -0.14961426 -0.05025405 -0.17184836 -0.34126848
-0.11261349 0.013338017 -0.15804936 -0.21321906 -0.11452488 -0.1863198 -0.004847761 -0.033757985
-0.18205957 -0.12690927 -0.055989623 -0.08002685 -0.07294435 -0.120920464 -0.22593968 0.19587575
-0.25768152 0.24182273 -0.03351087 -0.20895305 -0.3882604 -0.1572561 -0.1104913 -0.136334
-0.277971 -0.06632425 -0.21290644 -0.15709294 -0.2500504 -0.303586 -0.26449573 -0.045468494
-0.27108794 -0.024368444 -0.12568499 -0.20855331 -0.009754633 -0.33275318 -0.15442117 -0.015526361
0.21453513 -0.20277098 -0.16628388 -0.24174953 -0.24760312 0.05252067 -0.13332655 -0.03598097
-0.3119835 -0.043133613 -0.13300355 -0.008570345 0.054601874 -0.16656896 0.020603225 -0.15128735
-0.20094652 -0.06669591 -0.28267047 -0.19009537 -0.17028384 -0.2983351 0.020165872 -0.18734972
-0.02097057 -0.095504984 -0.24684437 -0.18630148 -0.28798613 -0.19796263 -0.29705217 -0.27114794
-0.20676257 -0.13163479 -0.16601071 0.01913313 -0.22565873 0.040712263 0.016086204 -0.19325644
00000000: 4b82 57be f0b0 cebe 0041 96bd ab52 d6bc
00000010: efb1 2cbd 3e72 d9be a9a0 b5be b589 483d
00000020: d028 6abd 6e92 aebd 8ed8 24be 6a7b e73d
00000030: 54e4 6e3c 13f0 57be 98c5 673d 3dee 45bc
00000040: b19f a4be b1c5 c83d 3205 0bbe 95c1 3bbd
00000050: 240c 213e 8e8c 333e 4e69 8e3b 69f6 823d
00000060: 1764 cdbd a04c 50be e09f 96be 6375 e0bd
00000070: 73ef 0cbe 560b 89be f6ad 313e d1fe 6dbe
00000080: 400a 7abe 4b24 b4bd a2c7 44be c76c 4dbe
00000090: bbe7 42bd e3dd 53be 02ec 48be f3c0 0dbe
000000a0: 7a1b b3be 6e30 c7bd 8788 d9bd fc1c 8abe
000000b0: ea7d 57bd d5c6 d2bd 367b 533d 70a2 94be
000000c0: eb53 1ebe f91b 03bd ba95 e0bd 2cb4 8bbe
000000d0: 9912 7b3e 85a6 14bd 631d 25be fb92 68be
000000e0: 7b14 ddbe ce64 28bd ea2e 2dbe 164d 673e
000000f0: b5c6 e93c e14a 433e 86c2 84be 350b aabd
00000100: 86f5 00be 5183 47be 405b a3be 448d c0bd
00000110: 3327 98be ac82 bdbd c0a4 61bd 775b 12be
00000120: 03b7 26be 6227 55be 3163 55bd 2252 55bc
00000130: 70fe a1be 4a78 4dbe a671 78be b387 6dbd
00000140: 1dce 20be 1719 45bd 1b02 0ebd 00f8 19be
00000150: a17e de3d f52e 0d3e 935b d8bc 9271 fdbd
00000160: df31 4bbe c1d4 ccbd 47d3 80ba dd33 41be
00000170: 5391 bdbc 9e4f 843c 34a1 17be 89fd b3bd
00000180: bdc2 99be 2579 fdbd 401e da3c ad0a 52be
00000190: f528 f0bd e617 d3be 9fde a0bd 390e 2abe
000001a0: 1f3a 8ebe 9e37 b6be 5850 a9bd 3748 5dbe
000001b0: 742c 80be 5065 43be 71b3 21be 52fa d3bd
000001c0: 4e36 dbbe 93c6 0bbf 9fb6 d1bd ad2f d9bd
000001d0: 7b34 19be 31d7 4dbd 04f9 2fbe beba aebe
000001e0: e7a1 e6bd b387 5a3c b1d7 21be 1956 5abe
000001f0: 058c eabd 9eca 3ebe f7d9 9ebb d045 0abd
00000200: d36d 3abe 81f4 01be 6055 65bd 1ee5 a3bd
00000210: d963 95bd 26a5 f7bd bb5c 67be a793 483e
00000220: d5ee 83be 61a0 773e b242 09bd caf7 55be
00000230: 11ca c6be be07 21be 4349 e2bd 249b 0bbe
00000240: 3752 8ebe 02d5 87bd 2504 5abe f9dc 20be
00000250: 9b06 80be a06f 9bbe fc6b 87be 2c3d 3abd
00000260: 0acc 8abe 55a0 c7bc 91b3 00be 008f 55be
00000270: e5d1 1fbc a05e aabe 9520 1ebe 4762 7ebc
00000280: 19af 5b3e 32a3 4fbe 5246 2abe 308d 77be
00000290: ac8b 7dbe ea1f 573d c186 08be c860 13bd
000002a0: 4dbc 9fbe dfac 30bd 1532 08be a26a 0cbc
000002b0: 37a6 5f3d 0e91 2abe 18c8 a83c 12eb 1abe
000002c0: edc4 4dbe de97 88bd 2fba 90be 5ca8 42be
000002d0: e35e 2ebe 61bf 98be e632 a53c 9bd8 3fbe
000002e0: 79ca abbc 1e98 c3bd c5c4 7cbe d1c5 3ebe
000002f0: eb72 93be b7b6 4abe 3917 98be e7d3 8abe
00000300: 91b9 53be 45cb 06be b6fe 29be 15bd 9c3c
00000310: 1513 67be e7c1 263d 37c7 833c 04e5 45be

fc2.weight f4 [150, 200]
-0.2576267 -0.17991605 -0.011270968 -0.28792223 -0.023388198 -0.07208457 -0.051581446 0.06235519
0.03313258 0.08447969 -0.014328859 -0.09940346 0.030216312 -0.045557182 -0.05055689 -0.24802755
0.11035533 -0.2773081 -0.21012601 -0.15473223 0.00793072 -0.10754206 -0.10316026 -0.3779049
0.0013674422 -0.053183414 0.09054534 0.17723379 0.07987035 -0.122247554 -0.17405589 -0.061117772
-0.25078458 -0.35154027 -0.4381851 -0.19914441 0.12858309 -0.0021119674 -0.24717651 0.18828143
-0.16359502 -0.041465517 -0.22783788 -0.1795464 -0.034740996 -0.28405356 0.3253778 -0.26998872
0.1478157 -0.3499383 0.05834516 -0.112390086 -0.07612921 0.02479172 -0.17460847 -0.017946746
-0.17033997 -0.2815288 -0.18663287 0.051263027 -0.4451534 0.043117847 -0.015112525 -0.08844892
-0.46288744 0.040617168 0.15153202 -0.07347566 -0.21071741 0.050298084 -0.71822846 -0.2920646
-0.35803786 -0.13791879 -0.18908498 -0.14116585 -0.11390693 -0.108597405 -0.10984069 -0.114812255
-0.0548222 0.06358956 0.027268013 -0.08935104 -0.01260794 -0.18250966 -0.57100534 0.03895145
-0.18100421 0.057944413 -0.2994253 -0.11362115 0.009888808 -0.004864119 0.01330741 0.16256666
-0.1585619 -0.11927867 0.014720822 0.10462949 0.058353722 -0.29183844 -0.052608136 -0.09685296
0.20820875 0.0035204391 0.16001102 -0.11652373 -0.15710989 -0.11522404 -0.014267567 0.1368123
-0.25359848 -0.03681098 0.048152946 -0.4040802 -0.094718456 -0.19787465 0.01834389 -0.30921322
0.061303835 0.07658319 -0.37209874 -0.09550871 -0.24664596 -0.14946933 -0.27868012 0.08276976
0.02555271 -0.09417538 0.021340523 -0.16109887 0.061582554 -0.028032381 0.05248277 0.021206426
-0.11089834 0.17618398 -0.6053689 -0.089123435 -0.1854919 -0.012640664 -0.2986907 -0.011300269
0.085927024 -0.1526414 -0.053565703 -0.07223227 0.06298271 -0.30366534 -0.08789077 -0.081695564
-0.11592678 0.19154231 -0.010168021 -0.20484385 -0.027000051 -0.419578 0.029055038 -0.071447626
-0.30865347 -0.16357799 -0.16178285 -0.18400611 -0.0055691893 -0.15112464 -0.47992226 0.13937256
-0.18396041 -0.2841944 0.062470876 -0.15840368 -0.19853963 0.07106377 -0.11326332 -0.34818074
0.008612949 -0.03568968 -0.2098571 -0.05615553 0.021149669 -0.17768535 -0.30580425 0.006738623
-0.24463786 -0.1824586 -0.08662446 -0.37854883 -0.124552645 -0.4503697 0.059430756 -0.15763322
-0.28924167 -0.086025156 -0.04037929 0.021822445 -0.02657789 0.038031533 0.05768759 -0.057349928
-0.3060935 -0.21289971 -0.02022914 -0.100648314 -0.14770192 -0.2003628 -0.006387494 -0.11555086
0.045784637 0.10040898 0.09265013 -0.112273514 -0.31225497 -0.04944446 -0.32026866 0.26359627
0.049911212 -0.06051287 -0.08053016 0.039401963 -0.34659088 -0.09728653 -0.14617564 0.07699844
-0.34841943 -0.08131063 -0.054950263 0.04254447 -0.024064958 0.1895025 0.05263072 0.03862588
-0.25929052 -0.11727533 0.027322844 -0.119212404 -0.02956315 -0.0066445405 0.030320143 0.048578076
0.10486284 0.027938401 -0.018150756 0.23292282 -0.022094006 0.09643896 -0.11905053 -0.060902398
0.0079526035 -0.1450287 -0.026504302 -0.14532183 -0.124885656 -0.38725093 0.26096123 0.13012722
00000000: a6e7 83be ea3b 38be dea9 38bc 8b6a 93be
00000010: 9b98 bfbc 13a1 93bd 1147 53bd 2868 7f3d
00000020: 07b6 073d b003 ad3d 97c3 6abc 0b94 cbbd
00000030: 3388 f73c 2b9a 3abd be14 4fbd effa 7dbe
00000040: fa01 e23d 54fb 8dbe 462b 57be 2072 1ebe
00000050: daef 013c 033f dcbd b045 d3bd c07c c1be
00000060: bf3b b33a dad6 59bd d66f b93d c67c 353e
00000070: 1193 a33d ed5c fabd b53b 32be a156 7abd
00000080: d666 80be 16fd b3be cc59 e0be 83ec 4bbe
00000090: 49ab 033e ef68 0abb d71b 7dbe d9cc 403e
000000a0: 7485 27be bfd7 29bd 554e 69be 03db 37be
000000b0: 934c 0ebd 786f 91be eb97 a63e f63b 8abe
000000c0: 005d 173e 1d2b b3be 56fb 6e3d c62c e6bd
000000d0: a2e9 9bbd 0118 cb3c 90cc 32be 0e05 93bc
000000e0: 9a6d 2ebe 8b24 90be b01c 3fbe 2ef9 513d
000000f0: 25eb e3be 579c 303d 869a 77bc b524 b5bd
00000100: 95ff ecbe 305e 263d 362b 1b3e 687a 96bd
00000110: 4ec6 57be 5d05 4e3d d2dd 37bf 7e89 95be
00000120: bd50 b7be 953a 0dbe 7e9f 41be c88d 10be
00000130: 0948 e9bd 5168 debd 28f4 e0bd b022 ebbd
00000140: 3e8d 60bd 3e3b 823d 2b61 df3c aefd b6bd
00000150: 8891 4ebc d0e3 3abe 682d 12bf 8e8b 1f3d
00000160: 2b59 39be 1f57 6d3d 464e 99be 35b2 e8bd
00000170: ab04 223c 3063 9fbb 5307 5a3c e077 263e
00000180: 0d5e 22be 6048 f4bd 9a2f 713c fc47 d63d
00000190: 5004 6f3d d96b 95be a17b 57bd d85a c6bd
000001a0: ad34 553e 2bb7 663b eed9 233e fea3 eebd
000001b0: 6ae1 20be 95fa ebbd 83c2 69bc 8618 0c3e
000001c0: a9d7 81be 1cc7 16bd 063c 453d 9ae3 cebe
000001d0: c0fb c1bd a79f 4abe ed45 963c 3251 9ebe
000001e0: bb19 7b3d a6d7 9c3d ba83 bebe 129a c3bd
000001f0: c290 7cbe 7d0e 19be 29af 8ebe 3183 a93d
00000200: eb53 d13c 06df c0bd 52d2 ae3c 1af7 24be
00000210: fd3d 7c3d 2aa4 e5bc 2cf8 563d 19b9 ad3c
00000220: ab1e e3bd 9369 343e 75f9 1abf 5986 b6bd
00000230: 97f1 3dbe ca1a 4fbc fded 98be c324 39bc
00000240: 82fa af3d 074e 1cbe b667 5bbd 83ee 93bd
00000250: 14fd 803d 067a 9bbe 1300 b4bd 0150 a7bd
00000260: 056b edbd ab23 443e c597 26bc 96c2 51be
00000270: 362f ddbc edd2 d6be d504 ee3c 2253 92bd
00000280: d407 9ebe fd80 27be 67aa 25be 196c 3cbe
00000290: bf7d b6bb 6bc0 1abe 5fb8 f5be aeb7 0e3e
000002a0: 1e60 3cbe ee81 91be 76e1 7f3d 9334 22be
000002b0: f94d 4bbe e289 913d 99f6 e7bd bf44 b2be
000002c0: 541d 0d3c 582f 12bd c8e4 56be 5703 66bd
000002d0: 1242 ad3c 26f3 35be 6092 9cbe abcf dc3b
000002e0: 5982 7abe 6dd6 3abe 2a68 b1bd 27d1 c1be
000002f0: 7515 ffbd db96 e6be aa6d 733d 9a6a 21be
00000300: 7c17 94be f52d b0bd c164 25bd fcc4 b23c
00000310: e0b9 d9bc f4c6 1b3d d349 6c3d c2e7 6abd
00000320: 4ab8 9cbe 6202 5abe 95b7 a5bc b420 cebd
00000330: 2c3f 17be e82b 4dbe 2f4e d1bb eea5 ecbd
00000340: ac88 3b3d 39a3 cd3d 5abf bd3d a8ef e5bd
00000350: e2df 9fbe 4686 4abd 41fa a3be 17f6 863e
00000360: b36f 4c3d 58dc 77bd ffec a4bd f463 213d
00000370: 5c74 b1be 293e c7bd 11af 15be 5cb1 9d3d
00000380: 0864 b2be 3086 a6bd 8713 61bd 1c43 2e3d
00000390: e023 c5bc f20c 423e 4f93 573d 2c36 1e3d
000003a0: bac1 84be 0c2e f0bd 28d4 df3c a225 f4bd
000003b0: 6b2e f2bc 72ba d9bb f361 f83c cef9 463d
000003c0: 54c2 d63d 13df e43c e5b0 94bc 5283 6e3e
000003d0: 7dfe b4bc ca81 c53d c4d0 f3bd cb74 79bd
000003e0: a34b 023c 6782 14be 8d1f d9bc 3fcf 14be
000003f0: 0dc4 ffbd c145 c6be b69c 853e 1240 053e

fc2.bias f4 [150]
0.08660816 -0.2583451 -0.021924352 -0.1109212 -0.038148116 -0.24431966 -0.10021745 0.112268396
-0.055978917 -0.11751183 0.09172736 -0.017522786 0.032942604 -0.06662285 0.11004787 0.08168956
-0.128279 -0.13932605 -0.093339995 -0.36236107 0.32982922 0.21988267 -0.08624629 -0.5424536
-0.08142631 -0.13606018 0.07752267 -0.13534315 0.123225674 -0.056374583 -0.09889141 0.060737293
-0.12940006 0.045766506 0.064677276 0.22319561 -0.04633228 -0.00011071902 -0.4971744 0.14326227
0.25433692 -0.0779754 -0.07789113 0.19671437 0.12707555 -0.067767315 0.13074167 -0.19153823
-0.090086624 -0.08451172 -0.39175493 -0.2260998 -0.023407754 0.068818554 -0.13472067 -0.06864108
-0.11381906 -0.065447964 0.49707147 -0.03154903 -0.22323065 0.14620693 0.09298451 -0.07982871
-0.08405464 -0.09039178 0.16544844 -0.09311815 -0.06981393 -0.05450169 -0.0065010027 0.17383006
-0.065839924 -0.16951583 -0.13111329 0.13183007 0.27070257 -0.15280022 0.25238964 0.07705981
0.2440393 -0.18986315 -0.12119701 -0.02073039 -0.09236153 -0.21033375 -0.176352 -0.03096469
-0.06171265 0.10183899 -0.08313438 -0.04486543 -0.012983402 -0.11176653 0.10300672 -0.1785932
0.07769982 -0.13881706 -0.14977169 0.1456733 -0.1497321 0.13034679 -0.18757518 0.12131101
0.22316217 0.4169822 -0.057202898 -0.11276293 0.10025838 -0.08027548 0.17297761 0.044365976
-0.1173845 0.067848206 -0.030397026 0.068958685 -0.07184381 -0.059325952 -0.027753064 -0.26911944
-0.07855306 0.21151395 0.21315755 -0.14138475 0.15203281 0.01870672 -0.13621736 0.017376313
0.151735 -0.10330129 -0.002836764 0.1225027 0.11817459 0.3147886 -0.058491085 -0.067031085
0.07539572 -0.076210424 4.2289903e-06 0.07102824 -0.31116867 0.092233025 -0.092451684 -0.46002054
-0.014703896 -0.29568 -0.11109796 0.19713262 0.019522965 -0.20270674
00000000: 9e5f b13d cf45 84be b39a b3bc a72a e3bd
00000010: 3341 1cbd ef2e 7abe ce3e cdbd f9ec e53d
00000020: 264a 65bd 0baa f0bd 8edb bb3d f28b 8fbc
00000030: d3ee 063d 9071 88bd c760 e13d db4c a73d
00000040: 925b 03be 7dab 0ebe 0a29 bfbd 6487 b9be
00000050: 60df a83e ec28 613e e5a1 b0bd 3dde 0abf
00000060: d6c2 a6bd 5c53 0bbe 35c4 9e3d 6597 0abe
00000070: be5d fc3d 09e9 66bd 9487 cabd abc7 783d
00000080: 7381 04be a975 3b3d 8575 843d 648d 643e
00000090: ebc6 3dbd d231 e8b8 a58d febe 58b3 123e
000000a0: 7338 823e 91b1 9fbd 6285 9fbd 7e6f 493e
000000b0: 1820 023e 97c9 8abd 25e1 053e 9922 44be
000000c0: 567f b8bd 7b14 adbd 1a94 c8be b586 67be
000000d0: 9ec1 bfbc bef0 8c3d 37f4 09be b293 8cbd
000000e0: f819 e9bd 9509 86bd 2780 fe3e 8e39 01bd
000000f0: 9396 64be 45b7 153e aa6e be3d 3c7d a3bd
00000100: d724 acbd 531f b9bd 516b 293e bbb4 bebd
00000110: 9bfa 8ebd 2a3d 5fbd 5d06 d5bb 8200 323e
00000120: 15d7 86bd 8f95 2dbe 9042 06be 76fe 063e
00000130: 8799 8a3e a977 1cbe 3739 813e 89d1 9d3d
00000140: 70e5 793e 7c6b 42be 2336 f8bd c7d2 a9bc
00000150: 0b28 bdbd bb61 57be 9e95 34be a9a9 fdbc
00000160: 67c6 7cbd f690 d03d 5c42 aabd d0c4 37bd
00000170: 56b8 54bc dae5 e4bd 30f5 d23d 23e1 36be
00000180: 1521 9f3d 0f26 0ebe c05d 19be 622b 153e
00000190: 5f53 19be a179 053e b513 40be e871 f83d
000001a0: a084 643e b17e d53e 964d 6abd 40f0 e6bd
000001b0: 4454 cd3d 7967 a4bd 0b21 313e 19b9 353d
000001c0: 4967 f0bd 00f4 8a3d 2f03 f9bc 363a 8d3d
000001d0: d922 93bd c5ff 72bd 655a e3bc 06ca 89be
000001e0: 6de0 a0bd 1d97 583e f945 5a3e 2ac7 10be
000001f0: 7dae 1b3e d63e 993c 907c 0bbe c558 8e3c
00000200: 6b60 1b3e a08f d3bd 01e9 39bb b2e2 fa3d
00000210: 8505 f23d f92b a13e 5994 6fbd 9847 89bd
00000220: 1269 9a3d 3614 9cbd c0e6 8d36 4177 913d
00000230: 8051 9fbe abe4 bc3d 4f57 bdbd d087 ebbe
00000240: 9ce8 70bc 5e63 97be 5487 e3bd 22dd 493e
00000250: a0ee 9f3c 5b92 4fbe

fc3.weight f4 [1, 150]
-0.023065625 -0.0089155175 0.020903232 0.0043006437 -0.008459932 -0.0069512334 0.011209385 0.008976969
0.020388419 -0.016572291 0.017673304 -0.011439693 -0.016720174 0.025976188 -0.012071217 0.007530745
-0.018028582 0.011860394 -0.030027736 -0.005556213 -0.02288416 0.010702025 0.020838048 -0.009695165
-0.013653438 0.010017773 -0.013429625 0.001723124 -0.026123647 -0.009923764 -0.005953199 -0.013887864
0.006247764 -0.010664455 -0.015264556 0.0067223357 0.0074897585 -0.024521302 -0.020757575 0.00994402
-0.011404064 0.0015708082 -0.011508966 0.015947849 0.013029607 0.020178072 0.013662294 -0.010918446
-0.006630022 -0.015810968 -0.0075475094 -0.006448385 0.012426712 -0.014688046 -0.00024047072 -0.02058565
-0.016703906 -0.016192943 -0.0063620033 0.0035689867 -0.011071717 0.02707692 -0.025980769 -0.009308397
-0.021291895 0.0052963123 0.015797423 0.00036774378 -0.016032077 0.024693068 -0.022271415 0.022240296
-0.035899967 -0.010555923 -0.025737695 0.007564619 0.0072974535 -0.0010710061 0.0082333265 0.018992217
0.011465753 -0.017116927 -0.016370213 0.00986276 0.008601112 -0.0057288553 0.013919142 0.012631089
0.018267369 -0.02490122 -0.013805837 0.006047622 0.0003742222 0.00065778923 0.01106388 -0.012213083
0.008074565 0.0030459515 0.012522257 0.01377789 0.0013757282 -0.010598218 0.0049011973 -0.017619386
0.011149301 -0.010752311 -0.012471219 -0.016987883 0.014426769 -0.018594299 -0.010569833 0.011650426
-0.017590525 -0.007752112 0.017127013 0.008643575 -0.0074561746 -0.0067076553 -0.017578164 -0.015544916
-0.0016394424 0.008542039 0.007399514 -0.017343063 0.011252316 -0.020344894 -0.008566132 0.018805403
0.016002718 -0.022241415 0.011282227 -0.024468526 0.008225775 -0.011400152 -0.019868411 0.007448083
0.017328948 -0.009210908 0.007887219 -0.008076864 -0.015203098 -0.020579005 0.0021671427 -0.0115988515
0.01826357 -0.0063050394 -0.0089498265 -0.023930311 -0.03801425 -0.008836812
00000000: 1ff4 bcbc 6412 12bc 413d ab3c 6aec 8c3b
00000010: 879b 0abc 2cc7 e3bb 91a7 373c 2314 133c
00000020: 9d05 a73c 9dc2 87bc 9bc7 903c 8d6d 3bbc
00000030: bff8 88bc 04cc d43c 5bc6 45bc 78c4 f63b
00000040: adb0 93bc 1952 423c bafc f5bc e510 b6bb
00000050: 9077 bbbc 8c57 2f3c 8eb4 aa3c 78d8 1ebc
00000060: abb2 5fbc 9621 243c ee07 5cbc 72da e13a
00000070: 4201 d6bc 4897 22bc 0e13 c3bb ec89 63bc
00000080: 0bba cc3b f7b9 2ebc 3018 7abc 0a47 dc3b
00000090: a66c f53b e6e0 c8bc ca0b aabc 3eec 223c
000000a0: 1cd8 3abc 94e3 cd3a 1a90 3cbc 10a5 823c
000000b0: 227a 553c 7c4c a53c d0d7 5f3c 48e3 32bc
000000c0: a840 d9bb 0186 81bc 1951 f7bb f94c d3bb
000000d0: 6899 4b3c 21a6 70bc de26 7cb9 3da3 a8bc
000000e0: a1d6 88bc 10a7 84bc 5a78 d0bb a9e5 693b
000000f0: 2666 35bc 6bd0 dd3c 9fd5 d4bc 3f82 18bc
00000100: 576c aebc b08c ad3b 9969 813c bccd c039
00000110: b455 83bc 1e49 ca3c 8b72 b6bc 4831 b63c
00000120: d80b 13bd c0f2 2cbc dcd7 d2bc a0e0 f73b
00000130: 7a1f ef3b 0061 8cba 13e5 063c 9195 9b3c
00000140: dbda 3b3c cc38 8cbc d31a 86bc 6a97 213c
00000150: aeeb 0c3c 1fb9 bbbb 1d0d 643c a1f2 4e3c
00000160: 73a5 953c a5fd cbbc e131 62bc 212b c63b
00000170: 4133 c439 7d6f 2c3a 4745 353c 6219 48bc
00000180: 2e4b 043c 969e 473b 272a 4d3c a9bc 613c
00000190: c751 b43a 26a4 2dbc 399a a03b 8856 90bc
000001a0: 8fab 363c 762a 30bc 1554 4cbc 2c2a 8bbc
000001b0: 415e 6c3c 1253 98bc 182d 2dbc 6ee1 3e3c
000001c0: 011a 90bc 6e05 febb f34d 8c3c c89d 0d3c
000001d0: ed52 f4bb e4cb dbbb 1500 90bc 1ab0 7ebc
000001e0: 8fe2 d6ba e9f3 0b3c 9f77 f23b 0a13 8ebc
000001f0: a25b 383c 56aa a6bc f658 0cbc ca0d 9a3c
00000200: 2218 833c a133 b6bc 17d9 383c 3872 c8bc
00000210: 67c5 063c b4c7 3abc 14c3 a2bc 0c0f f43b
00000220: 70f5 8d3c 59e9 16bc 6539 013c d354 04bc
00000230: 6a16 79bc 4d95 a8bc 9f06 0e3b 1c09 3ebc
00000240: 7b9d 953c 819a cebb 4ba2 12bc 8009 c4bc
00000250: d5b4 1bbd 47c8 10bc
