agent1_checkpoint_actor.pth (torch_old, 142826 bytes, 6 tensors)

fc1.weight f4 [200, 24]
000000 e9 e2 2b 3d 31 df 62 be c0 8f 61 bd cc e2 48 3d
       0.041964445 -0.22155453 -0.05506873 0.049044415
000010 3a 44 4b bd ab f0 03 3e dd 0f 7c 3b 3c e3 35 bd
       -0.049625613 0.12884776 0.0038461604 -0.04440616
000020 d6 37 08 3d e1 30 61 be 48 62 6f bd eb a1 cb bc
       0.033256374 -0.21991302 -0.058443338 -0.024857482
000030 11 67 01 be b8 6c e8 3d c8 ad 34 bd 38 81 68 b9
       -0.12636973 0.113488615 -0.044111043 -0.00022173382
000040 ae 3a 0d bd a2 09 0e be c9 e1 89 bd a2 54 bb 3c
       -0.03447979 -0.13870862 -0.06732518 0.022867505
000050 22 65 9c bd 71 94 4a 3d 3e 77 c2 3c aa 7c 5c bd
       -0.07636477 0.04945797 0.0237385 -0.053829826
000060 be 1d 73 bd 15 2b 26 3e 4e dc 0c bd 98 33 09 3e
       -0.059354536 0.16227372 -0.034389786 0.13398588
000070 68 56 af bb 09 5d ce 3d 77 7a ec 3c c4 60 e8 3d
       -0.0053508766 0.10076339 0.02886699 0.113465816
000080 68 32 03 bd 2e 70 28 3e ae 93 cb 3b aa 6e 88 3d
       -0.032030493 0.16449043 0.006212673 0.066617325
000090 ef 4e 8d 3c 23 01 09 3e 17 05 71 3a 3d b2 5c 3c
       0.017249553 0.1337934 0.0009194179 0.01347023
0000a0 49 49 c9 bc 45 e5 53 3e 42 d2 6b bd 64 f7 83 bd
       -0.024571078 0.20692928 -0.057573564 -0.064436704
0000b0 32 ce 22 3e eb 45 00 3e ed 6c b3 bd f2 c3 ad bd
       0.1589897 0.12526672 -0.0876101 -0.08484639
0000c0 55 99 3b 3d 62 e5 e6 3d 19 64 56 bc f8 2b 1a 3d
       0.045800526 0.1127422 -0.013085389 0.037639588
0000d0 53 50 80 3d 0b 65 1d 3d e3 85 10 ba 60 6e 28 3d
       0.06265321 0.03842644 -0.0005513115 0.041120887
0000e0 1b 3a 64 bd 09 5e 23 3e 3a 97 34 3c ee 46 18 bc
       -0.055719476 0.1595384 0.011022383 -0.009294255
0000f0 a3 8e 7d 3e 65 3f 96 3d dd 59 45 bb e1 c4 ca bd
       0.24761443 0.0733631 -0.0030113377 -0.09900833
000100 ef f8 0c 3d c1 82 06 3e bf 49 80 bd f3 f3 12 3d
       0.03441709 0.13135816 -0.06264066 0.03587718
000110 f9 26 70 3e 00 96 d3 bd 85 48 52 3d cc d3 90 3d
       0.23452367 -0.103313446 0.05133869 0.07071647
000120 9e ba 4e 3c d4 2e f6 bd 14 7c 22 3c db 37 d9 bd
       0.012617735 -0.120206505 0.009917278 -0.10606357
000130 54 16 d2 bc 6f 53 33 3c ce 2c 6a 3b c7 66 a1 3c
       -0.025645413 0.010945185 0.0035732272 0.019702328
000140 9e 52 68 bd 45 bd d1 bd 28 07 1d 3c ae 6d b6 3c
       -0.056719415 -0.102411784 0.009584226 0.022269096
000150 7a 15 14 be 5d 5b 34 3c 41 cd 6f bc ea ca eb bc
       -0.14461318 0.011008111 -0.014636339 -0.02878328
000160 af 09 53 3d 5b bc b2 bd 9f e2 3c 3d ab b9 f9 bb
       0.051522907 -0.08727332 0.04611456 -0.0076210103
000170 3b 48 82 be 70 e7 6e 3b 01 b5 c0 bc de 98 9f bd
       -0.25445732 0.0036453865 -0.02352381 -0.07792829
000180 d2 f8 4c bd 60 ab 89 3b 44 9f d1 bd 7d d8 f7 bb
       -0.05004198 0.0042013377 -0.10235456 -0.007563649
000190 98 55 e1 bd 93 1a f2 3d 9e 1f ae bc 2d 46 b4 3d
       -0.11002654 0.11821475 -0.02125531 0.088024475
0001a0 c0 55 8f bc 6a 15 bb 3d af c8 61 3d 69 98 d8 3d
       -0.017496943 0.09134944 0.055123027 0.10575945
0001b0 7b d0 68 3d ca 88 17 bd ce 6a 3c bc c9 b6 9f 3d
       0.056839447 -0.036995687 -0.011500074 0.077985354
0001c0 9a 95 c1 bd ff 9e e8 3d bb 99 e5 ba 2b 0e d6 3c
       -0.09452362 0.11358451 -0.0017517129 0.026129803
0001d0 84 3c 1d 3e 3c fa ca bc a1 5b 4e 3d 1f 94 fa 3d
       0.15355116 -0.024777524 0.050380353 0.12235283
0001e0 45 de dd bc 96 6c 2f be 4b 25 9b 3d af 4b be 3a
       -0.027083525 -0.17131266 0.075754724 0.0014518405
0001f0 51 c7 b9 3b 74 50 35 be 17 28 45 3d 56 41 b8 bd
       0.0056695123 -0.17706472 0.048133936 -0.08996837
000200 12 96 11 3d d5 57 c5 bd 10 9e 39 bd 60 75 45 be
       0.03554351 -0.09635893 -0.045316756 -0.19283056
000210 66 3d 41 bb ca cc f6 bd ce e3 75 bd 64 bd 9b bd
       -0.002948606 -0.12050779 -0.060031705 -0.07604483
000220 be 48 8f 3c be 16 9b bd c7 6d b2 3c 0d 01 84 3d
       0.01749074 -0.07572697 0.021780862 0.06445513
000230 89 00 dc bd 76 eb cf bd 9d 43 a1 bd b9 73 67 3d
       -0.107422896 -0.101523325 -0.07874224 0.056506846
000240 49 08 af b7 df 22 34 be 98 6a 5c 3d 6f 4d cb bd
       -2.0865484e-05 -0.17591427 0.053812593 -0.09926879
000250 07 c4 34 bd eb f6 00 be 3c fb 71 bd ff 46 99 bd
       -0.04413226 -0.12594192 -0.059077486 -0.074842446
000260 89 b4 6d 3d 5d a2 39 be 39 c0 a9 3c ce 8b c2 bd
       0.0580335 -0.18128343 0.020721542 -0.09499322
000270 40 c6 05 3c b9 ce 6c 3d a4 f9 69 bd 81 7c 76 bd
       0.008164942 0.057814334 -0.05712284 -0.06017733
000280 08 42 b5 bd 06 e5 0b be 64 16 a1 bc 2f 52 95 bd
       -0.08850485 -0.13661584 -0.019663997 -0.07291066
000290 fe b8 2d 3e 19 e8 1b 3e 0b 7b 27 3d 28 dc 0e be
       0.169651 0.15225257 0.040888827 -0.1395117
0002a0 2d da 2f 3e c8 0e 08 be af 51 c4 3d b1 e7 96 3b
       0.17173071 -0.13286889 0.095858924 0.0046052565
0002b0 18 28 a1 3d f4 a1 f9 bc 42 ea 3d bc 31 49 5d 3d
       0.078689754 -0.030472733 -0.011591496 0.05402488
0002c0 26 58 89 3d b3 c0 08 be a7 2d 1c 3b 24 b2 08 be
       0.06706266 -0.13354759 0.0023830922 -0.13349205
0002d0 d7 cf 41 3d 1c d9 e6 3c 84 70 1a 3d 05 8a 13 bd
       0.047317352 0.028179698 0.03770496 -0.036020298
0002e0 d2 fb 83 3d a8 bd f0 bd b2 5b 6d 3d 11 6a 2a bd
       0.06444515 -0.11754924 0.057948776 -0.04160506
0002f0 cf 01 bd 3d c4 8a 7f 3c 6a c1 89 bd 1d 78 16 be
       0.092288606 0.015597049 -0.06726344 -0.14694257
000300 0b ba f2 3c ee f9 0f be 42 a1 c3 3b 16 01 5a 3d
       0.029629728 -0.14060184 0.005970151 0.053223692
000310 b2 30 f5 3d 47 d0 ee 3d e2 54 70 3c 18 10 2d bd
       0.119721785 0.116608195 0.014668675 -0.042251676
000320 9a bf a6 bd cc 79 17 be 9f da 8a bd a1 d6 e2 bd
       -0.08142014 -0.14792556 -0.0677998 -0.110760935
000330 72 7a 0a 3d e8 b4 fb 3d 57 de 8f bc 0a f7 68 bd
       0.03380818 0.122903645 -0.017562075 -0.05687622
000340 49 36 88 bd 27 b2 a4 bd d4 6c 6e bc 9b 2d 85 3d
       -0.06650979 -0.08041792 -0.014552314 0.06502839
000350 ef 5e b6 bc de 44 d9 3d 8c c6 33 3d 15 e6 32 bc
       -0.022262065 0.106088385 0.04389052 -0.010919114
000360 4d 7b ea bd 6b f3 04 3d 94 88 8f bd d4 de 8e bd
       -0.11449299 0.032458704 -0.07008472 -0.06976095
000370 48 a9 43 bd e8 93 d5 bb 60 39 e9 bc ee e4 b7 bd
       -0.04776886 -0.006517876 -0.028469741 -0.08979212
000380 46 cc b3 3b 78 02 9d 3d c4 28 1b 3d 8a d8 f3 bd
       0.005486998 0.076664865 0.037880674 -0.11906536
000390 2e 65 63 bc 33 af 51 3c 43 54 9f bd 71 2e f1 bd
       -0.013879104 0.012798118 -0.077797435 -0.11776436
0003a0 41 72 22 bd 37 0f a0 bd f4 28 94 bc 77 5f 23 be
       -0.039659742 -0.07815402 -0.018085934 -0.15954386
0003b0 20 f3 d1 3d df 35 c6 3d 8b f9 a8 bd 65 e4 5c be
       0.102514505 0.09678244 -0.082507215 -0.215715
0003c0 4d 4c 09 3d ce 92 96 3d 03 a8 a5 bd c7 df de 3c
       0.03352003 0.073522195 -0.08088686 0.027206315
0003d0 5f c6 53 3e e0 cc cc bc b7 9a 9c bd 62 49 67 3d
       0.20681141 -0.025000036 -0.07646697 0.056466468
0003e0 90 12 54 3c 55 e0 65 3d 4f f8 eb 3d ff ca 6d 3d
       0.012943879 0.056122143 0.115219705 0.05805492
0003f0 85 46 18 3e fb 2e f3 3b 1f e8 a7 bb e3 51 11 bd
       0.14870651 0.007421372 -0.0051241065 -0.035478484

fc1.bias f4 [200]
000000 5d 2f 4d 3e 3e 89 4a 3d ff e3 9c 3d 45 22 8e bd
       0.20037599 0.04944729 0.07660674 -0.0694013
000010 d0 1a 04 be b7 d8 de bd f1 ed d1 3c 82 ee 11 be
       -0.12900853 -0.10881179 0.025626155 -0.1425114
000020 ce d0 18 3e 9e d6 85 bd 03 a0 fd bd a6 77 93 bd
       0.14923403 -0.065350756 -0.123840354 -0.072005555
000030 21 d4 a0 3e 0d b0 81 bd fb d8 44 3e 0b 9c 3e 3e
       0.31411842 -0.06332407 0.19223396 0.18614213
000040 e0 87 48 3d 9d 6c 07 3e 5b 73 01 3e e5 a9 c4 bd
       0.048957705 0.13225026 0.12641661 -0.09602717
000050 42 ca 7a bd 10 56 25 3e fb c4 ea 3d a8 0c f0 bd
       -0.061228044 0.16146111 0.11463352 -0.11721164
000060 fe b7 37 bd a0 ba 0e 3e 8f a5 ae 3d 0b f9 fc 3c
       -0.044853203 0.1393838 0.085276715 0.030880472
000070 7b db ed bd 7e 8f e1 bd 05 e1 c5 bd 09 80 08 3e
       -0.11614128 -0.11013697 -0.0966206 0.13330092
000080 f7 dc 0c bc c4 d9 0f be 45 08 8d bd a2 19 34 3e
       -0.008597604 -0.14047915 -0.06886343 0.17587903
000090 bf 51 c2 bd 0c 73 2c be db a3 fb 3d 35 47 78 3e
       -0.09488248 -0.16840762 0.12287112 0.24245913
0000a0 d6 12 46 be ac 4b 5b be 4e e3 41 bd e2 85 54 3e
       -0.19343123 -0.21415585 -0.047335915 0.20754197
0000b0 48 cb 09 be 98 43 04 3d 13 87 6a 3e ba 4b 76 bc
       -0.13456452 0.032291025 0.22903089 -0.015032703
0000c0 69 8a cb bd 25 ff fd bd 9c b9 18 bd 3e 6e 4e 3e
       -0.09938509 -0.124021806 -0.037286386 0.20159242
0000d0 53 fe 02 3e d6 39 1e 3e 6b 7e 33 bd d6 a0 10 ba
       0.1279233 0.1545175 -0.043821733 -0.00055171305
0000e0 31 52 c6 3c b3 8e c5 3d cc 97 2f bd 91 be 1f be
       0.024209114 0.09646358 -0.042869374 -0.15600039
0000f0 6d 93 77 bd 9e e7 cc 3d 96 27 38 3e 3e e4 ea 3c
       -0.06044333 0.10005115 0.17983851 0.028673287
000100 a1 46 20 be bd b2 1c be 07 a3 ed bd 33 8d cb 3d
       -0.15651943 -0.15302558 -0.116033606 0.09939041
000110 98 2b 07 3e 23 e8 87 3d 2b 07 a3 3d 50 94 17 3e
       0.13200223 0.066360734 0.079603516 0.1480267
000120 4d 78 0f 3e 82 6b aa 3d 34 6d cd 3d 87 db b9 3d
       0.14010735 0.08321287 0.100305945 0.09075075
000130 73 76 0a 3e d7 92 ce bd a8 29 1c be fd d5 d8 3d
       0.13521747 -0.10086601 -0.15250266 0.1058769
000140 ca 11 be 3d 48 68 14 be 52 d3 18 be ca 23 dc bd
       0.09280737 -0.14492905 -0.14924362 -0.10749014
000150 a5 45 19 3e 24 15 c9 3d e3 20 df bd 45 cc 36 bd
       0.14967974 0.098184854 -0.108949445 -0.0446284
000160 6b 3e bc bd 76 a4 70 3e 73 ad 5a be 6b ce d4 bd
       -0.09191593 0.23500237 -0.21355228 -0.103909336
000170 af 89 35 be 9a 79 75 3d 6c 82 a2 bd 88 40 13 3e
       -0.17728303 0.05993042 -0.07935032 0.14380085
000180 11 eb a5 3d 1f 25 58 bd bd 02 80 bd 33 87 a7 bd
       0.08101476 -0.052769776 -0.06250522 -0.08180084
000190 2f f4 98 3d 2d 71 ef bd 1d 00 aa 3c 05 ac 8e bd
       0.07468449 -0.116915084 0.020752007 -0.06966404
0001a0 d7 1c 2b be 05 b7 83 bd 7f ff f0 bd c4 8e d4 3d
       -0.1671022 -0.064313926 -0.11767482 0.10378793
0001b0 18 68 0b 3b 1e e5 8e 3c 24 95 ad bd b5 17 47 be
       0.0021271762 0.017443236 -0.08475712 -0.19442637
0001c0 2b 36 aa bd 5b a2 04 be 56 a4 44 be be 84 5c be
       -0.08311113 -0.12952559 -0.19203314 -0.21535012
0001d0 70 04 bb bd c1 71 42 be 81 21 04 3e 1d 06 95 3d
       -0.09131706 -0.18988706 0.12903406 0.07276557
0001e0 c2 c6 0d 3e be d2 44 be 7d e1 33 3e a1 e6 b8 3d
       0.13845351 -0.19221017 0.17566486 0.09028364
0001f0 1a 29 b8 3d 76 33 a3 bd d5 43 ee 3d ec 15 05 be
       0.089922145 -0.079688 0.11634032 -0.12996644
000200 92 47 b2 3d 9e 0d 5e 3e 60 bf d2 3d c5 35 45 be
       0.08705057 0.21684882 0.10290408 -0.19258793
000210 33 f3 47 bc ae 0b 88 bd 2e af 22 3d 2d 5a aa bd
       -0.012203979 -0.06642853 0.039717846 -0.08317981
000220 5b fb 22 3d 79 97 00 be 51 a2 8c 3c f5 13 83 bc
       0.039790493 -0.12557782 0.017167242 -0.016000727
000230 2c f4 37 be 03 1d 23 be 3d cd 0b 3e 01 d1 07 3e
       -0.17964238 -0.15929036 0.13652511 0.13263322
000240 83 26 48 bc 57 78 79 3e fc 24 0e 3e 52 da 11 be
       -0.012216213 0.24362312 0.13881296 -0.14243439
000250 bc b1 03 be 52 9b 5d bd 08 c1 b1 3d f4 43 09 3d
       -0.12860769 -0.054103203 0.08679396 0.03351207
000260 91 6d 40 bd 73 38 3b 3e c2 31 e3 bd 69 0c c8 bd
       -0.04697949 0.18283252 -0.11093475 -0.09767992
000270 8b 11 dd bd 01 14 0a be ea bc 4f 3e f7 6a ea bd
       -0.10794362 -0.13484193 0.20286909 -0.11446183
000280 68 bf 3f 3d ee 1b cd 3d 9d a9 73 be 8e 0b 0f be
       0.0468134 0.10015093 -0.23795171 -0.13969252
000290 f1 5a 6f 3e 45 d8 51 bd 04 7f c1 bd c8 1a 8d bd
       0.23374535 -0.05123164 -0.094480544 -0.06889874
0002a0 db 7a 03 3d ac 28 a1 3d e4 e5 93 3d 35 ee 72 be
       0.032099586 0.07869086 0.072215825 -0.23723681
0002b0 46 ed 18 3e f7 35 4d be 2e 4f c7 3c 2e f8 f6 bd
       0.14934263 -0.20040117 0.024329748 -0.12059055
0002c0 2c ba 06 be a8 f1 29 3e 88 f4 25 be 32 a9 3c bd
       -0.13156956 0.16596091 -0.16206563 -0.046059795
0002d0 c1 f6 15 3e 3a b9 36 3e e1 4b cd bd 73 76 9b 3d
       0.1464491 0.17844096 -0.100242384 0.07590952
0002e0 1f b9 85 3e fe 6e 63 be 86 63 09 3d 09 82 f4 bd
       0.261178 -0.22210309 0.03354218 -0.11938865
0002f0 5e 22 3c 3c f7 6c 19 be c0 bf f1 3d 12 65 73 bd
       0.011482803 -0.14982973 0.118041515 -0.05942256
000300 95 cd 04 3e 99 2a 3b bd 24 6f 87 bd 9e c0 88 bd
       0.12969048 -0.04569492 -0.06612995 -0.06677364
000310 81 48 38 be 95 1e 1c bd f2 95 a1 bc 7f 90 3f be
       -0.17996408 -0.038115103 -0.01972482 -0.18707465

fc2.weight f4 [150, 200]
000000 21 38 b4 3d 70 13 ae 3d 39 af 4b 3d cf 03 b5 3c
       0.08799768 0.08499801 0.049727652 0.022096543
000010 0c f0 14 3e a5 ed 98 bd 18 e5 4e bd 09 47 70 be
       0.14544696 -0.07467202 -0.05051145 -0.23464598
000020 d2 98 37 bd f6 74 e3 3d dd 8d f5 3c be a9 25 be
       -0.044823475 0.11106293 0.029974872 -0.16178033
000030 e1 af f3 3c 1b 13 9d 3d ae 8f 8b 3d 35 99 49 bd
       0.029746952 0.0766966 0.06814514 -0.049218375
000040 88 b9 28 bd e3 3c b2 3d 93 8f e8 3b b3 9e 9d 3d
       -0.04119256 0.087030195 0.0070971935 0.07696285
000050 da db f6 3d 22 76 57 bd 5a 11 33 3d 3a 2f de 3d
       0.12053652 -0.052602895 0.04371772 0.108488515
000060 91 00 d8 bc 01 78 ab 3d 11 61 06 3e ec 46 dc 3d
       -0.026367458 0.08372498 0.13122965 0.10755715
000070 e2 b5 18 bd 85 78 42 bd 2c f6 d0 ba 3a f2 e4 bc
       -0.037282832 -0.047478218 -0.0015942506 -0.027947534
000080 e9 fc 61 3c 49 ce 40 be a7 f9 10 be eb eb 3f 3d
       0.013793209 -0.18828692 -0.14157735 0.04685585
000090 d6 cf 1a 3e 67 13 a6 bd 7e 6d b4 bc ab 32 8a bc
       0.15118346 -0.081091695 -0.022024866 -0.016869863
0000a0 58 77 1a bd d0 a3 d1 3c 83 c3 cc 3d aa a7 6f 3c
       -0.03771147 0.025590807 0.099982284 0.014627377
0000b0 0f ef 6c 3c 5b 69 88 bc 9c f1 bd 3d 42 59 ca 3c
       0.014461293 -0.0166518 0.09274599 0.024700765
0000c0 71 c2 3d bd a8 6c 8c 3c 78 44 44 3a 07 2f c3 3d
       -0.046328012 0.017141655 0.0007487009 0.09530454
0000d0 d3 c4 e6 bd bf 87 c6 3d a8 22 fa 3c 1e 63 5f bc
       -0.1126801 0.0969386 0.030534104 -0.013634471
0000e0 fa 2e 4b bd e5 3e 80 bd 96 61 82 bd 07 df d0 3d
       -0.049605347 -0.06261996 -0.06366269 0.10198789
0000f0 c9 83 71 3c 38 85 41 3a 19 28 89 bd bd 53 75 bc
       0.014740893 0.0007382217 -0.06697101 -0.014973578
000100 45 66 25 be 91 2d 68 3d 77 80 c0 3d 5b ef 00 3e
       -0.16152294 0.05668408 0.09399503 0.12591307
000110 94 23 64 bd fa 00 16 3d 4c 1e 34 bd aa a1 e0 bc
       -0.055697992 0.036622025 -0.043974206 -0.027420837
000120 79 d5 fa 3c 4e 07 45 3b 55 7b 0e 3e c2 d2 cf bd
       0.03061937 0.0030064168 0.13914235 -0.10147621
000130 65 7e 6a bd b7 93 85 3c 95 a6 2f 3d dc c5 96 3d
       -0.057249445 0.016305787 0.042883474 0.073619574
000140 fe e3 f8 bc 60 b1 35 be 5b c7 d7 3d 74 43 9f 3c
       -0.030382153 -0.17743444 0.10536071 0.019441344
000150 29 9d 75 3d f5 c7 37 bb e9 db a6 3d db ce 93 3d
       0.059964333 -0.0028042768 0.08147413 0.07217189
000160 96 ca bc 3b 6f 87 65 bd 16 a0 92 bd 46 0b 80 3d
       0.005761455 -0.056037363 -0.0715944 0.0625215
000170 49 15 9c bc 5c ec 0e 3d ef 0d a3 3c f1 8d 43 3d
       -0.019053118 0.03489338 0.019904105 0.047742788
000180 c3 4a 0f 3c 15 d8 e0 3c d4 ec 7d 3d bc 92 9f bd
       0.008745852 0.027446786 0.061993435 -0.07791659
000190 3a 5f 84 3b a8 30 df 3d 2b 23 f9 3c 89 86 26 3d
       0.004039672 0.10897952 0.030412277 0.040655646
0001a0 e2 15 22 3e 86 5c 1c bd 45 48 e6 3d 92 49 96 bd
       0.1582866 -0.038174175 0.11244253 -0.07338251
0001b0 3a ac 0a bd e9 5a 88 bd 25 ca 33 bd 18 d7 72 3d
       -0.033855654 -0.06657965 -0.043893952 0.05928716
0001c0 0d 48 45 3b 0f 59 70 3d 0f e1 54 3c 6b 21 26 bd
       0.003010276 0.058678683 0.012993111 -0.040559214
0001d0 59 ad 0f bd 48 76 8e 3d e7 29 cf 3d 30 9c f9 bc
       -0.035077427 0.06956154 0.10115414 -0.030469984
0001e0 e0 91 a2 bd 33 a8 58 bd bf 32 87 3b 82 51 82 bd
       -0.0793798 -0.052894782 0.0041259225 -0.06363203
0001f0 29 54 31 3d 2d c3 74 3c 4c f2 9d bd 6b 19 d4 bc
       0.043293152 0.014939112 -0.0771223 -0.025891026
000200 8f bf d5 3b 9e 26 3c bb 0c f2 ec bd 4f 96 62 3c
       0.0065230797 -0.002870954 -0.11569604 0.013829782
000210 11 71 37 3d ff 70 ec bb b2 cf 10 bc 21 82 9c 3c
       0.044785563 -0.0072156186 -0.008838581 0.019105019
000220 e1 96 82 bd 8a 7e 3c 3c 9c 24 f1 3d 73 6d 78 bd
       -0.06376434 0.011504779 0.11774561 -0.060651254
000230 ca bc ad 3d cd 61 85 3d 9a e4 9d 3d b2 10 2e 3c
       0.08483274 0.06512795 0.07709618 0.010624098
000240 f9 6e da 3d 74 17 99 3d b2 ae 83 bc dc 37 c1 3d
       0.106656976 0.074751765 -0.016074512 0.094344825
000250 19 2c 33 3c 7a 1c 60 3d df c1 5c 3d 31 63 4d 3d
       0.010935807 0.054714657 0.053895827 0.050143424
000260 0e e2 8d bd 20 0b 13 be 1c 39 3e 3d aa 78 85 bc
       -0.06927882 -0.14359713 0.046441182 -0.016292889
000270 e2 2f e0 3c 0f 3c 8a 3d 0f d2 32 3d 13 cc e6 3c
       0.027366582 0.067497365 0.04365736 0.028173482
000280 c8 43 a2 3d ae 3c f5 bc e1 fc 17 bc 67 14 14 3d
       0.079230845 -0.02993616 -0.0092766 0.03615227
000290 e7 51 18 bd 74 09 c5 3d 56 10 87 3c e2 ef 46 bd
       -0.037187483 0.09620944 0.016487282 -0.048568614
0002a0 cc 60 43 3d 1f d7 c0 3d 76 76 c3 3d 0b 11 a7 3d
       0.047699735 0.09416031 0.09544079 0.081575476
0002b0 7f 42 af 3b ea 6f 56 3d a0 e5 61 3d db 07 e4 3c
       0.005348503 0.052352823 0.055150628 0.027835777
0002c0 48 dc 0c 3e d9 7f a1 bd ec 75 b1 bc 3f 6d 3c be
       0.13755906 -0.07885713 -0.021662675 -0.18401049
0002d0 1e ea 1d 3d e1 c0 84 bc e0 3e 2d bd c7 62 aa bd
       0.03855335 -0.016205253 -0.04229629 -0.083196215
0002e0 de 4b 4c bc bd 41 12 3d 38 bb 8b bd b6 45 2c bd
       -0.01246926 0.035707224 -0.068228185 -0.04205867
0002f0 70 92 6c bd fc 7e 1f 3e cc dd 1d bd 33 86 73 3d
       -0.05775684 0.15575784 -0.0385416 0.059454154
000300 5b f1 b2 3d 5b fb 6f 3d 7d cf c6 3d e2 1c cd 3d
       0.08737441 0.05858932 0.09707544 0.100152746
000310 39 26 bd 3c cd a6 75 3d f6 a7 01 3d a4 be e6 bc
       0.023089515 0.059973527 0.03165432 -0.028167076
000320 35 b3 7b bd 17 04 3d 3c c1 fa 55 bc 1c 95 97 bd
       -0.061450202 0.01153662 -0.013060273 -0.07401487
000330 bf ad 1b 3e 60 1a 4d bd a6 99 1a bd 2e 48 31 bd
       0.15202998 -0.05007398 -0.037744187 -0.043281727
000340 bb f2 81 bd e5 4e 4d 3c b0 ba 53 3d 38 86 fc bd
       -0.06345125 0.012531017 0.05169171 -0.12330288
000350 80 6c 24 3d 48 b4 40 3c 8a 62 c4 3d db 07 83 3d
       0.040142536 0.011761732 0.09589107 0.06397983
000360 b7 de c5 3d 47 f3 df 3c 53 c9 8b 3d be 12 aa 3d
       0.0966162 0.027337683 0.06825509 0.08304356
000370 c7 da 25 3d 6a 9f 7e bc cf 67 01 bd f8 7d e4 3d
       0.040491845 -0.015540937 -0.03159314 0.11156839
000380 ea 7a db bd 39 82 5e 3c dc b6 03 3c cf 30 f4 3c
       -0.10716803 0.013580852 0.008039203 0.02980843
000390 7a 44 c1 3d d4 b4 83 3d ed b8 60 3b de 53 e4 bb
       0.09436889 0.064309746 0.0034289912 -0.0069680056
0003a0 1e b0 85 bc fa 9a 23 be 70 ff 48 bd d1 8b cd 3d
       -0.01631933 -0.15977088 -0.04907173 0.100364335
0003b0 4b 0e 09 3e ff 25 2f 3d f8 14 b2 3d 8c 7b a4 3c
       0.13384359 0.042760845 0.08695406 0.020078443
0003c0 69 cc 9a 3d 69 29 ef bd a3 54 1d 3e e5 fe 5e bd
       0.075585194 -0.1167782 0.15364318 -0.054442305
0003d0 de bd 27 bd 24 3d f9 bc 67 27 cb 3c 3c 70 9a bd
       -0.040952556 -0.030424662 0.024799062 -0.07540938
0003e0 db 24 35 bc a1 b7 27 3c b4 ac a4 3c 2d d7 b6 39
       -0.01105615 0.010236652 0.020101883 0.00034874064
0003f0 64 f1 7c bd d0 78 df 3d 81 a0 65 bd 83 75 ef bb
       -0.061753646 0.10911715 -0.05606127 -0.0073077097

fc2.bias f4 [150]
000000 ec 95 4b bd 00 a4 90 3c e0 87 18 3d ed 36 b1 bc
       -0.049703524 0.017656326 0.037238955 -0.021632636
000010 ad 75 cf 3d 88 91 d9 ba 20 42 9a 3d f6 b6 22 3d
       0.10129867 -0.0016599158 0.075321436 0.039725266
000020 10 4d 5c bd 29 4b 8e bb f5 b6 1d 3d 86 7a 7a bd
       -0.05378443 -0.004342456 0.03850456 -0.061152004
000030 39 27 3c 3d b7 08 ba 3c 6e d7 79 bc c7 da b6 3c
       0.045935843 0.022709234 -0.015249116 0.022321118
000040 70 20 9a 3d 80 ca 26 3d 5d 3c 4e bc 71 e9 31 3d
       0.07525718 0.040720463 -0.012587634 0.043435518
000050 34 b6 a9 bc bb 95 63 bd 74 da 95 bb 05 07 78 3d
       -0.020716764 -0.055562716 -0.004573161 0.06055357
000060 83 e7 d9 3d 6c 63 40 3d 22 be 3c 3d f5 cc 29 bc
       0.106398605 0.046969816 0.046079762 -0.010363807
000070 1b e9 82 3d e9 d6 4c 3d 86 c6 45 bd 3b 5e 12 3d
       0.063921176 0.05000964 -0.04828503 0.035734396
000080 10 26 93 bc cd b3 53 bc a1 d0 14 3d 3b b2 21 3d
       -0.017962486 -0.012921286 0.036331777 0.039476614
000090 9a 66 68 3c e1 fe 5b 3c e6 85 4a 3b f9 74 b5 bd
       0.014184618 0.013427467 0.0030902564 -0.088602014
0000a0 f9 59 ca 3d f1 97 e1 bc 04 4f 4a bd 22 d8 88 bd
       0.09880442 -0.027538272 -0.04939176 -0.06681849
0000b0 60 85 20 bd f7 25 89 3c e8 d2 f5 3d 02 dc 71 bd
       -0.039189696 0.016741736 0.12003118 -0.059047706
0000c0 a1 f3 3b bb 2f af 17 3d 00 37 e5 bc f6 2e f2 bc
       -0.002867915 0.037032302 -0.027980328 -0.029563408
0000d0 d0 fb 0f bc 7f 69 7a 3d 5c 80 25 bb 56 41 ef 3c
       -0.008788064 0.061135765 -0.002525351 0.02920596
0000e0 ba 02 e6 3c ba ac 58 3d 77 55 a0 3c 98 3b fe bc
       0.028077472 0.0528991 0.019572003 -0.031034276
0000f0 0b 3b 7a 3b 2e 26 82 3d 30 ca d9 bc 90 f3 ff 3c
       0.0038182165 0.063549384 -0.026585668 0.03124407
000100 04 ae 14 3d f3 09 c0 3d cb ee 8b bc 10 20 95 bc
       0.036298767 0.09376898 -0.017081639 -0.018203765
000110 c1 46 a6 bd ab fd 9f 3d 65 01 12 bb ac 29 d0 3d
       -0.08118964 0.07812055 -0.0022278663 0.10164198
000120 c1 fd 22 3d 3f 63 9f 3d d6 8a 85 bd ee b0 20 3d
       0.03979278 0.077826016 -0.065206215 0.039231233
000130 9f 66 05 bd 87 2c 81 3c a5 ec a8 bd b0 20 39 bc
       -0.03256857 0.015768303 -0.08248261 -0.011299297
000140 7e f9 8d bd b9 56 e8 bc 91 7f b0 3c 75 49 15 bc
       -0.069323525 -0.028361665 0.021545203 -0.009111752
000150 72 ea 5b bc 11 21 d4 3d 63 09 7b ba 31 52 0a 3d
       -0.013422595 0.103578694 -0.0009576289 0.03376979
000160 5b 61 65 bc 29 cb 22 bd 9c df 28 bd 30 a7 a6 bc
       -0.014000262 -0.03974453 -0.041228876 -0.020343393
000170 85 6d 85 bd e0 f4 2e 3d a7 b1 91 3c d4 6c 02 bd
       -0.0651503 0.042714 0.017784907 -0.031842068
000180 4d b6 d7 bc 7f d2 31 3b 12 b9 85 bd 7c 8e 98 bb
       -0.026332045 0.0027133522 -0.0652944 -0.0046556573
000190 59 95 da 3d 18 b1 1d bd 37 63 49 3d df d2 ac 3d
       0.10673017 -0.038498968 0.049166884 0.08438658
0001a0 0e 57 3e 3c 33 2a 99 bd ae ca 70 bd cd e9 6d 3d
       0.011617435 -0.07478752 -0.05878704 0.058084298
0001b0 c7 4d 51 bd 56 e0 a4 3c b1 32 c1 3c 41 83 a3 3b
       -0.051099565 0.020126503 0.023583742 0.004990012
0001c0 bb 9a b9 3c ba d1 6f 3d 80 a3 56 3d 0d 45 1f 3b
       0.022656789 0.05854962 0.05240202 0.0024302632
0001d0 c4 5f b6 bc 4f 33 16 3c d4 a4 ca bb ed 7e f0 bb
       -0.022262461 0.009167506 -0.0061842 -0.0073393495
0001e0 2b 87 c2 3b 63 7b 9a 3d 4f 7a 35 3d 12 d5 95 3b
       0.0059365234 0.075430654 0.044306096 0.004572519
0001f0 3e f6 97 bc 3f e9 74 3d 71 96 2b 3d 0d a6 bf bc
       -0.018550035 0.059792753 0.04189152 -0.023394609
000200 82 2e ad 3d 5c 34 6a bc f5 ae 0f bc 81 cb de 3c
       0.08456136 -0.01429471 -0.00876974 0.027196648
000210 c9 29 91 3c 2b 8e f0 3c 5a 59 80 3d cc c3 98 3d
       0.01772012 0.029364666 0.062670425 0.0745922
000220 6d 4b 27 3d 33 a5 ea 3d 1a d7 e8 3c 34 4c 46 bd
       0.040843416 0.114572905 0.02842288 -0.048412517
000230 81 54 ee 3c ff dc 67 bd 0e 4a c5 3b 66 88 de bc
       0.029093029 -0.056607243 0.006020791 -0.02716465
000240 64 80 97 39 2d cd a7 3d ab ed d1 3c a7 10 6a 3d
       0.00028896623 0.08193431 0.025626024 0.057144787
000250 51 66 ca 3d 97 a7 50 bd
       0.098827966 -0.050941076

fc_out.weight f4 [2, 150]
000000 9d 19 d1 3d c5 2e 9e 3d d2 88 77 bd a8 a4 46 bd
       0.102099635 0.07723764 -0.060433216 -0.048496872
000010 29 63 ad 3d f5 96 fd 3d b4 5d 24 3e 1c 9a f7 3d
       0.08466179 0.123823084 0.1605137 0.12089941
000020 d3 b7 2e 3d 13 b0 57 bd e0 90 10 3e be 53 e9 3d
       0.042655777 -0.05265815 0.14117765 0.11392926
000030 05 e4 64 bd 0e 54 12 3d c1 ad 16 3d af ed 54 3d
       -0.05588152 0.035724692 0.0367868 0.051984485
000040 d0 b0 06 3e 5d 9a c7 3c cd 73 c3 bd af c5 30 3d
       0.13153386 0.024365598 -0.095435716 0.043157276
000050 73 44 0b 3d 52 ee 96 bc 8d 1f ca 3d b3 6b 08 be
       0.034000825 -0.018424187 0.09869299 -0.13322334
000060 e6 91 2f 3e 98 53 74 bc f3 05 b5 3d 86 b9 90 3d
       0.171455 -0.014912508 0.08839025 0.07066636
000070 8f c3 4f bd 65 e7 29 bd 2b e1 94 3d 31 cd c5 3d
       -0.05072361 -0.04148044 0.0726951 0.09658278
000080 45 e3 7f 3d 15 45 d3 3d c5 11 b7 3d e3 76 43 3e
       0.0624726 0.10315911 0.08938936 0.1908832
000090 4c 9e 1b bb 73 7f 89 3d 62 f5 af 3d 76 c5 31 bd
       -0.0023745475 0.06713762 0.08591725 -0.043401204
0000a0 62 5e 06 3e 6e fa b9 bd a8 99 37 bd 25 47 4d bd
       0.13121942 -0.09080969 -0.044824272 -0.050116677
0000b0 c6 70 5e bd 00 15 c9 bd 18 34 7d 3d 90 90 d8 3c
       -0.054306768 -0.098184586 0.06181726 0.02643612
0000c0 b6 3e 7d bd c8 cf 4e 3c 62 bf 0d 3d 35 ab 09 be
       -0.061827384 0.012622781 0.034606345 -0.13444217
0000d0 20 7f 76 3c 03 65 01 3e a1 58 a9 3d 95 e6 9b 3d
       0.015044957 0.12636189 0.08268858 0.076123394
0000e0 e6 f3 e6 bc 0c 4c ed bc 83 8e be 3d b0 b6 cb bc
       -0.028192472 -0.028966926 0.09304526 -0.024867386
0000f0 64 b9 2c 3e 4f f5 17 3d 26 77 b3 3d 4f 34 b9 3d
       0.16867596 0.03709918 0.0876296 0.0904318
000100 1e 2a 44 be 7c 9e cc 3c d6 b6 c0 3d 23 a3 71 bb
       -0.19156691 0.024977915 0.09409873 -0.0036870919
000110 32 32 54 3d e9 57 00 3d 22 bc 9f bc 72 67 c4 bc
       0.051805682 0.031333838 -0.019498888 -0.023975108
000120 84 d9 46 bd f4 5e 32 3d a0 4d 3a bd 3d dd 22 3d
       -0.048547283 0.043547586 -0.045484185 0.03976177
000130 d3 fb c3 3d 12 03 53 bd 3c b3 60 bd 2d e5 f1 bb
       0.09569516 -0.0515166 -0.05485843 -0.007382056
000140 5b a1 71 3d ac d1 2c 3d 73 31 9d bd a4 0c 0c be
       0.05899177 0.042192146 -0.07675447 -0.13676697
000150 27 89 8d bd 0a 4e 7d 3d 7b 70 b5 bd 46 c8 52 3d
       -0.06910925 0.061842002 -0.088593446 0.051460527
000160 4a d4 c5 bd dd 6e 7c 3d 59 8b 05 bd 55 71 5e 3e
       -0.096596316 0.061629165 -0.032603595 0.2172292
000170 80 07 f5 bc 12 a0 05 3b 95 b8 9b 3b af 1f 04 3e
       -0.029910803 0.0020389599 0.0047522285 0.12902711
000180 47 c7 d4 bd 38 9b 6d bb 86 85 3e bd 46 36 0c 3e
       -0.10389572 -0.0036255848 -0.046514057 0.13692579
000190 16 0f 9e 3d 14 f2 2f 3c 92 04 2d 3d 03 9f af 3d
       0.07717721 0.010738868 0.042240687 0.08575251
0001a0 85 71 17 3d 41 08 77 be 4b b0 85 3d 48 23 80 3d
       0.036973495 -0.24124242 0.06527766 0.06256729
0001b0 b1 0e ca 3d 37 37 9f bd 39 c7 07 3e a1 be e9 3d
       0.098660834 -0.07774203 0.13259591 0.11413313
0001c0 03 05 0f be d6 72 a2 3d fd f1 c0 3d da 71 00 bd
       -0.13966756 0.079320595 0.094211556 -0.031358577
0001d0 6c f1 c3 bc ef e6 bf bc 3a 20 4d bd 8e 51 5d bc
       -0.02391883 -0.023425547 -0.05007956 -0.013508214
0001e0 fd f9 e5 3d 9d 62 66 3d b0 55 ac bc 7f cc 67 3d
       0.11229322 0.05624639 -0.021036953 0.056591507
0001f0 71 31 11 be 81 78 8f 3d 41 b0 65 bd 74 84 43 bd
       -0.14179017 0.07005406 -0.056076292 -0.04773374
000200 27 cb e0 3c ef 45 f5 3d aa ad 90 bd f3 df 60 3c
       0.02744062 0.119762294 -0.07064374 0.013725269
000210 d1 c2 02 bc f1 9e 77 3d 24 b1 42 3e 88 17 17 bd
       -0.007981018 0.060454313 0.19012886 -0.036887676
000220 de f5 52 bd ea 69 14 3c 26 98 e5 3d aa 0b 06 bd
       -0.05150401 0.009058455 0.11210661 -0.032725967
000230 e6 51 e4 3d de 0e 8f bd a6 0b 05 bc 35 5e 20 3d
       0.111484334 -0.069852576 -0.008120453 0.039152343
000240 d4 ff ef 3d ae 4f 2d be 1a 0c 1c bd d5 1c 5b 3e
       0.11718717 -0.16924927 -0.03809748 0.21397717
000250 38 1d 02 3d b9 b3 16 3e f8 ac 58 3d 4f 82 bc 3c
       0.031766146 0.14716996 0.05289933 0.023011355
000260 15 3d 31 3d ec 4c ad 3c 9f 63 3c bd 17 e0 4b 3e
       0.043271143 0.021154843 -0.045993444 0.19909702
000270 f5 6b 29 3e a4 7b 20 3e 0a ea e0 be f2 b4 f1 bd
       0.16545089 0.15672165 -0.43928558 -0.11802091
000280 02 80 25 3e 5b 6c 0c be 55 93 c2 3c f5 8f f2 bd
       0.16162112 -0.1371321 0.023751894 -0.11843864
000290 9a 5b dc 3d 96 53 b5 bd c2 88 46 be d8 9c f0 bd
       0.10759659 -0.088538334 -0.19388106 -0.117486656
0002a0 5b 5f ec 3c 1d f5 b1 bc 87 0c 1b 3e f2 94 46 3e
       0.028854063 -0.021723324 0.15141498 0.19392756
0002b0 df 24 50 3d 76 c8 66 3d 3d 42 82 bc 54 06 95 be
       0.050816413 0.05634352 -0.015900725 -0.2910639
0002c0 ba 16 3c be ee ea 35 be 99 a9 42 3d ce 87 47 3d
       -0.18368044 -0.177654 0.047525022 0.048713498
0002d0 93 51 30 3d dc 68 19 bc b6 c5 52 3d 53 8c 44 3e
       0.043046545 -0.009363379 0.051458083 0.19194154
0002e0 b1 ae 7f 3d e8 93 82 bd a4 93 38 3e 2b 1f 29 3d
       0.062422458 -0.06375867 0.1802507 0.04128949
0002f0 a6 be 8b bc d2 10 0d 3d 25 1c 29 bd ec 92 41 3e
       -0.017058682 0.03443987 -0.041286606 0.18903702
000300 e7 5f 0a 3d 52 fe 1e 3d 3d f4 09 3c 24 fa 8b bd
       0.033782866 0.038816758 0.008420047 -0.0683482
000310 0b 6a 23 bd b9 1d 19 3e 8d 03 9e bd d0 f5 6d be
       -0.039896052 0.14952745 -0.07715521 -0.23238301
000320 5d ea 90 bd 13 28 8b bd 50 bd 68 3d 78 86 c6 bd
       -0.07075951 -0.06794753 0.056821167 -0.09693617
000330 4a e1 11 3e 41 a8 3e 3e 31 da 8a 3c 4a 38 b9 bd
       0.14246097 0.18618871 0.016949745 -0.090439394
000340 dc 14 af be 21 6e 76 bd 3f 54 d7 3d 6a 07 9b 3d
       -0.34195602 -0.06016362 0.105141155 0.075697735
000350 56 a1 ba 3c 59 ad 76 3e 2d a1 be bd 6e 66 5c 3e
       0.02278201 0.24089564 -0.093080856 0.21523449
000360 96 fa 22 3d 81 dc ba 3d ae 2b 17 3e 64 c2 03 be
       0.03978976 0.09124089 0.14762756 -0.12867123
000370 6e e5 d0 3d f6 fd bd bd ef 0f 9c 3d 4b 8e e8 bd
       0.1020001 -0.09276955 0.076202266 -0.11355265
000380 c4 e0 b9 3c b6 6b 83 3d 9a ee a7 3c 26 4d 35 3e
       0.022690184 0.064170286 0.020499516 0.17705211
000390 9f 49 1d 3c 01 d0 aa 3d 8e 16 02 3e 6b 2f 04 3e
       0.009600072 0.08340455 0.12703916 0.12908714
0003a0 41 54 eb bd 58 c4 22 be 25 8e 87 3c 7d d6 49 3e
       -0.114906795 -0.15895212 0.016547272 0.19710727
0003b0 18 79 0d 3e 55 9a 98 3d 42 15 bb 3d c4 f8 9a 3c
       0.13815725 0.074513115 0.09134914 0.018917449
0003c0 3e 0e 7f 3d 46 89 c0 bc fa 01 ce 3d f2 98 c6 bd
       0.06226944 -0.023502957 0.10058971 -0.09697141
0003d0 29 ee 0d be a9 03 6b 3d 3b d4 7d be 96 3c b7 bd
       -0.13860382 0.057376537 -0.24787991 -0.08947103
0003e0 03 22 09 3d 1a 48 0f bd f6 79 da bc 6a fb 1c be
       0.0334797 -0.03498087 -0.026669484 -0.15330282
0003f0 8b f8 b9 3d 1b 6a 05 be b6 7c b5 3d 0f 9a 49 3d
       0.09080609 -0.13028757 0.08861677 0.049219187

fc_out.bias f4 [2]
000000 89 52 5d bd 07 a3 86 3c
       -0.05403379 0.01643516
