agent2_checkpoint_critic.pth (torch_old, 164612 bytes, 5 tensors)

fc1.weight f4 [200, 52]
0.18340757 0.15042484 -0.033160623 -0.017495539 -0.020415971 0.028019931 -0.14029993 -0.018090863
0.2602876 0.20064852 -0.030272571 -0.011477569 -0.15116362 -0.036721636 -0.028733557 -0.0056954175
0.12034853 0.08552989 -0.07615606 -0.05411805 0.02084218 0.07349808 -0.08723218 -0.1023157
0.07762421 -0.18768542 -0.025597263 -0.23734273 0.097373605 -0.070807874 -0.027949013 -0.2821857
0.13256402 -0.17835157 -0.028937194 -0.13881306 0.07012568 0.040895354 -0.040110987 -0.1801428
0.059731893 -0.24012893 0.022829892 -0.44095322 0.030028487 0.10728515 0.068655044 -0.43257144
-0.8939689 0.43523914 -0.5589991 0.74004096 0.10785366 -0.17219259 -0.07203192 -0.15364522
0.17534319 0.007590538 -0.0021130345 -0.19820103 0.14295492 -0.12829195 -0.10657595 0.07816212
0.19830342 -0.07089813 -0.0019852878 0.10302925 0.18195367 -0.03596691 0.08775752 0.20546092
0.043031216 -0.18339749 0.10807345 0.20950581 0.20269448 0.45798427 -0.021778425 -0.03564258
-0.159994 0.11264398 -0.033386737 -0.026027124 0.13907473 0.5938626 -0.03179349 0.2540323
-0.13022296 -0.04968408 -0.054909904 0.269031 0.22399059 0.66823614 -0.1324439 0.22147577
-0.13593948 -0.12711117 -0.06388338 0.21163742 -0.1773666 0.5120738 1.1118659 0.07697704
0.19136623 0.81608367 0.07188692 -0.06966283 0.007666097 0.10413403 -0.006119804 -0.12158086
0.117780626 0.843352 -0.048838254 0.13023347 0.01639561 -0.2969145 0.058118317 0.035246495
-0.0097425105 0.9216962 -0.02854205 0.010312078 0.013120914 -1.0945483 -0.037092518 0.07988025
-0.18305692 0.20284437 -0.013895564 -0.043711513 0.06287734 0.12990616 -0.033723008 -0.08769343
-0.061163194 0.28291905 -0.13592254 -0.08826052 -0.044309992 -0.2557954 -0.112558976 -0.16014543
-0.12298848 0.29038158 -0.076701075 0.0017674542 -0.06155385 -1.1645483 -0.065085724 -0.062185694
-0.11669506 0.62101376 -0.33397973 0.40830863 -0.006277398 0.40792286 -0.033492226 0.13162605
-0.0699138 -0.078693904 0.06272502 0.1149626 -0.0044608125 0.6780227 0.008538358 0.12719801
-0.10565336 -0.091072075 -0.005806756 0.13937995 0.005079547 0.52845895 -0.047488086 -0.21082553
0.14676371 -0.08594609 -0.029368209 -0.24016593 -0.032682948 0.7067158 0.042008847 -0.11352246
0.06174675 0.0070808176 0.027162937 -0.1060357 -0.00023999231 0.5705117 0.0064676907 -0.07881251
-0.0072572352 -0.1218298 -0.013774341 -0.034659173 -0.009319687 0.40212646 -0.06300818 -0.10961186
-0.07885084 -0.015167859 0.022628209 -0.07826951 -0.7142791 -0.1858515 -0.04613503 0.04498597
-0.05868188 0.5181626 0.010849147 -0.40011746 -0.0853909 0.0009922269 -0.018440481 -0.3359257
0.041047275 0.66991067 0.05743058 0.015312571 -0.024524972 -0.38689217 0.10450726 0.03246487
0.07655751 0.67807144 0.05919887 -0.008607964 -0.14365128 -0.9049328 -0.026317699 -0.051745005
-0.03310861 -0.10529681 -0.009649391 -0.07396912 0.008266207 0.026865238 0.017084723 -0.10428623
0.07329354 -0.1410438 -0.027617045 -0.02361437 0.085800245 -0.33448383 0.004292032 -0.06908207
0.0735269 -0.22066961 -0.04281029 -0.1530016 0.1570209 -0.9257967 -0.0044900924 -0.17702359
00000000: 32cf 3b3e f808 1a3e 6fd3 07bd ce52 8fbc
00000010: 653f a7bc 0e8a e53c c9aa 0fbe 4a33 94bc
00000020: 6b44 853e ce76 4d3e 2ffe f7bc 6a0c 3cbc
00000030: a3ca 1abe 6d69 16bd a362 ebbc a0a0 babb
00000040: 4a79 f63d 4c2a af3d b5f7 9bbd e3aa 5dbd
00000050: 38bd aa3c 2986 963d c9a6 b2bd e58a d1bd
00000060: 71f9 9e3d 9b30 40be 5ab1 d1bc f909 73be
00000070: d06b c73d b803 91bd 54f5 e4bc a57a 90be
00000080: ddbe 073e cba1 36be b20d edbc 0325 0ebe
00000090: 0d9e 8f3d e381 273d 6b4b 24bd 5b77 38be
000000a0: 6ea9 743d 5ce4 75be c105 bb3c 9fc4 e1be
000000b0: 4dfe f53c 51b8 db3d 049b 8c3d 017a ddbe
000000c0: 25db 64bf aad7 de3e 911a 0fbf 5373 3d3f
000000d0: 61e2 dc3d 4153 30be 7985 93bd 2c55 1dbe
000000e0: 2a8d 333e 0cba f83b d67a 0abb 36f5 4abe
000000f0: c662 123e f75e 03be 7e44 dabd 7613 a03d
00000100: 0d10 4b3e 0a33 91bd 9a1b 02bb 0001 d33d
00000110: 1052 3a3e 0a52 13bd 37ba b33d 5964 523e
00000120: 8041 303d 8dcc 3bbe 9d55 dd3d b188 563e
00000130: 248f 4f3e ea7c ea3e ab68 b2bc f4fd 11bd
00000140: 78d5 23be e3b1 e63d 88c0 08bd d636 d5bc
00000150: 9b69 0e3e 6107 183f e439 02bd 8610 823e
00000160: 2b59 05be 8981 4bbd 35e9 60bd 6ebe 893e
00000170: ca5d 653e 8611 2b3f 609f 07be 8bca 623e
00000180: b833 0bbe 6e29 02be 4ad5 82bd 7bb7 583e
00000190: 979f 35be 4517 033f 9f51 8e3f 23a6 9d3d
000001a0: 82f5 433e dcea 503f 7339 933d 63ab 8ebd
000001b0: e233 fb3b 3944 d53d a388 c8bb 63ff f8bd
000001c0: f836 f13d ebe5 573f 9f0a 48bd ec5b 053e
000001d0: 1650 863c 2d05 98be 790d 6e3d a15e 103d
000001e0: 0d9f 1fbc 48f4 6b3f 04d1 e9bc fdf3 283c
000001f0: 1af9 563c 291a 8cbf 53ee 17bd 4298 a33d
00000200: 4673 3bbe 6fb6 4f3e 38aa 63bc d80a 33bd
00000210: d6c5 803d 1f06 053e 2321 0abd 9d98 b3bd
00000220: 4286 7abd c4da 903e 472f 0bbe eec1 b4bd
00000230: 657e 35bd 9df7 82be 5285 e6bd 2afd 23be
00000240: 62e1 fbbd e5ac 943e 7415 9dbd eca9 e73a
00000250: e41f 7cbd eb0f 95bf aa4b 85bd 6db6 7ebd
00000260: d2fd eebd c2fa 1e3f 64ff aabe d40d d13e
00000270: a2b2 cdbb 44db d03e 252f 09bd fbc8 063e
00000280: f72e 8fbd 452a a1bd fa75 803d 8371 eb3d
00000290: 022c 92bb e592 2d3f 78e4 0b3c 3240 023e
000002a0: ca60 d8bd ff83 babd 9a46 bebb 9eb9 0e3e
000002b0: 5472 a63b 1649 073f de82 42bd a6e2 57be
000002c0: 3a49 163e 8104 b0bd 9995 f0bc 0fee 75be
000002d0: 8ede 05bd 54eb 343f 7811 2c3d 777e e8bd
000002e0: 29ea 7c3d 3406 e83b cf84 de3c 3f29 d9bd
000002f0: 72a6 7bb9 0e0d 123f ecee d33b 7468 a1bd
00000300: 1ace edbb e781 f9bd c6ad 61bc c7f6 0dbd
00000310: 9ab1 18bc 85e3 cd3e 6f0a 81bd 2f7c e0bd
00000320: 8d7c a1bd 9d82 78bc cb5e b93c c44b a0bd
00000330: ffda 36bf db4f 3ebe 16f8 3cbd 3543 383d
00000340: 695c 70bd 4ea6 043f 9fc0 313c 32dc ccbe
00000350: 6de1 aebd 9c0d 823a 7e10 97bc 74fe abbe
00000360: 3021 283d 447f 2b3f 543c 6b3d 94e1 7a3c
00000370: 98e8 c8bc bb16 c6be e707 d63d e2f9 043d
00000380: 2fca 9c3d 1796 2d3f 847a 723d 6b08 0dbc
00000390: 5219 13be ada9 67bf 3798 d7bc 92f2 53bd
000003a0: e59c 07bd dba5 d7bd 7b18 1ebc 1f7d 97bd
000003b0: fc6e 073c 7d14 dc3c 43f5 8b3c 0594 d5bd
000003c0: ec1a 963d c96d 10be 243d e2bc ec72 c1bc
000003d0: 0ab8 af3d 7741 abbe 2da4 8c3b e67a 8dbd
000003e0: 4595 963d 37f7 61be d859 2fbd 74ac 1cbe
000003f0: 16ca 203e 0301 6dbf a021 93bb ac45 35be

fc1.bias f4 [200]
-0.38459882 -0.3399523 0.16883707 0.09472697 -0.049784288 -0.6813773 -0.4236396 -0.034100525
-0.21596 -0.21414961 -0.19989735 -0.054048646 -0.2567552 -0.34383368 -0.13673641 -0.026627708
-0.17198044 0.060060862 -0.25911066 -0.0125187 -0.015145887 -0.08269738 -0.009316119 -0.027385391
0.11841056 -0.18512487 -0.30326858 -0.30315477 -0.20275281 -0.03422329 0.19567038 -0.17980745
-0.11453829 0.1521716 -0.35265666 -0.2607699 -0.16348636 -0.16184042 0.21535838 -0.2100866
-0.29245448 -0.03681342 -0.03767134 -0.05434269 -0.18154545 -0.07723788 -0.1329193 -0.466091
-0.19248258 -0.06450976 0.10327433 0.040830027 -0.10725796 -0.13806406 -0.10637263 -0.28322747
-0.39757574 -0.11398153 -0.087863065 0.055253226 -0.09912712 -0.05622471 -0.14861767 0.25478223
-0.098801754 -0.08378334 -0.25423333 -0.05620741 -0.1535908 0.08364532 -0.2090081 -0.0420705
-0.13499573 -0.23665836 -0.026181722 0.11039626 -0.31211317 -0.12829575 -0.50623083 -0.15199366
-0.10581634 -0.111613736 0.021129047 -0.02236426 -0.14694838 -0.0143777225 -0.050784007 -0.38821772
-0.15250614 -0.24057658 -0.07055174 -0.15231451 -0.057793327 -0.24988674 -0.0786193 -0.053545497
-0.3712095 -0.101879835 0.043028884 -0.3624099 -0.1392344 -0.32309154 -0.24388628 0.089106426
-0.09945085 -0.41664147 -0.2454134 -0.39385295 -0.2763839 0.10069514 -0.24925111 -0.23592354
-0.1665749 -0.3800862 -0.19076803 -0.1382261 -0.16444656 0.039594 -0.08365745 -0.32436308
0.12531386 0.0024300665 -0.053757332 -0.20581937 -0.31772566 -0.025803952 -0.10748951 -0.20804116
-0.19931841 -0.046263088 0.06395587 0.055741977 -0.05388817 -0.25120464 -0.24336743 -0.1020172
-0.16787696 -0.02789137 -0.017821498 -0.27423728 -0.19582763 -0.168628 -0.074579716 -0.35475278
-0.101291716 -0.036202412 -0.21827467 -0.28906775 -0.18877535 0.030323263 -0.43770713 0.13688622
-0.17160971 0.071024016 -0.30399132 -0.2051707 0.016919615 -0.38394544 0.11643846 -0.24714684
0.16242854 -0.22921349 -0.0328891 -0.11088364 -0.26098752 -0.023465425 -0.105539605 0.03343829
-0.20478885 0.076668635 -0.006142498 0.08421989 0.027551504 -0.0774515 0.0018583777 -0.34339502
-0.10830739 -0.1637263 -0.24888742 0.041992478 -0.025756227 -0.36185265 -0.121116884 -0.12105671
0.09170526 -0.1396309 -0.23400894 -0.23792876 -0.30169567 -0.34790897 -0.39647552 -0.22995093
-0.31996393 0.16858488 -0.36214706 -0.013101393 -0.15149443 -0.18316315 0.025297217 -0.052854218
00000000: 23ea c4be 3a0e aebe a0e3 2c3e 3700 c23d
00000010: 9cea 4bbd be6e 2ebf 4ae7 d8be feac 0bbd
00000020: 9e24 5dbe 094a 5bbe e4b1 4cbe 1d62 5dbd
00000030: 6b75 83be f80a b0be a104 0cbe 5a22 dabc
00000040: a41b 30be 6102 763d 27aa 84be 3c1b 4dbc
00000050: 7426 78bc 3e5d a9bd a3a2 18bc 5457 e0bc
00000060: 3c81 f23d 6091 3dbe 0546 9bbe 1a37 9bbe
00000070: 6f9e 4fbe b82d 0cbd d15d 483e 721f 38be
00000080: 0d93 eabd dfd2 1b3e 6a8f b4be a283 85be
00000090: f868 27be 7fb9 25be e886 5c3e f120 57be
000000a0: 98bc 95be abc9 16bd 434d 1abd 7196 5ebd
000000b0: 0de7 39be e52e 9ebd ff1b 08be 7ba3 eebe
000000c0: 271a 45be b11d 84bd 7e81 d33d 633d 273d
000000d0: 10aa dbbd aa60 0dbe e5d9 d9bd 3103 91be
000000e0: 0c8f cbbe 266f e9bd 8df1 b3bd 3551 623d
000000f0: 2903 cbbd e24b 66bd 3b2f 18be d172 823e
00000100: 9358 cabd 9a96 abbd df2a 82be be39 66bd
00000110: e846 1dbe 3d4e ab3d 3806 56be 1e52 2cbd
00000120: 523c 0abe 9256 72be 0d7b d6bc 6f17 e23d
00000130: 4ccd 9fbe f65f 03be 5898 01bf 3aa4 1bbe
00000140: 3db6 d8bd be95 e4bd d316 ad3c 4135 b7bc
00000150: a379 16be 8a90 6bbc e402 50bd 79c4 c6be
00000160: 922a 1cbe b559 76be 6e7d 90bd 56f8 1bbe
00000170: b2b8 6cbd 4fe2 7fbe 2803 a1bd 8652 5bbd
00000180: 2c0f bebe 60a6 d0bd 0e3f 303d ca8d b9be
00000190: 7693 0ebe 416c a5be 53bd 79be 6e7d b63d
000001a0: e3ac cbbd 0852 d5be a64d 7bbe 18a7 c9be
000001b0: 3182 8dbe 4139 ce3d af3b 7fbe f195 71be
000001c0: 9c92 2abe a99a c2be b258 43be 258b 0dbe
000001d0: ae64 28be 512d 223d 9954 abbd eb12 a6be
000001e0: 4752 003e c041 1f3b a630 5cbd 50c2 52be
000001f0: f0ac a2be cf62 d3bc 7623 dcbd be08 55be
00000200: 201a 4cbe 5d7e 3dbd 4cfb 823d b351 643d
00000210: d7b9 5cbd e59d 80be 5035 79be 65ee d0bd
00000220: f0e7 2bbe 717c e4bc 64fe 91bc d468 8cbe
00000230: 0a87 48be d2ac 2cbe 40bd 98bd 28a2 b5be
00000240: 0872 cfbd fb48 14bd 6583 5fbe b000 94be
00000250: 534e 41be 7e68 f83c 261b e0be e72b 0c3e
00000260: 75ba 2fbe 0a75 913d c0a4 9bbe 4518 52be
00000270: 019b 8a3c 7f94 c4be 4a77 ee3d 1014 7dbe
00000280: ab53 263e f1b6 6abe b9b6 06bd f616 e3bd
00000290: 28a0 85be 903a c0bc 2625 d8bd 97f6 083d
000002a0: 2bb4 51be 7204 9d3d 0247 c9bb 7a7b ac3d
000002b0: b1b3 e13c e49e 9ebd cf94 f33a 79d1 afbe
000002c0: 44d0 ddbd dea7 27be 58dc 7ebe 4e00 2c3d
000002d0: b9fe d2bc c044 b9be 210c f8bd 95ec f7bd
000002e0: f8cf bb3d 67fb 0ebe 0aa0 6fbe 99a3 73be
000002f0: db77 9abe 2021 b2be d7fe cabe 4278 6bbe
00000300: 50d2 a3be 84a1 2c3e 576b b9be 3aa7 56bc
00000310: 5b21 1bbe 1f8f 3bbe 1c3c cf3c aa7d 58bd

fc2.weight f4 [150, 200]
-0.012234036 -0.019016648 -0.021338481 -0.118081085 -0.0331755 -0.09000685 0.046616778 -0.10405404
-0.081290685 -0.07046398 -0.0116747115 -0.053646956 -0.051687002 -0.118409224 -0.028725829 -0.075818956
-0.07730744 -0.014732832 -0.06209563 -0.017240753 0.002155858 0.0019841895 -0.01506649 -0.10452172
0.024436748 -0.07593875 -0.06920951 -0.03323541 -0.11301361 -0.07455441 0.050834328 -0.06283792
-0.097371094 0.07759358 -0.06751563 -0.08200224 0.09430619 -0.1853493 -0.07791875 0.025177928
-0.050375063 -0.017258348 -0.03702083 -0.17123549 0.013939966 0.01319616 -0.1281041 -0.16109295
-0.049782187 -0.070859574 -0.011215749 -0.15185417 -0.09420476 -0.12442863 -0.09303477 -0.04272972
-0.12416952 -0.15626493 -0.1433567 -0.14388312 -0.16538052 0.007925191 0.04836836 -0.05731766
0.012237107 0.024570365 -0.022844134 -0.20951758 -0.068553425 0.054699227 -0.118264146 -0.11166721
0.02303437 0.024664287 0.011885861 -0.026463253 -0.053402334 -0.0016970927 -0.109517224 0.067678384
-0.049808417 -0.081900254 -0.11776687 -0.06631391 -0.06761366 0.012253981 -0.080844104 -0.064249285
0.028189043 -0.061277583 -0.009373682 -0.0029788353 -0.09493105 0.038101915 0.03720742 -0.07995815
-0.12390801 0.010152223 0.05106552 -0.0023721338 0.010689409 0.0077591315 -0.022744097 -0.062392082
-0.06315328 -0.09464933 0.032523535 -0.1100583 -0.011020747 -0.11752335 -0.033543117 -0.03904672
-0.061585978 -0.03715759 0.005937176 0.012665569 -0.012345673 0.0078042564 0.009394902 -0.19704646
-0.041363746 0.08163127 -0.12882562 0.05356721 -0.10519417 -0.007912741 -0.14509231 -0.05770709
-0.0104181 -0.054009356 -0.017463325 -0.13074723 -0.024224997 -0.07890562 0.01014043 0.008981064
0.042430885 -0.081111506 -0.028646756 0.008438775 0.055510804 -0.07767359 -0.1508777 -0.20800407
-0.12878668 -0.03662801 -0.13093792 -0.0072649284 -0.013527841 0.03960816 -0.033524174 -0.03783021
-0.060518187 0.01406421 -0.0061770133 -0.12082942 -0.023478875 0.09960388 -0.0123274 -0.018357044
-0.08397259 -0.011248082 -0.008479783 -0.03397529 0.062933415 -0.017305456 -0.07921764 -0.016605336
-0.062040064 0.00411582 0.06655593 -0.1396383 -0.036834013 -0.077449456 -0.043704294 -0.22934583
-0.065595925 -0.09736949 -0.06896655 -0.034807537 -0.14242472 -0.0017430768 -0.14638583 -0.2244806
-0.09901135 -0.08209504 -0.026023563 -0.02013266 0.017147267 -0.08178447 -0.102219895 -0.11063813
-0.06685862 0.014058903 0.011300399 0.036861256 0.049114525 0.041798264 0.042171903 -0.03162289
-0.11301765 -0.048850305 0.06898328 -0.040566217 -0.2147317 -0.29061878 0.23819335 -0.11804277
-0.19606157 0.13780057 -0.02294052 -0.3415652 0.09296078 -0.08274033 -0.13661893 0.009995926
-0.19986743 0.21920817 -0.015406086 -0.05102307 -0.19031118 0.011602283 -0.2931783 -0.0106170075
0.03805372 0.068822406 -0.22483473 -0.09728949 0.06986265 0.055412937 0.113678634 0.00081998145
0.007455827 0.053835668 -0.06324354 -0.03439447 -0.46719486 -0.061100446 -0.19553374 -0.17744902
-0.17857297 -0.17529128 0.08743511 -0.028251125 -0.2610602 -0.13424778 0.018056901 -0.1956514
-0.21722569 0.021131506 -0.060617 -0.14199576 -0.17130429 -0.020601444 0.08084062 -0.16606832
00000000: 4471 48bc cdc8 9bbc 0ace aebc 7fd4 f1bd
00000010: 08e3 07bd 8355 b8bd 3cf1 3e3d 491a d5bd
00000020: bb7b a6bd 6b4f 90bd 4a47 3fbc e9bc 5bbd
00000030: c0b5 53bd 8980 f2bd 6e52 ebbc f846 9bbd
00000040: 5d53 9ebd fa61 71bc fd57 7ebd 7b3c 8dbc
00000050: 4c49 0d3b 2d09 023b 70d9 76bc 7c0f d6bd
00000060: 932f c83c c685 9bbd b7bd 8dbd da21 08bd
00000070: ae73 e7bd fcaf 98bd a837 503d 2bb1 80bd
00000080: 7f6a c7bd 62e9 9e3d a245 8abd caf0 a7bd
00000090: 9b23 c13d 35cc 3dbe de93 9fbd f141 ce3c
000000a0: 1556 4ebd 6161 8dbc 27a3 17bd 5b58 2fbe
000000b0: 7564 643c b534 583c b92d 03be 8df5 24be
000000c0: 68e8 4bbd d31e 91bd 43c2 37bc a97f 1bbe
000000d0: 6dee c0bd 70d4 febd 0389 bebd 5c05 2fbd
000000e0: 974c febd ea03 20be 19cc 12be 1956 13be
000000f0: 8359 29be a9d8 013c e71d 463d ecc5 6abd
00000100: 267e 483c ca47 c93c 9f23 bbbc c78b 56be
00000110: bd65 8cbd 4c0c 603d 7934 f2bd c7b1 e4bd
00000120: 93b2 bc3c c20c ca3c eabc 423c 77c9 d8bc
00000130: 68bc 5abd fb70 deba 914a e0bd f79a 8a3d
00000140: e903 4cbd 52bb a7bd c22f f1bd 96cf 87bd
00000150: 0879 8abd ecc4 483c 9891 a5bd 2195 83bd
00000160: b5ec e63c 34fe 7abd 1294 19bc 9038 43bb
00000170: 366b c2bd c110 1c3d cf66 183d 19c1 a3bd
00000180: 7cc3 fdbd 8255 263c 142a 513d cd75 1bbb
00000190: a222 2f3c 5040 fe3b d451 babc d78e 7fbd
000001a0: 8256 81bd 82d7 c1bd 6637 053d 3f66 e1bd
000001b0: 5d90 34bc 15b0 f0bd 8264 09bd 74ef 1fbd
000001c0: 9441 7cbd 8f32 18bd a48c c23b 3f83 4f3c
000001d0: 8145 4abc d9ba ff3b 13ed 193c 8cc6 49be
000001e0: 086d 29bd 4c2e a73d ddea 03be 4a69 5b3d
000001f0: 0a70 d7bd 71a4 01bc 1493 14be 455e 6cbd
00000200: aeb0 2abc ea38 5dbd 3f0f 8fbc 9ae2 05be
00000210: 8073 c6bc 4599 a1bd 0c24 263c 5025 133c
00000220: 02cc 2d3d ca1d a6bd 9aac eabc ca42 0a3c
00000230: 4c5f 633d 5513 9fbd af7f 1abe 05ff 54be
00000240: a8e0 03be 4107 16bd 9714 06be a30e eebb
00000250: e1a3 5dbc 2a3c 223d a550 09bd daf3 1abd
00000260: ebe1 77bd 926d 663c 8b68 cabb 6a75 f7bd
00000270: c556 c0bc 1efd cb3d ddf8 49bc 8361 96bc
00000280: d2f9 abbd e049 38bc caee 0abc ac29 0bbd
00000290: 3ce3 803d 2cc4 8dbc dc3c a2bd ea07 88bc
000002a0: b91d 7ebd 00de 863b 7a4e 883d 58fd 0ebe
000002b0: 43df 16bd d29d 9ebd 4603 33bd a2d9 6abe
000002c0: 2857 86bd a869 c7bd 563e 8dbd 5992 0ebd
000002d0: c9d7 11be f477 e4ba 2be6 15be 3ede 65be
000002e0: 76c6 cabd 7221 a8bd 5e2f d5bc 40ed a4bc
000002f0: 6d78 8c3c 9e7e a7bd aa58 d1bd 3e96 e2bd
00000300: 2ced 88bd 5057 663c 4f25 393c d4fb 163d
00000310: 502c 493d a834 2b3d 72bc 2c3d 0187 01bd
00000320: cc75 e7bd 4217 48bd 1b47 8d3d c328 26bd
00000330: a0e2 5bbe fccb 94be f5e8 733e 68c0 f1bd
00000340: 5dc4 48be 981b 0d3e c2ed bbbc a2e1 aebe
00000350: 3962 be3d c373 a9bd d5e5 0bbe f4c5 233c
00000360: 0caa 4cbe 1b78 603e cf69 7cbc 91fd 50bd
00000370: efe0 42be 8117 3e3c 771b 96be f5f2 2dbc
00000380: 38de 1b3d c3f2 8c3d 133b 66be b63f c7bd
00000390: 2614 8f3d adf8 623d 58d0 e83d 06f4 563a
000003a0: 0350 f43b ca82 5c3d d485 81bd 37e1 0cbd
000003b0: 2a34 efbe 7644 7abd ff39 48be 32b5 35be
000003c0: d5db 36be 8f7f 33be 2e11 b33d e76e e7bc
000003d0: afa9 85be 4078 09be 11ec 933c d758 48be
000003e0: 6970 5ebe fb1b ad3c 8849 78bd 5667 11be
000003f0: 646a 2fbe 5cc4 a8bc c48f a53d d00d 2abe

fc2.bias f4 [150]
-0.1438259 0.06020547 -0.082541026 -0.077523164 0.082379736 -0.13178758 0.3502087 -0.09516591
-0.10405502 -0.27439734 0.0061503234 -0.3762036 -0.10166055 -0.04629476 -0.6154008 0.02200138
-0.16939792 -0.08638679 -0.07618661 -0.08408278 -0.083475865 0.016491845 0.08141463 -0.010482617
-0.20114292 -0.11156482 0.085401 -0.14824024 -0.19214772 -0.0087046 -0.12053646 0.074656144
-0.1127771 -0.21869017 -0.6136976 0.41498846 -0.20387149 -0.13093281 -0.4371625 0.02336409
-0.10040995 0.11709439 -0.16673368 0.28064084 0.17546465 -0.017178722 0.19800706 -0.035540786
-0.18149853 -0.32595155 -0.11799871 -0.0063608787 0.24865834 0.14456168 -0.24190263 -0.06353344
-0.30099344 -0.17642187 0.0122460555 0.048581894 -0.08652066 -0.03236402 -0.19425151 -0.076986276
-0.124790154 -0.08783978 0.032894175 -0.04117836 -0.27379513 -0.070044495 -0.1488207 0.15443668
-0.09504873 -0.49933732 -0.08719487 0.13770902 0.1782496 -0.5393955 -0.057382077 -0.08059326
0.010776284 -0.1644234 -0.34212592 0.12020238 -0.1480504 -0.48289442 0.40290785 0.09683271
0.07434972 -0.03079492 -0.031788945 -0.021818012 -0.3564992 -0.20290278 0.20130676 0.14058176
0.3553159 -0.09878283 -0.2674613 0.03543613 0.25353742 -0.066614635 0.022394018 -0.09680047
-0.07318901 -0.09586068 0.04863274 0.2752729 0.059176542 -0.051353242 -0.07927859 -0.0097142225
-0.10301512 -0.18656941 0.07844219 -0.2736114 -0.118965276 -0.056870855 -0.038598545 -0.14250895
0.15437862 0.17602432 0.57016826 0.04190529 -0.10128305 -0.070300505 -0.14442755 -0.13513874
-0.036261477 -0.14490566 -0.17431974 0.0030514377 -0.021454899 0.036740042 -0.079152845 -0.08357641
-0.0976195 -0.1022122 0.20075795 -0.020405037 0.0799138 -0.0070299455 -0.12735598 -0.24334417
0.29650474 0.0020471315 -0.19991754 -0.2911287 -0.15550682 -0.18839814
00000000: 1947 13be 039a 763d 450b a9bd 77c4 9ebd
00000010: b5b6 a83d 53f3 06be 8e4e b33e 58e6 c2bd
00000020: cc1a d5bd cf7d 8cbe a788 c93b c29d c0be
00000030: 6833 d0bd 939f 3dbd e88a 1dbf 3d3c b43c
00000040: a676 2dbe 8feb b0bd ba07 9cbd 9833 acbd
00000050: 65f5 aabd e819 873c b7bc a63d 48bf 2bbc
00000060: 69f8 4dbe 197c e4bd b8e6 ae3d 4acc 17be
00000070: 5fc2 44be bd9d 0ebc d2db f6bd 52e5 983d
00000080: aef7 e6bd 51f0 5fbe 491b 1dbf 5e79 d43e
00000090: b0c3 50be 4013 06be c3d3 dfbe 0c66 bf3c
000000a0: bba3 cdbd 2fcf ef3d 3cbc 2abe 28b0 8f3e
000000b0: 01ad 333e 64ba 8cbc 5dc2 4a3e 3793 11bd
000000c0: c0da 39be 1fe3 a6be 4fa9 f1bd eb6e d0bb
000000d0: 4ba0 7e3e fa07 143e 53b5 77be d21d 82bd
000000e0: d01b 9abe efa7 34be aea3 483c cffd 463d
000000f0: be31 b1bd 2290 04bd dee9 46be fbaa 9dbd
00000100: fb91 ffbd 58e5 b3bd 0bbc 063d a4aa 28bd
00000110: e02e 8cbe 7d73 8fbd 7464 18be a624 1e3e
00000120: e9a8 c2bd 24a9 ffbe 3993 b2bd 9803 0d3e
00000130: 1087 363e d315 0abf 7809 6bbd 140e a5bd
00000140: 038f 303c 9c5e 28be 212b afbe aa2c f63d
00000150: 869a 17be f03d f7be f049 ce3e 3a50 c63d
00000160: aa44 983d a145 fcbc 2035 02bd b0bb b2bc
00000170: 1087 b6be bfc5 4fbe 5c23 4e3e aaf4 0f3e
00000180: f7eb b53e a74e cabd b0f0 88be 7a25 113d
00000190: a8cf 813e 416d 88bd a973 b73c 533f c6bd
000001a0: 1fe4 95bd 9b52 c4bd 2033 473d 92f0 8c3e
000001b0: 1a63 723d c757 52bd d05c a2bd 6728 1fbc
000001c0: 97f9 d2bd 0d0c 3fbe 4da6 a03d cb16 8cbe
000001d0: 11a4 f3bd 6af1 68bd 8219 1ebd deed 11be
000001e0: 6e15 1e3e b83f 343e 8cf6 113f e2a4 2b3d
000001f0: 7d6d cfbd b6f9 8fbd d1e4 13be cf61 0abe
00000200: ea86 14bd 2662 14be e080 32be a1fa 473b
00000210: 2fc2 afbc ba7c 163d e31a a2bd 1c2a abbd
00000220: bbec c7bd a154 d1bd 7e93 4d3e 7728 a7bc
00000230: d9a9 a33d 755b e6bb 9b69 02be 372f 79be
00000240: 78cf 973e 2b29 063b 2fb7 4cbe d20e 95be
00000250: 2e3d 1fbe 71eb 40be

fc3.weight f4 [1, 150]
-0.0061356626 -0.016743671 -0.0116765965 -0.0018079757 -0.00691614 -0.0045006764 0.011607912 -0.008453419
-0.008209552 -0.006419923 0.022794088 -0.015911445 -0.033963244 0.0051253475 -0.011347964 0.018972542
-0.015573906 -0.011083949 -0.018672667 0.012886951 -0.012849944 0.013682015 0.11768761 -0.017865412
-0.017608872 -0.006382399 -0.024670463 -0.021712093 -0.023010947 -0.0114595 0.014223716 -0.014607119
0.02690194 -0.016247796 -0.0093288515 0.013551231 -0.012789277 -0.012622381 -0.013255252 0.012215192
-0.012784717 0.017126407 -0.012033232 0.029796625 0.017495317 -0.012199746 0.091772705 -0.024684409
-0.013681627 -0.018758455 -0.027590794 0.0042378125 0.012054564 0.02155264 0.010958428 -0.01841414
-0.014662695 -0.011849003 -0.014437034 0.0097207185 -0.0008547075 0.020273652 -0.018706713 -0.0012337532
0.01279593 -0.02708851 0.016807979 0.010362006 -0.006312822 -0.017195197 -0.0026310321 0.017662674
-0.0224534 -0.015991243 0.008407857 0.058522575 0.0127470195 -0.018055946 0.012248418 -0.03151656
0.008511894 -0.02675457 -0.014608833 0.083333135 0.012811843 -0.007898698 0.012070018 0.016565595
0.011123467 0.0060327076 0.014806175 -0.010283545 -0.07297955 -0.010699466 0.008821124 0.015394665
0.017684564 0.007481763 -0.009880176 0.014536959 0.018029328 -0.022096304 0.021934992 -0.016284492
0.04233688 -0.009242827 -0.020653749 0.019131241 0.02098123 0.023179285 -0.008462487 0.014115365
-0.006222515 -0.006896892 -0.00898127 -0.012455552 0.0010130227 -0.021119611 0.01711317 -0.011392848
0.0127399545 0.005290075 0.00829467 -0.016669808 0.010475257 -0.018696584 -0.00882957 0.008532855
0.006093564 -0.0014305088 -0.013929802 0.015695259 0.0064480975 -0.009306512 0.010138225 0.02152363
0.014755535 -0.021392813 0.013895098 -0.011084338 -0.019302672 -0.013925547 -0.01112264 -0.0180705
0.010026317 -0.009152848 -0.0118086515 -0.008402736 0.0021936574 -0.006820885
00000000: ab0d c9bb 062a 89bc 324f 3fbc 99f9 ecba
00000010: caa0 e2bb 697a 93bb 1d2f 3e3c 3680 0abc
00000020: 5b81 06bc 385e d2bb abba ba3c b858 82bc
00000030: 0b1d 0bbd 88f2 a73b d0ec 39bc 4e6c 9b3c
00000040: b229 7fbc 7499 35bc 6cf7 98bc ca23 533c
00000050: 9288 52bc 882a 603c 3406 f13d 7c5a 92bc
00000060: 7b40 90bc 7123 d1bb b619 cabc 8fdd b1bc
00000070: 7481 bcbc a0c0 3bbc 970a 693c b352 6fbc
00000080: 7561 dc3c 191a 85bc 0ad8 18bc fb05 5e3c
00000090: 1e8a 51bc 1ace 4ebc 8e2c 59bc 3b22 483c
000000a0: fd76 51bc ae4c 8c3c 0827 45bc 0d18 f43c
000000b0: 5752 8f3c 72e1 47bc 54f3 bb3d f536 cabc
000000c0: e728 60bc 55ab 99bc 1706 e2bc 59dd 8a3b
000000d0: 8280 453c 298f b03c fa8a 333c 40d9 96bc
000000e0: cd3b 70bc 5222 42bc 4f89 6cbc a643 1f3c
000000f0: 730e 60ba ee14 a63c d23e 99bc e3b5 a1ba
00000100: 05a6 513c b9e8 ddbc e3b0 893c 67c5 293c
00000110: cadb cebb f1dc 8cbc 656d 2cbb 50b1 903c
00000120: 31f0 b7bc 1100 83bc 1cc1 093c 5eb5 6f3d
00000130: e0d8 503c 10ea 93bc 97ad 483c 8217 01bd
00000140: 7975 0b3c 662c dbbc e359 6fbc 90aa aa3d
00000150: c4e8 513c 8a69 01bc 53c1 453c 92b4 873c
00000160: 343f 363c 05ae c53b 9995 723c 507c 28bc
00000170: 4d76 95bd d04c 2fbc 7a86 103c e839 7c3c
00000180: 38df 903c 9429 f53b 76e0 21bc 6d2c 6e3c
00000190: 3eb2 933c 4f03 b5bc 03b1 b33c 0e67 85bc
000001a0: 7069 2d3d 3a6f 17bc 0d32 a9bc 1fb9 9c3c
000001b0: d4e0 ab3c 7ce2 bd3c 3ea6 0abc 2244 673c
000001c0: 3de6 cbbb 53ff e1bb 2d26 13bc 5f12 4cbc
000001d0: 67c7 843a 0903 adbc eb30 8c3c 11a9 3abc
000001e0: 3ebb 503c 5e58 ad3b 5ee6 073c 1f8f 88bc
000001f0: 6aa0 2b3c 9429 99bc e7a9 10bc 63cd 0b3c
00000200: 85ac c73b e97f bbba d339 64bc 5893 803c
00000210: 904a d33b 577a 18bc cc1a 263c 5352 b03c
00000220: 33c1 713c fb3f afbc 44a8 633c 159b 35bc
00000230: a320 9ebc fa27 64bc bc3b 36bc 9608 94bc
00000240: 6c45 243c d4f5 15bc 1379 41bc a1ab 09bc
00000250: 77c3 0f3b bb81 dfbb
