agent2_checkpoint_critic.target.pth (torch_old, 164612 bytes, 5 tensors)

fc1.weight f4 [200, 52]
00000000: a1c8 383e 0fae 313e ea6f f1bc 73cc 08bd
00000010: 51cc 53bc 9c8e df3c 48e4 0bbe bd3c 0bbd
00000020: fc74 833e 8cff 5f3e 360d dfbc ffe7 05bd
00000030: 510d 15be bb58 0cbd b071 d2bc d571 dcbc
00000040: dd98 f03d 671e d63d 934a a9bd 127f 5ebd
00000050: e943 143d f0d7 9c3d c1f9 bfbd 57f5 d1bd
00000060: 9ab3 a53d 39e7 2cbe d385 9dbc 31d2 69be
00000070: f715 b83d 3c83 92bd f5c9 b0bc dede 8bbe
00000080: a2dc 093e ce76 26be 206d 16bd 5f12 02be
00000090: e822 843d a793 313d d531 44bd d264 2cbe
000000a0: 077f 733d 3d17 62be b6af b33c 7716 dabe
000000b0: ba69 703c 630a e23d dbc5 8a3d d2cb d5be
000000c0: c796 6cbf cea4 df3e 24d2 07bf a932 353f
000000d0: 88e1 e93d a9a9 3ebe d78e 8bbd c724 14be
000000e0: 865b 2c3e 3a59 10bc 98d1 e83a f8c4 41be
000000f0: 6cac 123e f47a 0ebe 4171 e1bd 31df bd3d
00000100: 36df 413e a567 97bd dcce b3bb f4cc f03d
00000110: 33e9 383e e9ff 39bd fbc0 a83d 3989 553e
00000120: 394e 0a3d 4f76 35be 875c d23d 92ad 593e
00000130: b304 4b3e 70a2 da3e 1cf6 81bc 1060 58bd
00000140: c8a3 1cbe cc1b c53d c40e e1bc 5ffd 30bd
00000150: 76f9 093e 578e 0d3f 1127 9bbc 1f77 8d3e
00000160: 2350 f8bd 69ea 57bd 2443 2cbd 1125 953e
00000170: 71ca 643e 4c6f 233f ecc3 eebd 2ce5 763e
00000180: 31b7 01be ffa5 f7bd f4b3 44bd 08d2 6c3e
00000190: 37dd 36be acbb 063f 5e99 8e3f eabe 1a3d
000001a0: 0b6f 433e ae65 4b3f 7546 a03d 1acd 84bd
000001b0: a8f4 0e3c 79e6 d63d 4df7 8339 7921 efbd
000001c0: 1b83 f43d d2ec 513f 402d 4fbd 9873 fe3d
000001d0: c1aa 983c 723e 98be 44ec 663d 6aa9 ef3c
000001e0: 10c2 03bc 1f47 653f aa37 b8bc 46a5 7dbb
000001f0: 33ea 803c b19e 8abf 7343 febc 158d 863d
00000200: dbae 3bbe 542c 5d3e e154 71bc d3a3 71bd
00000210: d935 7d3d 5dd7 053e 0f8c 0dbd 5de5 d2bd
00000220: 6dc5 79bd 0eb4 943e 6896 06be 7bed bbbd
00000230: 17ac 3ebd bf30 83be 3953 ddbd 1a93 27be
00000240: 307f f7bd a064 973e f45e 8fbd 7e8b 74bb
00000250: b66b 83bd 8694 93bf 472a 6fbd a69e 8abd
00000260: f1eb 15be 5bb1 193f 2bab a9be 51e2 c73e
00000270: b7d7 64bb efeb d23e 4693 47bd 51a1 fa3d
00000280: ac7c 94bd f5e9 a7bd 1689 423d c080 d83d
00000290: 66cc 90bb 78fe 2c3f 9a82 a13b de50 e93d
000002a0: 2a6e dcbd 8be7 c1bd 4347 1abc ec21 013e
000002b0: 5aa4 c93b 7bad 053f 882e 59bd ef48 63be
000002c0: 198a 133e 9e51 aebd 3cf6 0ebd 24aa 80be
000002d0: ed9f 0dbd 3d4d 2e3f bcfc 2e3d f524 d3bd
000002e0: b7c2 833d 0629 783b 0a5b e43c adcf c3bd
000002f0: 2d7a 34bb 9dfd 0d3f 7be5 f43b 0b19 81bd
00000300: 0505 adbb d172 00be a433 51bc 8eae 9abc
00000310: 8e91 1fbc a406 cb3e 1e6b 78bd 31ef b9bd
00000320: d0fd 9bbd efe6 6abc 95b4 cc3c 2d7d 73bd
00000330: 702b 3bbf 62ef 38be 51c4 9abc 3f0f c93c
00000340: a288 89bd 34cc 073f a392 573c a162 cdbe
00000350: ba67 b2bd 6e1b 4d3b 4028 84bc d684 acbe
00000360: 46f3 073d 97e3 2b3f edef 6a3d 6088 a83c
00000370: fd68 babc 439e c1be f3e1 d53d f585 1a3d
00000380: b74b 843d 772f 2d3f 111d 603d 0420 9ebb
00000390: 7481 0ebe 7644 62bf 5f55 fcbc 1475 44bd
000003a0: 1a52 13bd f89e cabd d392 44bc 6e4a 85bd
000003b0: e99c 233c c997 ed3c b571 713c 8561 c3bd
000003c0: 8c51 8e3d c105 09be 9d09 efbc c05d 8dbc
000003d0: 9518 ac3d f4c8 a6be 69eb 323b ee75 80bd
000003e0: f821 8f3d f079 5abe 8e16 3abd 4e00 1fbe
000003f0: 2f32 1c3e d29b 67bf c303 e9bb 9099 37be
0.18045284 0.17351554 -0.02947231 -0.033398103 -0.012927131 0.027289681 -0.13661301 -0.03399347
0.2567519 0.21874827 -0.02722798 -0.03269195 -0.14555861 -0.034264307 -0.025688976 -0.026909748
0.11747906 0.104550175 -0.08266177 -0.054320402 0.036197577 0.07658374 -0.09373809 -0.10251873
0.08090897 -0.1688508 -0.019228851 -0.22834088 0.089885645 -0.07153937 -0.021580676 -0.27318472
0.13463071 -0.16256258 -0.036725163 -0.1270232 0.0645197 0.043353703 -0.047899086 -0.16835335
0.059447315 -0.22079177 0.021934371 -0.42595264 0.014673645 0.11037137 0.06776019 -0.41757065
-0.9241757 0.43680423 -0.53055024 0.70780426 0.1141997 -0.18619408 -0.06814354 -0.14467154
0.16831788 -0.008810336 0.0017762659 -0.18922794 0.14323586 -0.1391409 -0.110079296 0.09271086
0.18932804 -0.073928155 -0.005487306 0.11757842 0.18057708 -0.04541007 0.08239933 0.20853128
0.033766005 -0.17720912 0.102715544 0.21257618 0.19826011 0.42702055 -0.015864424 -0.052825987
-0.15296853 0.096244425 -0.027472861 -0.043210384 0.13474068 0.5529532 -0.018939527 0.27629945
-0.1212466 -0.052713785 -0.042056218 0.29129842 0.2234285 0.638417 -0.11658463 0.2411086
-0.12667538 -0.12092208 -0.04802318 0.23126996 -0.17857824 0.52630115 1.1140554 0.037779726
0.19085328 0.79452026 0.078259386 -0.064844325 0.008725323 0.10493178 0.0002517052 -0.11676306
0.11939069 0.82001984 -0.050580263 0.124243915 0.01863611 -0.29735142 0.056377664 0.029255588
-0.008041874 0.8956165 -0.02248748 -0.0038703247 0.015736675 -1.0829679 -0.031038022 0.06569878
-0.18328421 0.21598941 -0.014729709 -0.058994126 0.06181893 0.13070436 -0.0345574 -0.10297654
-0.060979296 0.2904362 -0.13143313 -0.09176155 -0.046550836 -0.25623128 -0.10806889 -0.16364709
-0.12084806 0.29568958 -0.07000533 -0.003731459 -0.064170286 -1.1529701 -0.05838993 -0.06768541
-0.14640786 0.6003625 -0.33138403 0.39039853 -0.0034918615 0.41195628 -0.048724435 0.122378
-0.07250342 -0.08198921 0.047494017 0.10571432 -0.0044188974 0.6757579 0.004928899 0.11392377
-0.107631996 -0.094679914 -0.009416404 0.12610596 0.0061536254 0.52217835 -0.05302289 -0.2219579
0.14408149 -0.08511661 -0.034902796 -0.25129807 -0.034576345 0.68086606 0.042721495 -0.10309783
0.06433623 0.0037866249 0.027875442 -0.095610954 -0.0027538643 0.5546511 0.0074736453 -0.06303605
-0.0052801394 -0.12543799 -0.01276866 -0.018882062 -0.009739293 0.39653504 -0.06064903 -0.09078825
-0.0761677 -0.014337285 0.024988452 -0.05944555 -0.73113155 -0.18060067 -0.01889244 0.024543403
-0.06715514 0.53045964 0.0131575195 -0.4011431 -0.087111905 0.0031296867 -0.016132474 -0.33695096
0.033190988 0.6714415 0.057357717 0.020572841 -0.02275514 -0.37816057 0.10443487 0.037725408
0.06459754 0.6765055 0.05471522 -0.004825594 -0.1391657 -0.88385713 -0.030802427 -0.047963217
-0.03596697 -0.09893602 -0.011997896 -0.06508337 0.009986141 0.02900304 0.0147365825 -0.09540085
0.069491476 -0.13381101 -0.029179389 -0.017256618 0.08403126 -0.3257519 0.002730096 -0.06272493
0.06988901 -0.21335578 -0.045431666 -0.1552746 0.15253519 -0.9047214 -0.007111044 -0.17929673

fc1.bias f4 [200]
00000000: f893 c3be a985 adbe d4ba 273e e659 ca3d
00000010: 0362 3cbd e6d4 29bf 3811 d5be 3d48 20bd
00000020: 7edb 62be 8427 5ebe 6b10 51be d991 4ebd
00000030: 8174 82be e64c aebe 9684 02be 5436 fdbc
00000040: ea00 33be d336 473d 79a6 83be 4e12 28bc
00000050: d981 6cbc a54c b6bd f611 40bc 3589 dcbc
00000060: 39e3 ea3d 01b4 3ebe d75c 9bbe b34d 98be
00000070: f9e3 4dbe 49b3 03bd 02c1 463e 8fb1 36be
00000080: da8a e7bd f5b6 113e 772b b4be 68c0 83be
00000090: 89d4 1fbe f639 25be a63e 5b3e cf45 54be
000000a0: 4f4b 91be 72c4 f4bc 42a2 13bd 610d 63bd
000000b0: 6bfc 34be fb6e abbd 7227 0abe b83c ebbe
000000c0: 3970 45be 7d11 7cbd 38f8 dc3d fe83 493d
000000d0: 201b d3bd 285c 03be 6ef2 d9bd 315c 8bbe
000000e0: 52c6 cabe 61c9 cabd 918f a4bd b722 603d
000000f0: d526 c3bd b569 4fbd 0812 17be d824 833e
00000100: 1d4d d0bd b2a8 aebd fd21 85be b395 57bd
00000110: e9aa 1dbe d62c b13d e701 57be 2ac9 15bd
00000120: b72b fdbd e4ed 6ebe afee bfbc 350d e13d
00000130: 8fe4 9dbe 8c2c 07be cba1 fdbe 7d1b 0dbe
00000140: 3d80 c9bd 2fb6 debd 1f5f 923c 74fe c1bc
00000150: 05b8 0ebe de33 91bc 4a29 45bd 771a c1be
00000160: e2e4 1cbe 8da1 74be f0e0 9bbd 34b5 15be
00000170: dbe2 5fbd 0236 79be 27b9 95bd 6a42 5bbd
00000180: a127 bbbe aada c4bd 4714 103d ecf8 b6be
00000190: d511 0fbe 5a1f a7be 5937 75be 455b bf3d
000001a0: 1814 cfbd e28d d4be edf9 78be c917 c6be
000001b0: 72dc 8bbe 8368 ca3d 62ba 72be 4718 72be
000001c0: b2bf 31be 3c93 c3be 2bea 47be 5143 0cbe
000001d0: 5d6b 17be a604 213d 285b abbd a71e a9be
000001e0: 6c83 ef3d c4de d23b 082d 4abd fec9 59be
000001f0: 01ba a2be c2c6 f1bc b1ce d4bd e7cc 52be
00000200: 51a0 43be 0fff 41bd 81e8 7a3d f3ec 703d
00000210: baf8 53bd 2bc4 7dbe 0923 83be fd9d cabd
00000220: d7bd 2abe 3352 e1bc 4008 afbc 5a88 88be
00000230: 4a7b 48be 18ec 31be f6a7 9cbd 8914 b4be
00000240: 5e3c d5bd ceec 19bd 5e9d 5dbe 7a4a 8ebe
00000250: 2886 40be ce28 d93c a494 dbbe 87b4 0b3e
00000260: 2699 2abe 5146 833d 33b8 99be b34b 55be
00000270: 7701 c73c 1afb c2be 47c0 eb3d e079 7abe
00000280: 0c35 253e 0dab 77be fc58 07bd 97c8 dfbd
00000290: 1d48 87be c07a ccbc 3026 d7bd 5440 153d
000002a0: d71b 4fbe 0047 943d f52f e9bb 782f ab3d
000002b0: 2477 b53c 2320 96bd a58d 0bbb 34aa b0be
000002c0: 1051 d9bd dbbd 26be fb59 7cbe 0496 183d
000002d0: ad1e e3bc 1454 b5be b881 f4bd 5303 e6bd
000002e0: e91b b73d a353 0dbe bb68 6bbe 0329 72be
000002f0: eae9 98be 1aae acbe 36ec cabe 6dfa 75be
00000300: a3f9 9cbe 3e23 283e b3ba b8be 29f4 10bc
00000310: 3e3c 17be 66d6 37be fc62 d33c 9dc2 66bd
-0.3819883 -0.33891037 0.16379863 0.09880428 -0.04599191 -0.6634048 -0.416147 -0.03913139
-0.22154042 -0.21694762 -0.20416419 -0.05043206 -0.2547951 -0.34043044 -0.1274589 -0.030909695
-0.17480817 0.04863627 -0.25712946 -0.01025827 -0.014435255 -0.089013375 -0.011723032 -0.026920894
0.114691205 -0.18623354 -0.3034427 -0.2974678 -0.20106496 -0.0321534 0.19409564 -0.1784117
-0.11305781 0.14229949 -0.3518941 -0.25732732 -0.1560842 -0.16135392 0.21410617 -0.20729755
-0.28377768 -0.029878829 -0.036043413 -0.05543268 -0.17674415 -0.08370777 -0.1349161 -0.45944762
-0.19281091 -0.061540116 0.107895315 0.049198143 -0.10307908 -0.12828124 -0.10641943 -0.27218774
-0.3960443 -0.09901691 -0.080351956 0.054720607 -0.09528891 -0.05063792 -0.14752972 0.25614047
-0.10170958 -0.0852827 -0.26002494 -0.052633 -0.15397228 0.0865113 -0.2099682 -0.036568798
-0.123618536 -0.23332936 -0.023429243 0.10988847 -0.3083844 -0.13200587 -0.495375 -0.13780017
-0.09838913 -0.108745925 0.017867623 -0.023680903 -0.13937385 -0.017724928 -0.04813508 -0.37715504
-0.15321687 -0.23889752 -0.07611263 -0.14619905 -0.054659706 -0.24337009 -0.07310706 -0.053530134
-0.36553672 -0.09612019 0.035175588 -0.35736787 -0.13971646 -0.32641107 -0.23946895 0.0934358
-0.101112545 -0.41514498 -0.24314089 -0.38690022 -0.27316624 0.09883215 -0.23703912 -0.23642074
-0.17358282 -0.38198268 -0.19522922 -0.13697554 -0.1478705 0.039311074 -0.08366996 -0.33031198
0.116949886 0.006435247 -0.04935935 -0.2126846 -0.31782535 -0.02951372 -0.10390986 -0.20585977
-0.19104125 -0.047362383 0.06125689 0.058819722 -0.051750876 -0.24781863 -0.25612667 -0.09893415
-0.1667398 -0.027505016 -0.021366239 -0.26666528 -0.19578281 -0.17375219 -0.076492235 -0.35171917
-0.10411905 -0.03757935 -0.21642062 -0.27791196 -0.18801177 0.026508715 -0.4288684 0.13643084
-0.16659984 0.06409896 -0.30023345 -0.20829658 0.02429269 -0.380822 0.11511283 -0.24460554
0.16133517 -0.24186344 -0.033043846 -0.10926931 -0.26422206 -0.024960876 -0.105053306 0.0364383
-0.20225464 0.07240105 -0.0071163126 0.08358663 0.022151537 -0.07330348 -0.0021294144 -0.34504855
-0.106111646 -0.16283362 -0.246437 0.03725244 -0.027724588 -0.3541571 -0.119388044 -0.11231103
0.0894087 -0.13801436 -0.2298917 -0.23648457 -0.29865962 -0.3372658 -0.3963334 -0.24021311
-0.30659208 0.16419694 -0.3607994 -0.008847275 -0.14769074 -0.1795288 0.025804035 -0.05633794

fc2.weight f4 [150, 200]
00000000: 366f 48bc 5fc9 9bbc a0cc aebc 01d5 f1bd
00000010: 8ee3 07bd 1056 b8bd 65f5 3e3d 7019 d5bd
00000020: b17b a6bd d64f 90bd 6e47 3fbc aebc 5bbd
00000030: f7b5 53bd e180 f2bd 0351 ebbc 9044 9bbd
00000040: d251 9ebd d05f 71bc 2b58 7ebd c43a 8dbc
00000050: 634a 0d3b 710b 023b 2dda 76bc 7013 d6bd
00000060: b430 c83c 1083 9bbd acbb 8dbd f625 08bd
00000070: b774 e7bd 65b0 98bd 533b 503d c9af 80bd
00000080: 7d69 c7bd 2aea 9e3d f144 8abd b1f2 a7bd
00000090: e627 c13d 85cc 3dbe 2392 9fbd 6a43 ce3c
000000a0: 0b53 4ebd d461 8dbc c3a6 17bd 5855 2fbe
000000b0: 7467 643c 5236 583c 832c 03be 10f5 24be
000000c0: f1e5 4bbd df1e 91bd a0c1 37bc 287f 1bbe
000000d0: 4fed c0bd 2cd5 febd ec8b bebd 5003 2fbd
000000e0: 734c febd 6c03 20be 90cc 12be 4955 13be
000000f0: 2c56 29be 91dc 013c 5b21 463d 63c4 6abd
00000100: d57e 483c f549 c93c ea20 bbbc a288 56be
00000110: eb63 8cbd 290e 603d c132 f2bd adb1 e4bd
00000120: 43b3 bc3c 2e11 ca3c 28be 423c dbc6 d8bc
00000130: ddba 5abd 1870 deba c248 e0bd e19a 8a3d
00000140: 4901 4cbd 1ab8 a7bd 082d f1bd 07d0 87bd
00000150: b977 8abd 0dc9 483c 5091 a5bd 1492 83bd
00000160: e6ef e63c c8fc 7abd f692 19bc 4137 43bb
00000170: 3968 c2bd 9713 1c3d 146a 183d 77c0 a3bd
00000180: bbc3 fdbd 8858 263c 9d29 513d 5777 1bbb
00000190: 7726 2f3c a244 fe3b e251 babc c48c 7fbd
000001a0: da53 81bd b0d7 c1bd f437 053d eb65 e1bd
000001b0: 4d8d 34bc 08b0 f0bd 6062 09bd e3ef 1fbd
000001c0: e844 7cbd 6433 18bd 488f c23b a387 4f3c
000001d0: f743 4abc 8bbf ff3b b5f0 193c f7c6 49be
000001e0: 9a6d 29bd 612f a73d 04e8 03be a56a 5b3d
000001f0: 1a6f d7bd e1a5 01bc b291 14be 8c5e 6cbd
00000200: edad 2abc 9737 5dbd 850f 8fbc eddf 05be
00000210: 6473 c6bc ad99 a1bd d921 263c 6826 133c
00000220: b6ce 2d3d f11d a6bd f3ac eabc f044 0a3c
00000230: bb61 633d 3b11 9fbd 577d 1abe 18fe 54be
00000240: 34e0 03be cb04 16bd b612 06be 3d0c eebb
00000250: 0fa1 5dbc bc3d 223d d84e 09bd 6ef6 1abd
00000260: e6df 77bd fe6e 663c 1f67 cabb 8572 f7bd
00000270: f754 c0bc 4801 cc3d d7f5 49bc a35e 96bc
00000280: f6f9 abbd 584a 38bc eaec 0abc 8227 0bbd
00000290: 78e6 803d 7cc3 8dbc d539 a2bd b706 88bc
000002a0: 7a21 7ebd d6dd 863b ef50 883d fdfb 0ebe
000002b0: 8cdf 16bd 0a9c 9ebd c402 33bd ebd7 6abe
000002c0: 1e55 86bd 7d69 c7bd ac3e 8dbd 8592 0ebd
000002d0: 78d6 11be 1577 e4ba 8be5 15be 76de 65be
000002e0: e0c4 cabd 9221 a8bd df30 d5bc 40ed a4bc
000002f0: 5a7b 8c3c 827d a7bd 645c d1bd 839a e2bd
00000300: 30ed 88bd 765b 663c 0029 393c cbfe 163d
00000310: b62a 493d a436 2b3d 5eb9 2c3d a286 01bd
00000320: ff32 f5bd 03d8 3bbd 8cc9 993d 58b4 1cbd
00000330: bde3 5bbe 34a1 94be c48a 5b3e 9b14 bebd
00000340: e9fa 53be 96aa 0c3e ea8e 41bb 79e4 a9be
00000350: 3db4 aa3d 05a1 99bd 001a 09be 8ce4 ae3c
00000360: 06e0 51be 1de9 173e 6870 5abc 6475 3fbd
00000370: a08f 3bbe a41a 3e3c 86bf 9cbe 895f 1fbc
00000380: cfe0 1b3d 56a1 cd3d 6070 65be 824e debd
00000390: 443e ad3d 93a5 273d 8a71 e63d 6325 063b
000003a0: 0afb ce3c a8c8 ed3c ba9a 97bd 0ac2 1fbd
000003b0: ba4a ecbe c052 89bd ec76 24be 1de9 4ebe
000003c0: 9ec9 2cbe 27a0 26be 7302 b93d 0493 41bd
000003d0: d031 92be e875 09be 48a8 433d 823f 43be
000003e0: 5d8e 60be f450 5c3c 3f5c 74bd 2f65 11be
000003f0: f4c8 ffbd a2c5 a8bc b6ec ac3d f1b1 28be
-0.012233546 -0.01901692 -0.021337807 -0.118082054 -0.033175997 -0.0900079 0.046620745 -0.104052424
-0.08129061 -0.070464775 -0.011674745 -0.053646736 -0.051687207 -0.11840988 -0.028725153 -0.07581437
-0.0773045 -0.014732316 -0.062095802 -0.017239936 0.002155923 0.0019843245 -0.015066666 -0.10452926
0.024437286 -0.075933576 -0.06920561 -0.033239327 -0.113015585 -0.074555196 0.050837826 -0.06283528
-0.09736917 0.07759507 -0.06751431 -0.082005866 0.09431438 -0.1853505 -0.07791545 0.02517863
-0.050372165 -0.017258562 -0.03702427 -0.171224 0.013940681 0.013196545 -0.12809949 -0.16109109
-0.049779836 -0.07085966 -0.011215597 -0.15185225 -0.09420263 -0.12443003 -0.09304032 -0.04272777
-0.12416925 -0.15626305 -0.14335847 -0.14388002 -0.16536778 0.007926122 0.048371654 -0.057316195
0.01223727 0.024571398 -0.022842843 -0.20950559 -0.06854995 0.054701004 -0.11826087 -0.111667015
0.023034697 0.024666395 0.011886157 -0.02646201 -0.053400863 -0.0016970662 -0.109513775 0.06767822
-0.049805913 -0.081894115 -0.11776167 -0.06631475 -0.067611165 0.0122549655 -0.08084357 -0.064243466
0.028190564 -0.061276227 -0.009373417 -0.0029787573 -0.09492535 0.03810462 0.03721054 -0.07995694
-0.12390848 0.010152943 0.051065076 -0.0023722255 0.010690323 0.0077596465 -0.022744123 -0.062390104
-0.063148215 -0.09464967 0.032524064 -0.110057674 -0.011020017 -0.11752325 -0.033541083 -0.039047133
-0.06158915 -0.037158385 0.0059374906 0.012666616 -0.012345306 0.007804816 0.009395768 -0.19704805
-0.04136429 0.08163334 -0.12881476 0.0535685 -0.10519238 -0.007913084 -0.14508703 -0.057707354
-0.010417444 -0.054008093 -0.017463455 -0.13073702 -0.024224944 -0.078906395 0.010139906 0.008981325
0.042433463 -0.081111796 -0.028646922 0.008439288 0.055513125 -0.07766958 -0.15086876 -0.20800054
-0.12878495 -0.036625665 -0.13093075 -0.0072646425 -0.013527169 0.039609656 -0.033522457 -0.03783267
-0.06051626 0.014064549 -0.006176844 -0.1208239 -0.023478014 0.09961182 -0.012326679 -0.018355673
-0.08397286 -0.011248194 -0.008479336 -0.033973224 0.062939584 -0.017305128 -0.07921187 -0.016604764
-0.062043644 0.0041158004 0.06656062 -0.13963313 -0.036834285 -0.07744606 -0.04370381 -0.22933929
-0.065592036 -0.09736917 -0.06896719 -0.0348077 -0.1424197 -0.0017430509 -0.14638345 -0.22448143
-0.09900832 -0.08209528 -0.02602428 -0.02013266 0.017148662 -0.081782356 -0.102227 -0.11064627
-0.06685865 0.014059892 0.011301279 0.036864083 0.049112998 0.041800156 0.042168967 -0.031622536
-0.11972617 -0.0458603 0.07509145 -0.038257927 -0.21473594 -0.29029238 0.21439654 -0.09281274
-0.20701183 0.13736948 -0.0029534646 -0.33182123 0.08335159 -0.07501415 -0.13388824 0.021349214
-0.20495614 0.1483502 -0.013332464 -0.04674281 -0.18316507 0.011603031 -0.3061487 -0.009727367
0.03805619 0.10040538 -0.22406149 -0.10854818 0.08459142 0.04092939 0.112521246 0.0020469062
0.02526619 0.029026344 -0.074025586 -0.03900341 -0.46150762 -0.067052364 -0.1606099 -0.20206113
-0.16873786 -0.16272031 0.0903367 -0.047259346 -0.2855363 -0.13423884 0.047767907 -0.19067195
-0.21929307 0.013447035 -0.059658285 -0.14198755 -0.12489501 -0.020602051 0.084435865 -0.1647413

fc2.bias f4 [150]
00000000: a945 13be 32a1 623d 5e3f a3bd 5b47 9ebd
00000010: 86e5 953d 1f1b 02be 2750 b33e 4d9f b0bd
00000020: 7019 d5bd 9cdd 89be 1e74 7a3c 9515 bbbe
00000030: ae89 dfbd a49d 3dbd 95cf 1abf 1bc7 ee3c
00000040: 1048 2dbe 9aeb b0bd 1e7d 88bd 40c1 9cbd
00000050: c6eb 88bd e334 e83c 7321 933d 9102 bdbb
00000060: e2b6 43be fd7a e4bd 641f ba3d edc9 17be
00000070: 1ec0 3abe 0215 7cbc 2dda f6bd c0a4 763d
00000080: dcf4 e6bd a706 57be a1ef 15bf 558d cd3e
00000090: fc5b 46be c87c 0abe f7f3 dcbe ae32 433c
000000a0: 9163 acbd a023 e63d a448 30be 7474 8a3e
000000b0: 1583 303e dbb9 8cbc cf5e 4a3e 1312 10bd
000000c0: 5a3b 2cbe 62c0 9ebe 967b f3bd 1c6e d0bb
000000d0: b8cd 7c3e 0af7 133e 2952 77be 121b 82bd
000000e0: edf8 95be cd1b 2abe 5d0f 97bb f59f 263d
000000f0: ea31 b1bd 52f1 edbc 7c77 43be daa9 9dbd
00000100: a68f ffbd 0a98 acbd e808 133d c8b7 ebbc
00000110: 5e81 80be 8e09 6ebd 4562 18be eee6 1d3e
00000120: 5477 adbd fe46 f9be 7b91 b2bd b589 0d3e
00000130: e615 2a3e fe5b 05bf 5a81 61bd 8676 a4bd
00000140: eaeb 8e3c 1909 2bbe 7ecc aabe 64ed e63d
00000150: 2497 17be 0181 f5be 64a3 ca3e 2494 d43d
00000160: c261 923d e944 fcbc 8232 02bd 8bb8 b2bc
00000170: a4c9 b3be ceb5 43be 8496 4a3e ed9b 0c3e
00000180: d328 b33e c74b cabd 5def 82be a0e2 143d
00000190: dac9 753e 9daa 8cbd 0407 8b3c e96c dbbd
000001a0: c69b a4bd 31a6 a0bd 2abf 603d adec 873e
000001b0: 5ab1 623d 6656 52bd 88c7 82bd f249 76bc
000001c0: 8ff6 d2bd f728 3abe 0ea3 893d ee20 81be
000001d0: f2a1 f3bd 1bec 68bd 3a17 1ebd fd64 08be
000001e0: 4614 1d3e 1149 3e3e 7b7f 103f da83 073d
000001f0: ada8 adbd e6f9 8fbd 6641 0fbe 4960 0abe
00000200: fa85 14bd bb18 14be 32dd 3abe 8c30 683c
00000210: 4a06 b7bb cca9 1c3d 951a a2bd a6f9 aabd
00000220: fcf0 d4bd 9554 d1bd ad37 503e 13a1 49bc
00000230: 682b 9e3d ba47 7939 7e75 01be 573a 79be
00000240: b83c 8e3e d004 dfb9 a014 40be be8a 8dbe
00000250: d31f 1fbe 32a3 39be
-0.14382042 0.05532951 -0.07971071 -0.07728454 0.07319169 -0.12705658 0.3502209 -0.08624134
-0.104052424 -0.26926887 0.015286474 -0.36539903 -0.10914932 -0.046292916 -0.60472995 0.029147675
-0.16922021 -0.086386874 -0.06664489 -0.07654047 -0.06685595 0.02834553 0.07184114 -0.005768128
-0.19112733 -0.11156271 0.090880185 -0.14823122 -0.1823735 -0.015385868 -0.120533325 0.06021571
-0.11277172 -0.20998631 -0.5856877 0.4014689 -0.19371027 -0.13524163 -0.4315488 0.011913938
-0.08417428 0.11237264 -0.1721521 0.27041972 0.17237504 -0.017178467 0.19762729 -0.035173487
-0.16819516 -0.3100615 -0.118888065 -0.0063607823 0.2468785 0.14449707 -0.24152435 -0.063528195
-0.29291478 -0.16612168 -0.0046099857 0.04067989 -0.086520985 -0.029045735 -0.19088548 -0.07698412
-0.12478571 -0.08427437 0.035897166 -0.028774157 -0.250987 -0.05811458 -0.14881237 0.15420124
-0.08470026 -0.48686975 -0.087191544 0.13822062 0.16609916 -0.52093494 -0.055055 -0.08030419
0.017446477 -0.16702689 -0.3335914 0.112757474 -0.1480375 -0.47949985 0.39577782 0.10379818
0.07147552 -0.030794578 -0.03178645 -0.021816513 -0.35114777 -0.19112322 0.1978398 0.13731356
0.34992084 -0.09877735 -0.25573245 0.03634894 0.24002782 -0.068684794 0.016971119 -0.10714132
-0.08037524 -0.078441985 0.05486981 0.26547757 0.055344917 -0.051351927 -0.06385714 -0.015032278
-0.103009336 -0.1817969 0.06720553 -0.25220436 -0.11896123 -0.056865793 -0.03859637 -0.13319774
0.15339765 0.1858256 0.5644452 0.033084728 -0.08479438 -0.07030086 -0.13989791 -0.13513292
-0.036260583 -0.14462559 -0.18248442 0.014171731 -0.0055854665 0.03824787 -0.07915226 -0.08348398
-0.103975266 -0.10221211 0.20333739 -0.0123064695 0.07723123 0.0002377321 -0.12642476 -0.24338661
0.277807 -0.0004253746 -0.18757868 -0.27644914 -0.15539484 -0.1812866

fc3.weight f4 [1, 150]
00000000: 760b c9bb 28a7 8cbc bb11 17bc 5e33 11bb
00000010: d0a7 e5bb 8202 84bb c67d 533c cb3a 00bc
00000020: 1680 06bc 832e e4bb 22d8 963c 6ca0 82bc
00000030: 8b9b 02bd b2f2 a73b e004 4bbc 1ac2 8c3c
00000040: 3023 87bc ee96 35bc c034 a0bc 91cc 793c
00000050: 61c9 20bc ee75 643c af86 c53d ea3b 4abc
00000060: b77a 62bc b425 d1bb 7645 d1bc cbdd b1bc
00000070: 179d 9abc 996f 2dbc f90a 693c 1aed 59bc
00000080: a53d dc3c 18e1 87bc 3315 30bc 405c 603c
00000090: c544 49bc 7ecd 19bc d8ba 60bc 99cd 1c3c
000000a0: ae3b 2cbc 80ca 4e3c 9274 52bc ceaa d83c
000000b0: 02df 943c 94e2 47bc 9611 943d be0c 0cbd
000000c0: 490e 23bc 58e1 86bc 6dde 05bd 31e1 8a3b
000000d0: 3680 363c be91 a53c c782 333c bcd7 96bc
000000e0: 8a7f 57bc bc69 2fbc 8871 91bc 6784 3b3c
000000f0: 2a0e 60ba 4cc2 ac3c 3496 6bbc 05b5 a1ba
00000100: 6090 513c 4db7 ddbc 324c ab3c 7c5d 363a
00000110: 7d14 e4bb c110 afbc bb69 2cbb 2693 b33c
00000120: 087d 74bc 388d 66bc 21c0 093c fbd8 7e3d
00000130: 461e 593c b648 8fbc ebff 463c 2b4a 01bd
00000140: 43f3 2f3c edcc 07bd f09f 56bc 8c60 a93d
00000150: edec 513c 434b 06bc 4c87 413c a46c 933c
00000160: 7777 4d3c 12b0 c53b 5098 723c 6b7b 28bc
00000170: c890 94bd 606a 84bc b566 063c 4f79 8a3c
00000180: 660f a63c 9328 f53b 0bdc 36bc eddf 3c3c
00000190: ce2c 823c 0490 98bc 4acd be3c 87a7 3ebc
000001a0: 468d 013d 2c6e 02bc 99ff 80bc 14e7 913c
000001b0: 7924 813c 0de0 bd3c 20e1 ffbb cda6 7a3c
000001c0: f1e5 cbbb 4fe5 cfbb 6998 13bc 8ee6 3bbc
000001d0: 94ca 843a 37f9 acbc 2331 8c3c 0dc9 47bc
000001e0: c044 413c a899 c13b ea63 043c 29c8 84bc
000001f0: 32ee 373c 7e29 99bc 43f0 21bc 79cf 0b3c
00000200: ccaf c73b 0d77 b6ba 6baa 2bbc 67de 873c
00000210: 8f77 f33b 0a1d 1bbc 091a 263c 7546 af3c
00000220: be6c 673c e83d afbc 4522 813c d6f7 83bc
00000230: ebca 8fbc 115f 69bc b445 33bc 0abc 70bc
00000240: 277d 173c 10d9 d6bb 7007 3abc 6ba3 20bc
00000250: 30b2 0d3b 2e75 07bc
-0.0061353995 -0.01716955 -0.009220536 -0.0022155861 -0.00700853 -0.0040286193 0.012908405 -0.007826517
-0.008209249 -0.0069635524 0.018413607 -0.015945636 -0.03188662 0.005125367 -0.012391299 0.017182399
-0.01649627 -0.011083348 -0.019556403 0.015246526 -0.0098136375 0.013944132 0.096448295 -0.012343386
-0.013823203 -0.0063826684 -0.025545817 -0.021712204 -0.018873734 -0.010585689 0.0142238075 -0.013301158
0.026884863 -0.016586825 -0.010747242 0.013693869 -0.012284462 -0.009387372 -0.013716422 0.009570503
-0.010512276 0.012621522 -0.012845175 0.026448634 0.018172745 -0.0122000165 0.07229917 -0.03419184
-0.009952136 -0.016464874 -0.032682825 0.0042382707 0.011138966 0.020211097 0.010956473 -0.018413417
-0.013152966 -0.010706361 -0.017754331 0.011445141 -0.00085470325 0.021088742 -0.014379073 -0.0012337273
0.012790769 -0.027064944 0.020910356 0.0006956679 -0.00696045 -0.021370294 -0.0026308137 0.021920752
-0.014922388 -0.014071755 0.0084076235 0.062218647 0.013251847 -0.017490726 0.012145977 -0.031564873
0.01073915 -0.033154417 -0.0130996555 0.08270368 0.012812835 -0.008196655 0.011812042 0.01799614
0.01254069 0.006032952 0.014806822 -0.010283331 -0.07254177 -0.016164005 0.008203198 0.016903548
0.020271014 0.0074816435 -0.011160861 0.011527997 0.015890505 -0.01862336 0.023291249 -0.011636621
0.03162887 -0.007960837 -0.015746878 0.017810382 0.015764462 0.023178125 -0.0078088194 0.0152985575
-0.0062224795 -0.0063444744 -0.009008505 -0.011468543 0.0010131174 -0.021114929 0.017113274 -0.01219393
0.011796176 0.00590821 0.008080462 -0.016208725 0.011226224 -0.018696543 -0.009883943 0.008533352
0.0060939547 -0.0013920978 -0.0104776425 0.016585542 0.007430024 -0.009467373 0.010138043 0.021395901
0.014125047 -0.021391824 0.015763411 -0.016109388 -0.017552814 -0.014243857 -0.0109419115 -0.0146932695
0.009246147 -0.0065566376 -0.011354312 -0.009804587 0.00216211 -0.008267684
