agent1_checkpoint_actor_target.pth (torch_old, 142826 bytes, 6 tensors)

fc1.weight f4 [200, 24]
000000 89 bd 2c 3d a3 12 61 be 25 a5 62 bd 84 77 42 3d
       0.042172942 -0.21979766 -0.055333275 0.04747726
000010 fc 74 54 bd df f4 03 3e 47 c6 6a 3b c9 4f 3c bd
       -0.051869377 0.1288638 0.003582375 -0.045974527
000020 7f 9a 06 3d 8b e3 60 be 1b e5 6c bd 51 f6 d1 bc
       0.032862183 -0.21961801 -0.05783568 -0.025630148
000030 f2 ed 02 be a5 ba ea 3d 5c 30 32 bd 3f 4c 82 ba
       -0.12786081 0.11461381 -0.04350315 -0.0009940936
000040 41 36 10 bd 96 13 10 be a4 b7 87 bd 37 09 a8 3c
       -0.03520799 -0.14069971 -0.066268235 0.020512206
000050 19 a7 9d bd 39 f2 54 3d 4a 22 cb 3c 5c 23 66 bd
       -0.07697887 0.051988814 0.024796624 -0.056186065
000060 78 26 6d bd cf 40 25 3e 23 02 16 bd 4a 04 0a 3e
       -0.057898015 0.16138004 -0.03662313 0.13478199
000070 35 73 77 bb 34 16 d3 3d 91 30 da 3c 22 02 ea 3d
       -0.0037757878 0.10306969 0.026634486 0.11426188
000080 90 62 fa bc 8c 25 28 3e 53 61 ad 3a fa 6b 88 3d
       -0.030564576 0.16420573 0.0013227857 0.0666122
000090 4b 52 a4 3c d4 2c 0a 3e 41 1b 82 bb ca 99 5c 3c
       0.020058772 0.13493663 -0.003970534 0.013464401
0000a0 c8 55 c2 bc 1a 34 53 3e 7e 06 76 bd 1d 46 82 bd
       -0.023722544 0.20625344 -0.060064785 -0.06361029
0000b0 ae 73 27 3e a7 cf 01 3e 52 87 b8 bd b8 12 ac bd
       0.16352722 0.1267687 -0.09010185 -0.08402008
0000c0 89 e4 3a 3d 5c 3a e4 3d 62 c6 50 bc c6 f6 1e 3d
       0.045628104 0.11143944 -0.012742611 0.03880956
0000d0 67 a7 88 3d 0b a9 09 3d 81 81 5a b9 3f 39 2d 3d
       0.066725545 0.033608478 -0.00020838344 0.042290922
0000e0 58 40 64 bd 1a 17 22 3e 02 53 6c 3c 90 ad 13 bc
       -0.055725425 0.15829125 0.0144240875 -0.0090135485
0000f0 e3 ef 7b 3e a3 75 93 3d 2d 94 cc 39 4e 32 ca bd
       0.24603228 0.07200172 0.00039020312 -0.09872876
000100 a6 b2 0b 3d 24 91 05 3e 55 08 7f bd 5e 29 29 3d
       0.03410592 0.13043648 -0.062263805 0.041299216
000110 5b b2 69 3e 11 1f ce bd 44 d5 53 3d b6 ee 9b 3d
       0.22821943 -0.10064519 0.051717058 0.0761389
000120 c1 2b 35 3c 8c dd f5 bd 04 af 14 3c 47 1a e3 bd
       0.011057795 -0.12005147 0.00907493 -0.110889964
000130 bd 78 d2 bc 5d c8 5e 3c 31 f7 32 3b 52 c0 73 3c
       -0.025692338 0.013597575 0.0027307982 0.014877396
000140 59 a2 70 bd 52 10 d4 bd 35 52 dd 3b 61 b8 9f 3c
       -0.058748577 -0.10354675 0.0067541846 0.019497098
000150 96 e3 12 be fb 13 69 3c 33 16 8f bc cc 40 01 bd
       -0.1434463 0.014225955 -0.01746664 -0.031555936
000160 85 8b 4a 3d fd f3 b8 bd 89 62 43 3d e9 e6 5a bc
       0.049449462 -0.09030912 0.047701392 -0.013360717
000170 a4 3f 81 be 44 37 f1 3b 41 b7 b3 bc 98 5a ab bd
       -0.25243866 0.0073613245 -0.021937968 -0.08366889
000180 57 88 4f bd db 8f a7 3b 1c 87 d2 bd b0 24 e7 bb
       -0.050667133 0.0051135845 -0.10279676 -0.007053934
000190 fd 0a e3 bd ac 73 f3 3d b8 bc b1 bc 17 52 b5 3d
       -0.1108608 0.11887297 -0.021696433 0.08853548
0001a0 97 19 95 bc af 37 bc 3d bd 92 63 3d 97 8f d6 3d
       -0.018200679 0.09190308 0.055559862 0.10476606
0001b0 f3 8a 64 3d 83 75 17 bd 42 46 35 bc ce ad 9d 3d
       0.055796575 -0.036977302 -0.011064114 0.07699166
0001c0 9c 7d c2 bd 35 c9 ea 3d b9 0a bf ba 1f 6c ce 3c
       -0.09496614 0.114641584 -0.0014575339 0.02519804
0001d0 38 0e 1b 3e 00 58 d9 bc c9 90 4f 3d 2f ac f8 3d
       0.15142143 -0.02653122 0.050675187 0.121422164
0001e0 51 a9 d8 bc 8b b9 27 be e4 81 9b 3d 8c 8d 1d 37
       -0.026447924 -0.16379373 0.07593134 9.390886e-06
0001f0 0b bf aa 3b dc da 32 be e4 e0 45 3d 3b 36 bb bd
       0.0052107624 -0.174663 0.048310176 -0.09141203
000200 31 2f 11 3d 79 d7 bb bd 36 17 35 bd 5b 1c 49 be
       0.035445396 -0.091719575 -0.04421159 -0.19639723
000210 60 77 0a bb 60 92 f1 bd 27 5d 71 bd 92 0a a3 bd
       -0.0021128282 -0.11795497 -0.058926728 -0.079610005
000220 8f 05 92 3c dd 81 93 bd 01 b3 c2 3c d6 7a 80 3d
       0.017824916 -0.07202504 0.023766996 0.06273429
000230 e1 d3 d9 bd 36 d6 d1 bd 08 33 9d bd 11 67 60 3d
       -0.10636116 -0.102459356 -0.07675749 0.05478579
000240 c4 17 23 b7 9e ef 34 be a0 a3 67 3d f7 ef d8 bd
       -9.7210905e-06 -0.17669532 0.05655253 -0.10592645
000250 22 62 3f bd 84 6b fc bd b1 c3 66 bd 48 e9 a6 bd
       -0.046724446 -0.123251945 -0.05633897 -0.081499636
000260 eb 2f 6e 3d 63 74 3a be 13 f3 bc 3c 9d b3 c4 bd
       0.058151167 -0.1820846 0.023065126 -0.09604571
000270 4e 36 08 3c 63 c9 6e 3d 59 61 60 bd a4 cb 7a bd
       0.0083137285 0.058297526 -0.054780338 -0.061229363
000280 d2 07 b4 bd 1a 2b 0b be 35 43 9c bc a5 65 8e bd
       -0.08790554 -0.1359066 -0.019075016 -0.06952981
000290 07 54 30 3e 84 ae 18 3e 72 e5 29 3d 1a 66 0b be
       0.17219554 0.14910322 0.04147858 -0.13613167
0002a0 69 33 2f 3e c7 fe 0b be 0a 21 c1 3d 65 cd 35 3b
       0.17109455 -0.13671409 0.0943013 0.0027740833
0002b0 01 2c a4 3d 1d 70 0e bd 88 75 57 bc b8 c9 55 3d
       0.080162056 -0.03477489 -0.01315058 0.052194327
0002c0 ba f7 89 3d 7f ea 0b be a7 9c 9a 3b de aa 05 be
       0.06736703 -0.13663672 0.0047183814 -0.13053462
0002d0 72 d9 49 3d 35 63 c8 3c b5 01 24 3d de 6b 07 bd
       0.049279638 0.024461368 0.04004069 -0.033061855
0002e0 90 4f 81 3d bd 1e f7 bd 7b ae 74 3d b2 41 10 bd
       0.063140035 -0.1206641 0.05973671 -0.035218902
0002f0 20 df c5 3d a0 98 8f 3c db 18 86 bd 63 ee 0f be
       0.09661698 0.017528832 -0.065477096 -0.14055781
000300 77 37 f1 3c 54 de 0f be 0a b0 9e 3b 07 0a 56 3d
       0.029445393 -0.14049655 0.004842763 0.052255657
000310 94 a5 f6 3d 66 0c ee 3d c0 dc 5d 3c 74 08 31 bd
       0.120433 0.116234586 0.0135414 -0.043220952
000320 e2 ae a7 bd 0f e2 17 be e1 0f 8a bd 36 86 e2 bd
       -0.08187653 -0.14832328 -0.0674131 -0.11060755
000330 c1 05 0d 3d 80 e9 fd 3d 1a b2 8c bc 5c 55 68 bd
       0.034429315 0.12398052 -0.01717477 -0.05672203
000340 85 85 89 bd 3e 3d a8 bd ea 88 5b bc c0 bb 83 3d
       -0.0671492 -0.08214806 -0.013399342 0.06432295
000350 7c 89 ae bc bf b1 df 3d 4f 80 38 3d 7d 78 3e bc
       -0.021305792 0.10922574 0.04504424 -0.011625406
000360 da d5 eb bd 94 7b f3 3c 96 d9 8b bd 5e 4b 9a bd
       -0.11515398 0.029722013 -0.068286106 -0.075339064
000370 d4 bc 43 bd 8c 51 92 bb 88 7c da bc aa 51 c3 bd
       -0.047787502 -0.0044652876 -0.02667071 -0.095370606
000380 ff ef 8a 3b 35 24 96 3d a2 fb 18 3d 35 51 f8 bd
       0.0042400355 0.07331125 0.03734935 -0.12124864
000390 5a 4e 5c bc 1c 97 6c 3c ad 6b a0 bd 0b a7 f5 bd
       -0.013446415 0.014440324 -0.078330375 -0.119947515
0003a0 42 a6 27 bd 14 e0 a4 bd bd e3 99 bc 83 76 1d be
       -0.04093004 -0.08050552 -0.018785352 -0.1537724
0003b0 5d bf d4 3d 90 62 c5 3d b1 68 aa bd ae fb 56 be
       0.10388062 0.0963794 -0.083207496 -0.20994446
0003c0 95 b9 0c 3d d7 4c 94 3d 3a ae a7 bd c6 c5 e3 3c
       0.034356672 0.072412185 -0.08187528 0.027804267
0003d0 f5 4b 51 3e 62 c1 c3 bc da a0 9e bd d0 bc 69 3d
       0.20439132 -0.023895923 -0.07745524 0.05706483
0003e0 22 bd 77 3c 9a 39 6a 3d d7 c5 ed 3d 8b 90 61 3d
       0.015120776 0.05718384 0.116100006 0.055069488
0003f0 fd 5c 14 3e 7c 7f d4 3b 39 1d 8b bb 82 8d 1d bd
       0.14488597 0.006484924 -0.004245427 -0.03846503

fc1.bias f4 [200]
000000 a5 5d 4e 3e 90 0b 45 3d 6d c0 9c 3d d0 ea 89 bd
       0.2015291 0.04810673 0.0765389 -0.0673424
000010 98 0c 03 be 15 7a de bd 70 6f cc 3c fe 82 0f be
       -0.12797773 -0.10863129 0.024955481 -0.14014813
000020 e3 70 19 3e 27 a1 83 bd 13 4d 00 be 56 55 95 bd
       0.14984469 -0.06427222 -0.12529401 -0.07291667
000030 8c b5 a0 3e db df 79 bd bd bb 45 3e 52 ae 41 3e
       0.3138851 -0.0610045 0.19309898 0.18914154
000040 97 be 4a 3d a0 b3 09 3e d4 80 04 3e e6 29 c3 bd
       0.049498167 0.13447428 0.12939769 -0.09529476
000050 3d df 73 bd 99 85 27 3e 75 2a eb 3d 5c 23 f1 bd
       -0.05953907 0.16359557 0.114827074 -0.117743224
000060 83 be 35 bd 97 d6 0e 3e b7 49 b7 3d d7 f1 00 3d
       -0.04437114 0.13949047 0.08949607 0.031480636
000070 e3 7b e9 bd 1f 0c e5 bd be 77 c2 bd f6 ec 08 3e
       -0.11400583 -0.111839525 -0.09495495 0.13371643
000080 48 8b 04 bc b9 f4 10 be cc ca 99 bd 11 65 35 3e
       -0.008089848 -0.14155854 -0.075093836 0.17714335
000090 30 18 c0 bd 04 7d 29 be dc b7 fa 3d e6 e5 75 3e
       -0.093796134 -0.16551596 0.122421 0.2401348
0000a0 6d 9e 44 be df 2d 5a be d4 33 42 bd 8c e8 53 3e
       -0.1920106 -0.21306561 -0.04741271 0.20694178
0000b0 f1 ae 07 be da d9 09 3d 83 de 69 3e 94 3e 80 bc
       -0.13250329 0.033655025 0.22838788 -0.01565484
0000c0 86 00 ce bd 22 ab fb bd a9 99 2c bd 18 19 50 3e
       -0.100586936 -0.122885 -0.04213873 0.20322073
0000d0 b2 2f 04 3e c4 d6 1e 3e 04 b3 2d bd 0e 8d f2 ba
       0.1290882 0.15511614 -0.04240705 -0.0018505172
0000e0 b0 cd c6 3c 4f d5 c6 3d dc c4 34 bd f9 c9 1f be
       0.024268001 0.09708654 -0.044133052 -0.1560439
0000f0 97 14 7e bd a6 78 c5 3d 79 22 38 3e 4f 65 e5 3c
       -0.062031355 0.096421525 0.179819 0.02800241
000100 5b 9e 20 be 38 9d 1d be a8 92 ee bd 8e 94 c8 3d
       -0.15685408 -0.15392005 -0.11649066 0.097939596
000110 f3 bc 07 3e 7b 9d 88 3d fa 67 9f 3d 05 e0 16 3e
       0.13255672 0.06670662 0.07783504 0.14733894
000120 96 31 10 3e cc b6 ad 3d 3f 5f d1 3d de 71 b8 3d
       0.14081416 0.08482131 0.10223245 0.090060934
000130 cb 21 0c 3e a3 91 c7 bd 81 43 19 be 28 0d da 3d
       0.13684766 -0.09744575 -0.14967157 0.106470406
000140 c3 1f bc 3d e2 98 18 be 73 ce 15 be e6 a3 dc bd
       0.091857456 -0.1490207 -0.14629535 -0.10773449
000150 90 34 18 3e 68 7d c9 3d a2 4f e0 bd 13 3d 2b bd
       0.14863801 0.098383725 -0.10952689 -0.04180629
000160 37 ca ba bd 16 72 6f 3e 36 4e 5b be 08 0c d1 bd
       -0.09120601 0.23383364 -0.21416554 -0.10207373
000170 55 55 35 be e6 25 76 3d 76 c1 9f bd cf f8 12 3e
       -0.17708333 0.060094737 -0.078005716 0.14352725
000180 12 35 a6 3d 42 a8 57 bd e8 a6 82 bd 20 6a a6 bd
       0.08115591 -0.052650698 -0.06379491 -0.081257105
000190 6d ff 97 3d 3c 15 f6 bd 6c 74 b3 3c 23 f3 8b bd
       0.074217655 -0.12015769 0.0219061 -0.06833484
0001a0 55 9f 2c be b6 fd 81 bd e1 f8 ef bd 9d fe d4 3d
       -0.16857655 -0.0634722 -0.11717392 0.10400126
0001b0 88 23 86 39 4c 19 8f 3c cf f7 af bd 30 90 45 be
       0.00025584945 0.017468117 -0.085921876 -0.19293284
0001c0 b6 b5 a8 bd 77 36 03 be 33 c4 45 be 2d 59 5c be
       -0.082377836 -0.12813745 -0.19313125 -0.21518393
0001d0 53 3b c4 bd ad e3 42 be 1d 30 01 3e 1f 07 9b 3d
       -0.09581628 -0.19032164 0.1261601 0.075697176
0001e0 55 a9 0c 3e 44 24 46 be ab 23 33 3e 9c 5f b9 3d
       0.1373647 -0.19349772 0.17494075 0.09051439
0001f0 2d 1c b9 3d 1b 9b 9f bd 1c 42 f2 3d 8a 34 02 be
       0.09038577 -0.07793256 0.118290156 -0.12715355
000200 50 8f b7 3d ee 01 5c 3e 2e 05 cc 3d df c4 44 be
       0.089628816 0.21485111 0.099619254 -0.19215725
000210 9c 8e 5b bc 0d 8e 8f bd f6 70 2f 3d 98 6f aa bd
       -0.0134007 -0.07009516 0.042832337 -0.08322066
000220 ac 3a 2d 3d 80 34 ff bd 7d 6a 5d 3c 6f e2 66 bc
       0.042292282 -0.124611855 0.013514158 -0.014092072
000230 b3 58 38 be b8 aa 24 be 0a 71 0c 3e e4 66 08 3e
       -0.18002586 -0.16080749 0.13714996 0.133205
000240 35 20 45 bc cd 3c 7b 3e 56 ff 0e 3e 30 11 0c be
       -0.012031605 0.24534912 0.1396459 -0.13678432
000250 6a ef 02 be f4 62 58 bd 14 86 b7 3d e7 1a 11 3d
       -0.12786642 -0.052828744 0.0896112 0.035426047
000260 54 6a 36 bd 13 03 3a 3e 37 bd e0 bd a7 61 c7 bd
       -0.044534996 0.18165235 -0.1097359 -0.097354226
000270 cc ba dc bd 3e ff 09 be 0d c8 4e 3e 76 80 e7 bd
       -0.10777816 -0.13476273 0.20193501 -0.11303799
000280 8e 5b 42 3d cc d2 cd 3d 03 f7 77 be 0a a6 10 be
       0.047450595 0.10049972 -0.24215321 -0.14125839
000290 65 18 70 3e 12 d7 54 bd b9 92 be bd dc e5 8e bd
       0.23446806 -0.05196292 -0.09305329 -0.06977436
0002a0 73 2e 0c 3d 37 04 a1 3d d7 a2 97 3d 2b 4f 70 be
       0.034223985 0.07862132 0.07404106 -0.234677
0002b0 15 db 19 3e 92 51 4d be 3c f1 b1 3c 4f 28 f6 bd
       0.1502498 -0.20050648 0.021721475 -0.12019407
0002c0 91 db 06 be b0 d3 2b 3e 4a 3a 26 be 05 ad 42 bd
       -0.13169695 0.16779971 -0.16233173 -0.047528286
0002d0 26 c3 15 3e f7 c1 37 3e 35 bb cd bd 92 75 9a 3d
       0.14625224 0.17945085 -0.100454725 0.07541956
0002e0 9e 9f 85 3e 38 c8 62 be 80 4a 0d 3d f5 6c ef bd
       0.2609834 -0.2214669 0.034494877 -0.11690704
0002f0 c2 7e 6e 3c b2 80 18 be b3 8d ef 3d 50 14 73 bd
       0.014556589 -0.14892843 0.11696949 -0.059345543
000300 bc 9c 03 3e c9 87 43 bd 11 c5 85 bd eb fc 89 bd
       0.12852758 -0.047736917 -0.06531728 -0.067376934
000310 65 b2 38 be c2 71 14 bd 7f 4b 98 bc ae 7d 40 be
       -0.18036802 -0.0362413 -0.018590687 -0.18797943

fc2.weight f4 [150, 200]
000000 74 f0 b3 3d 34 2e a9 3d 02 0c 46 3d f8 0e b5 3c
       0.08786097 0.08260766 0.048351295 0.022101864
000010 b2 50 14 3e 14 e8 96 bd aa b0 6b bd 8d a5 6d be
       0.14483908 -0.07368484 -0.057541527 -0.23207684
000020 04 d2 41 bd 5a b9 e2 3d 1e a5 f5 3c 98 0d 26 be
       -0.047319427 0.11070509 0.02998596 -0.16216123
000030 88 90 ed 3c 7f c9 9c 3d e0 07 8e 3d fb 31 48 bd
       0.028999582 0.0765562 0.06935096 -0.04887579
000040 f0 e5 28 bd 79 27 b3 3d b6 fd b9 3b 3d d6 9f 3d
       -0.04123491 0.08747763 0.0056759967 0.078045346
000050 5e 7b f7 3d 3a ef 54 bd 09 31 31 3d 70 a8 de 3d
       0.12084077 -0.051985957 0.043259654 0.10871971
000060 ac d4 dc bc ae 00 ac 3d d5 00 07 3e f7 b1 dd 3d
       -0.026956879 0.08398567 0.13183911 0.1082496
000070 9e 16 12 bd 1e 37 44 bd e1 72 4c bb 84 a5 e4 bc
       -0.0356661 -0.047904126 -0.0031196403 -0.027910955
000080 71 01 3e 3c c8 56 40 be 5c c7 12 be f7 3f 47 3d
       0.011597023 -0.18783104 -0.14333862 0.048644986
000090 e7 6f 1c 3e 33 ac a2 bd 14 45 a3 bc f3 02 85 bc
       0.15277062 -0.07943001 -0.0199304 -0.016236758
0000a0 2d cf 19 bd 14 f5 db 3c 51 6a d5 3d cb d8 2f 3c
       -0.037551094 0.02685026 0.10420669 0.01073284
0000b0 2f fa 73 3c 9f e7 66 bc ad f5 c4 3d 0d 81 cc 3c
       0.014891191 -0.014093309 0.096171714 0.02496388
0000c0 fb 5d 47 bd 54 f4 91 3c 59 cb 0f bb 1a cf c1 3d
       -0.04867361 0.0178167 -0.0021941273 0.094633296
0000d0 59 09 e8 bd 43 a5 ca 3d 18 9f f7 3c 9e ab 7a bc
       -0.11329908 0.098948024 0.030227229 -0.015299706
0000e0 ba eb 4b bd 9f d5 80 bd 08 9e 78 bd 1a 7a cf 3d
       -0.049785353 -0.06290745 -0.060697585 0.10130711
0000f0 e5 3d 66 3c 51 4d 00 bb 95 38 8d bd 37 97 78 bc
       0.014052843 -0.0019577334 -0.06895558 -0.015172771
000100 fa 05 22 be 2f 2a 65 3d 94 62 c0 3d 34 a2 01 3e
       -0.15822592 0.055948433 0.09393802 0.12659532
000110 d1 90 5f bd 4d 46 1a 3d 04 bf 40 bd 51 05 eb bc
       -0.054581467 0.0376647 -0.047057167 -0.028689058
000120 b3 29 04 3d 22 ef ac 3b 77 bf 0d 3e 8a 65 d1 bd
       0.03226633 0.0052775303 0.1384257 -0.10224445
000130 47 ec 6d bd 12 51 83 3c d3 fa 35 3d 04 40 97 3d
       -0.05808666 0.016029868 0.044428658 0.07385257
000140 6e ca eb bc 57 ab 36 be 24 00 d0 3d 7f 51 9d 3c
       -0.02878305 -0.17838798 0.10156277 0.0192039
000150 28 d1 6a 3d 03 31 a5 bb ef 10 a7 3d 23 9d 8e 3d
       0.057328373 -0.005041243 0.08157527 0.06963565
000160 48 0f cd 3b 2d a6 62 bd 3c fe 91 bd 27 76 7c 3d
       0.006257925 -0.05533426 -0.071285695 0.061636116
000170 8d d2 97 bc b9 5a 13 3d 57 b4 96 3c d0 67 41 3d
       -0.018533016 0.03597519 0.01839654 0.047218144
000180 e4 5d 14 3c 23 7e fe 3c ef ca 74 3d ad 30 9c bd
       0.009055588 0.031066006 0.059763845 -0.07626472
000190 7c a4 4e 3a 25 06 df 3d be b3 14 3d c4 7e 2b 3d
       0.00078827864 0.10889844 0.036304228 0.04186894
0001a0 19 fb 20 3e 9a e6 1e bd 99 5a e4 3d 55 6b 96 bd
       0.15720786 -0.038794138 0.11150093 -0.07344691
0001b0 4a 41 ed bc 6e 5b 81 bd db 27 43 bd 64 8e 74 3d
       -0.028961796 -0.06316267 -0.04764543 0.059706107
0001c0 16 ef 28 3b 74 ba 75 3d ce 1e 4d 3c 6f 70 2c bd
       0.0025777272 0.05999227 0.012519551 -0.042099413
0001d0 62 65 0d bd e2 5a 90 3d 78 2b cc 3d d9 ad 09 bd
       -0.034520514 0.070485845 0.099692285 -0.03361306
0001e0 1f 6a a2 bd 49 75 5c bd 70 aa 85 3b 1f 46 82 bd
       -0.07930397 -0.05382279 0.0040791556 -0.06361031
0001f0 23 81 2f 3d 3c 01 8e 3c fc 93 9e bd ba 8e cf bc
       0.042847764 0.017334573 -0.077430695 -0.025336612
000200 55 e4 ca 3b 1b f1 b6 bb 95 f8 f2 bd 0e 72 61 3c
       0.00619177 -0.005582941 -0.118638195 0.013760103
000210 a5 81 31 3d 2f f1 ed bb 9e 67 1c bc 46 1e 8b 3c
       0.04333653 -0.0072614173 -0.009546189 0.016982209
000220 5f 95 86 bd 8f 22 40 3c 0e 10 f0 3d 2a b5 85 bd
       -0.06571459 0.011726989 0.11721812 -0.06528695
000230 de 3f ab 3d 03 6e 83 3d 47 e5 9b 3d c4 49 42 3c
       0.08361791 0.064174674 0.076120906 0.011858407
000240 2e 18 dd 3d 5c e5 99 3d a1 90 93 bc 8e 1f bd 3d
       0.107956275 0.0751445 -0.0180133 0.09234534
000250 1b 2d 1a 3c 67 aa 5f 3d d6 97 5e 3d aa 2f 4b 3d
       0.009410168 0.054605868 0.05434402 0.049606003
000260 b6 86 8c bd 9c 76 11 be 39 74 3a 3d b3 a2 90 bc
       -0.068616316 -0.14205402 0.045520995 -0.017655706
000270 16 a6 dc 3c 70 63 84 3d 3d c0 39 3d fa dd e6 3c
       0.026934665 0.06464279 0.04534935 0.028182019
000280 71 2d a3 3d dc 80 f5 bc c6 93 06 bc f0 10 0f 3d
       0.07967652 -0.029968672 -0.008213943 0.034928262
000290 2a ba 1b bd 1d e8 c1 3d 50 68 5e 3c f1 0c 42 bd
       -0.038019337 0.094681 0.013574675 -0.047375623
0002a0 8e c6 45 3d d6 75 c0 3d 50 4f c2 3d a9 62 a2 3d
       0.04828506 0.093974754 0.09487784 0.07928974
0002b0 d6 57 71 3b 31 fd 4e 3d 41 76 64 3d a9 6e 04 3d
       0.0036826036 0.05053443 0.05577684 0.032332096
0002c0 b2 f0 0d 3e ea 9f a3 bd 48 80 bd bc 8f f1 3a be
       0.13861349 -0.079894856 -0.023132458 -0.1825621
0002d0 37 c8 1a 3d 37 10 89 bc 23 c7 3c bd 0d cf aa bd
       0.037788596 -0.016731365 -0.04608835 -0.08340273
0002e0 af 8e 82 bc fb e8 13 3d 28 e0 8a bd ce 64 24 bd
       -0.015937177 0.03611086 -0.06781036 -0.040135197
0002f0 17 3d 64 bd bc fb 1f 3e a5 98 1c bd 1e c6 71 3d
       -0.055722322 0.15623373 -0.03823151 0.05902683
000300 a3 f2 b3 3d 63 1c 72 3d 86 9a c8 3d 8a 24 c5 3d
       0.08786514 0.059109103 0.09795098 0.0962611
000310 96 ec c4 3c 83 30 77 3d a8 86 09 3d 89 5d e5 bc
       0.024038594 0.060349 0.033575684 -0.027998703
000320 0d d1 7f bd 6c 95 37 3c 1d 0a 47 bc 53 4e 98 bd
       -0.062455226 0.011205059 -0.012148407 -0.07436814
000330 a0 c4 1b 3e 34 c3 4d bd d3 b9 22 bd 1d a4 1f bd
       0.15211725 -0.05023499 -0.039727997 -0.03897487
000340 5f 51 86 bd 6e 70 6e 3c 9f 2b 4b 3d 74 00 fa bd
       -0.06558489 0.0145531725 0.049602147 -0.12207118
000350 ab 2c 22 3d 96 62 3b 3c 81 64 c5 3d 23 ab 81 3d
       0.03959338 0.011437079 0.0963831 0.0633147
000360 24 dc c5 3d a6 a0 dd 3c e4 fe 89 3d c5 07 ad 3d
       0.09661129 0.027054142 0.0673807 0.084487475
000370 85 8b 23 3d 73 a5 82 bc 18 9b 04 bd d9 aa e4 3d
       0.039927978 -0.015948033 -0.03237447 0.11165399
000380 fb 38 de bd 33 73 70 3c 99 02 f5 3b e3 26 fa 3c
       -0.10850712 0.014675903 0.0074771163 0.03053612
000390 90 92 c3 3d 93 85 84 3d 24 d4 84 3b a1 45 f4 bb
       0.09549439 0.0647079 0.0040536094 -0.0074545895
0003a0 75 7e 85 bc c7 8c 21 be 12 ce 43 bd 3b 67 d1 3d
       -0.016295651 -0.15776359 -0.047803946 0.10224768
0003b0 94 3b 0a 3e 9d d3 2e 3d 78 05 b5 3d fa 16 9d 3c
       0.1349929 0.04268228 0.08838934 0.019175995
0003c0 e8 5a 9c 3d 62 4e e7 bd aa 02 22 3e 7c 1c 61 bd
       0.076345265 -0.11294247 0.15821329 -0.054958805
0003d0 11 4a 27 bd 56 36 e4 bc 36 72 db 3c ee 35 97 bd
       -0.04084212 -0.02785794 0.026787858 -0.07383333
0003e0 03 61 21 bc b6 10 2c 3c f3 2e 99 3c dd 62 ab 3a
       -0.00984979 0.010502031 0.018699145 0.0013075728
0003f0 aa ec 7f bd 21 8e e1 3d 34 d3 65 bd 85 79 0c bc
       -0.06248156 0.11013437 -0.056109622 -0.008573894

fc2.bias f4 [150]
000000 87 e7 4b bd 21 a1 93 3c c3 91 16 3d 42 6f b1 bc
       -0.04978135 0.018021168 0.036760103 -0.021659497
000010 eb a7 ce 3d a8 0c 70 ba c2 81 9a 3d 01 92 23 3d
       0.100906216 -0.00091571594 0.075442806 0.039934162
000020 08 5d 62 bd 78 f9 91 bb e8 ef 32 3d fc dc 71 bd
       -0.055264503 -0.004454788 0.043685824 -0.059048638
000030 f1 03 3c 3d 4a b7 be 3c 0a 18 56 bc cd c6 b2 3c
       0.045902196 0.023280758 -0.013067255 0.021823311
000040 24 29 99 3d 4d 66 24 3d bb c8 4c bc be 52 31 3d
       0.0747855 0.040136624 -0.01249903 0.0432918
000050 17 a5 97 bc d3 3e 64 bd e4 ce 77 bb fa 85 77 3d
       -0.018511338 -0.055723976 -0.0037812525 0.060430504
000060 98 d3 d6 3d 29 5f 40 3d 91 23 38 3d f3 62 01 bc
       0.10489577 0.04696575 0.044955794 -0.0078971265
000070 9f 37 83 3d 87 d0 4d 3d 07 c4 3d bd 5b 35 13 3d
       0.06407093 0.050247695 -0.046329524 0.035939556
000080 fe 48 88 bc 22 4d 36 bc d3 b3 15 3d 90 d0 15 3d
       -0.016636368 -0.011126788 0.036548447 0.036575854
000090 9b 5b 6c 3c 02 c6 63 3c 4f 93 15 3b 4a 11 b5 bd
       0.014426137 0.013902189 0.0022823398 -0.08841188
0000a0 2c df c9 3d 3c 26 e5 bc b2 ec 49 bd 99 a6 88 bd
       0.0985702 -0.027972333 -0.049297996 -0.06672401
0000b0 3e 24 21 bd 91 89 96 3c 77 53 f5 3d c6 12 70 bd
       -0.039341204 0.018376144 0.1197881 -0.058611654
0000c0 68 93 4d bb 2f 13 12 3d f6 e9 e4 bc 10 5d 01 bd
       -0.0031368379 0.035662826 -0.027943593 -0.031582892
0000d0 76 91 df bb 9f 4a 7d 3d 49 75 f8 b9 3d 92 f7 3c
       -0.00682276 0.061838742 -0.0004738963 0.030221099
0000e0 7d 68 e8 3c 9e 8a 56 3d fa fa a2 3c b9 00 00 bd
       0.028370136 0.05237829 0.019895066 -0.03125069
0000f0 da ee 8e 3b ad e1 81 3d 4f 83 da bc 33 2f 06 3d
       0.0043619694 0.06341872 -0.026673941 0.032759856
000100 71 00 13 3d 37 25 c0 3d 30 f5 8a bc 4c 32 91 bc
       0.035889093 0.09382098 -0.016962618 -0.017724179
000110 e5 a1 a9 bd 54 c3 9a 3d ac de 1d bb 40 1e cf 3d
       -0.08282832 0.07556787 -0.0024089022 0.101131916
000120 a2 3a 24 3d 31 bd 9e 3d df 81 85 bd 89 06 23 3d
       0.04009498 0.07750929 -0.065189116 0.039801154
000130 e0 bc 06 bd e0 15 75 3c 5b 32 a9 bd da ff 2c bc
       -0.03289497 0.014958829 -0.08261558 -0.010559047
000140 74 71 89 bd 57 78 de bc 7a b5 ab 3c b0 f2 1e bc
       -0.067110926 -0.027156992 0.020960558 -0.009701416
000150 8c 23 5e bc 43 a2 da 3d f3 34 a7 bb 09 b8 0c 3d
       -0.01355828 0.1067548 -0.0051027476 0.034355197
000160 84 0a 64 bc 09 1c 20 bd 62 17 29 bd 56 b8 a3 bc
       -0.013918523 -0.039089236 -0.041282065 -0.01998536
000170 c1 0a 85 bd c6 47 2a 3d 33 d2 8c 3c 75 8e fd bc
       -0.06496192 0.041572355 0.017190075 -0.030951718
000180 a9 5f de bc 83 10 0f 3b 1f 8a 85 bd a8 92 9e bb
       -0.027145224 0.002182991 -0.06520485 -0.00483926
000190 64 59 da 3d e4 0c 1f bd 4c 1d 4a 3d 81 2a ac 3d
       0.10661581 -0.038830653 0.049344346 0.084065445
0001a0 ad 79 53 3c b3 96 9e bd 68 3e 72 bd 64 31 6e 3d
       0.012907428 -0.07743587 -0.059141546 0.05815257
0001b0 87 92 50 bd e2 70 a6 3c 18 49 c1 3c ac 5d 0e 3c
       -0.05092099 0.020317499 0.023594424 0.008689325
0001c0 1e 02 b7 3c 2f b3 72 3d 74 b8 5e 3d 26 3c bf 3a
       0.022339877 0.059252914 0.054375127 0.0014590069
0001d0 81 a3 b7 bc c3 d6 0c 3c c8 52 03 bc 8d cb cd bb
       -0.022416832 0.008596125 -0.008015342 -0.0062803687
0001e0 49 02 c2 3b ca d7 9c 3d 5f e2 38 3d 7c 22 c5 3b
       0.0059206826 0.07658346 0.04513776 0.0060160737
0001f0 94 c5 9e bc d9 23 77 3d bb 10 2b 3d 79 4e c5 bc
       -0.019381322 0.06033692 0.041764002 -0.02408527
000200 63 e1 ac 3d 7f eb 6c bc f9 16 12 bc 85 c5 d7 3c
       0.084414266 -0.0144604435 -0.00891661 0.026339302
000210 f1 8b ab 3c 12 42 f0 3c 6f 6e 7d 3d cb 9c 96 3d
       0.020940753 0.02932838 0.061872896 0.07354125
000220 ab 5c 27 3d a8 a7 ea 3d eb a6 ef 3c fc 1d 47 bd
       0.04085986 0.11457759 0.029254397 -0.04861258
000230 e6 64 ec 3c 11 8a 68 bd 4c ca de 3b 30 cd dd bc
       0.028856706 -0.056772295 0.006799018 -0.02707538
000240 b5 63 9e 39 0c 05 a7 3d 5f 13 c4 3c 09 9d 6a 3d
       0.00030210396 0.081552595 0.023935018 0.057278667
000250 75 fc c8 3d 11 24 5a bd
       0.09813777 -0.05325705

fc_out.weight f4 [2, 150]
000000 e3 01 d2 3d 3d d3 a1 3d 8f e2 77 bd 4c 3e 4a bd
       0.10254266 0.07901619 -0.060518797 -0.049375817
000010 c6 53 b1 3d d5 98 fd 3d 59 bd 24 3e 9b 1a f7 3d
       0.08658557 0.12382666 0.16087855 0.120656215
000020 d8 91 31 3d 21 b3 5b bd 0c 66 13 3e 8b 4d e3 3d
       0.043351978 -0.053637628 0.14394397 0.110987745
000030 a5 62 66 bd 2d 6e 09 3d 23 e2 16 3d 2e 97 53 3d
       -0.05624642 0.033552337 0.036836755 0.051657848
000040 70 23 06 3e b9 5f bc 3c e1 47 bf bd d8 8e 37 3d
       0.13099456 0.022994863 -0.09339882 0.04481396
000050 94 0c ed 3c 69 b8 85 bc e0 62 cc 3d 42 e1 08 be
       0.028936662 -0.016323285 0.099797964 -0.13367179
000060 59 ad 29 3e 03 6c 7f bc 0c 6a ae 3d 52 da 7a 3d
       0.16570033 -0.015589717 0.085163206 0.061243363
000070 41 3e 52 bd d2 aa 29 bd e0 84 97 3d 54 f8 cd 3d
       -0.0513289 -0.041422673 0.07398391 0.100571305
000080 7e 02 85 3d b7 25 d2 3d 12 b7 b9 3d bb 2b 38 3e
       0.06494616 0.102611 0.09068121 0.17985432
000090 1c 63 12 bb 65 1e 8d 3d 2c 5e b5 3d 8d 3f 31 bd
       -0.0022336906 0.06890563 0.088558525 -0.043273497
0000a0 bd 9e 06 3e ce ad b7 bd ff ee 3a bd 92 45 4c bd
       0.13146491 -0.089686975 -0.04563808 -0.049871035
0000b0 f5 db 62 bd 6c 3b cb bd b1 5d 78 3d a4 10 e4 3c
       -0.05538555 -0.09923443 0.060636226 0.027839966
0000c0 42 52 68 bd 87 8e 2a 3c 56 8a 05 3d e8 79 09 be
       -0.056719072 0.010409958 0.03260263 -0.1342541
0000d0 2c 51 90 3c 24 74 01 3e e1 11 a1 3d 9f a4 9e 3d
       0.01761683 0.1264196 0.07864738 0.07746243
0000e0 97 a4 df bc d1 00 00 bd 2d c1 ba 3d 4c a4 dd bc
       -0.027300162 -0.03125078 0.091188766 -0.027055882
0000f0 ea f0 2e 3e 3c bc 20 3d f4 29 b6 3d d1 ff b8 3d
       0.17084089 0.039242014 0.08894721 0.09033168
000100 73 5c 44 be 1e ba d1 3c d9 51 c3 3d ca 3f 37 bb
       -0.19175892 0.025601443 0.095370956 -0.0027961605
000110 52 8e 4f 3d d0 cb f0 3c a8 7f 97 bc c9 f7 d5 bc
       0.050672837 0.02939406 -0.018493488 -0.02611913
000120 21 18 47 bd a6 e7 2c 3d e0 9f 39 bd 54 f5 2c 3d
       -0.048606995 0.042213105 -0.045318484 0.04222615
000130 3b 71 be 3d f4 fc 41 bd ad c8 62 bd af 04 df bb
       0.09298941 -0.047360376 -0.05536716 -0.0068059782
000140 e8 f9 67 3d 06 4d 2f 3d cd a0 9e bd c6 0a 0d be
       0.056634814 0.042798065 -0.07745514 -0.13773641
000150 d2 d4 8e bd ba ee 82 3d 4c 43 b0 bd f8 4f 5a 3d
       -0.06974186 0.0639319 -0.08606586 0.05329892
000160 86 7a c5 bd 09 7a 81 3d a8 1e 05 bd b0 bd 50 3e
       -0.0964251 0.063221045 -0.03249994 0.2038486
000170 35 fb e6 bc cd 76 74 b9 29 e3 79 3b c5 c4 03 3e
       -0.028195957 -0.0002331391 0.0038129783 0.1286803
000180 76 d4 ca bd be 58 a7 bb fd 45 40 bd 0e 50 07 3e
       -0.09903805 -0.0051070144 -0.046941746 0.13214132
000190 8e b9 9e 3d 00 6e 01 3c ed 70 2a 3d 36 a6 ad 3d
       0.077502355 0.007899761 0.0416116 0.08478968
0001a0 3f 63 19 3d b7 2d 68 be 45 f7 88 3d 42 87 84 3d
       0.037448164 -0.22673689 0.06687788 0.06471111
0001b0 3f ad cb 3d f1 25 a1 bd 8e 99 04 3e 3f f9 e8 3d
       0.099451534 -0.07868565 0.12949201 0.11375665
0001c0 b4 4b 0d be fa d3 a4 3d ed 0d be 3d 32 31 fc bc
       -0.1379841 0.08048244 0.0928 -0.030785177
0001d0 0a 89 ca bc 2e 4f c7 bc cf 9a 3d bd a5 c4 51 bc
       -0.024723548 -0.024329748 -0.046290215 -0.012803231
0001e0 46 aa e5 3d 49 03 71 3d 8a 3a af bc d7 12 7b 3d
       0.11214118 0.058841024 -0.021390218 0.061297264
0001f0 58 63 10 be 15 0f 92 3d 27 e4 5b bd f2 dc 3b bd
       -0.14100397 0.07131783 -0.05368438 -0.045865007
000200 b8 6d cb 3c e1 c8 f1 3d 6e ed 92 bd e9 a4 2b 3c
       0.024832591 0.11805893 -0.07174192 0.010476329
000210 0b fb 03 bc a4 a3 79 3d d0 d2 3c 3e d8 5c 20 bd
       -0.008055459 0.060947075 0.18439794 -0.039151043
000220 b4 d9 54 bd 43 f8 de 3b 15 bc e8 3d d5 36 00 bd
       -0.05196543 0.0068044974 0.11363999 -0.031302292
000230 85 98 e2 3d fa fa 8f bd 34 31 9f bb fc 8b 10 3d
       0.11064247 -0.07030292 -0.0048581604 0.03528975
000240 93 76 f1 3d 9c 80 2d be 68 99 24 bd 62 97 56 3e
       0.11790194 -0.16943592 -0.040185362 0.20956185
000250 54 25 01 3d a8 7c 13 3e 0f 0a 5d 3d 0a 3b b5 3c
       0.03152974 0.14403021 0.05396467 0.022122879
000260 58 ff 30 3d 9e e0 a9 3c a2 12 3c bd 9d 2b 4a 3e
       0.043212265 0.020736989 -0.045916207 0.197432
000270 ab c2 2a 3e e4 db 1f 3e 73 26 de be 45 44 ed bd
       0.16675822 0.15611225 -0.4338871 -0.11585287
000280 b3 97 26 3e 38 60 0b be c3 2b c4 3c 22 92 ef bd
       0.16268806 -0.13610923 0.023946648 -0.116977945
000290 74 8c da 3d e4 88 b5 bd a5 51 46 be d1 22 ee bd
       0.106713206 -0.088640004 -0.19367082 -0.116277345
0002a0 11 66 f3 3c d3 06 af bc 1a e7 19 3e ee 3a 43 3e
       0.029711755 -0.021365559 0.15029564 0.19065449
0002b0 d7 e2 48 3d ff 0a 67 3d 15 db 54 bc bd 18 92 be
       0.049044456 0.05640697 -0.012991686 -0.285345
0002c0 5e ce 36 be ca 2d 37 be 24 a9 41 3d 56 f4 44 3d
       -0.1785216 -0.17888561 0.047280446 0.04808458
0002d0 7f 14 2a 3d a5 6d cb bb 52 2c 4d 3d 53 a7 40 3e
       0.041523453 -0.006208139 0.050091095 0.18813829
0002e0 c7 5c 7c 3d 49 2c 65 bd 99 79 37 3e a1 ef 27 3d
       0.061611917 -0.055950437 0.1791748 0.041000012
0002f0 e3 5c 80 bc 55 28 0f 3d 51 1e 24 bd ee 38 40 3e
       -0.015669292 0.034950573 -0.040067974 0.18771717
000300 24 47 09 3d df c7 1d 3d 51 df 0a 3c ce 94 8c bd
       0.03351511 0.03852069 0.008476094 -0.0686432
000310 be 2e 22 bd 00 5e 15 3e 51 57 95 bd 20 48 6d be
       -0.039595358 0.1458664 -0.07292045 -0.23172045
000320 0e 62 8c bd 54 db 8b bd 66 5d 65 3d 07 a4 c5 bd
       -0.0685464 -0.06828943 0.055997275 -0.09650426
000330 7b 23 12 3e 3b e3 3f 3e 1a b7 8b 3c df e3 b8 bd
       0.14271347 0.18739025 0.017055083 -0.09027838
000340 b0 20 a7 be cc e0 74 bd 81 fe d8 3d 5d 86 9a 3d
       -0.32642126 -0.059784696 0.10595418 0.07545159
000350 b8 1d b8 3c 5c 15 74 3e 14 e1 bd bd af 3d 5d 3e
       0.022475109 0.23836273 -0.09271446 0.21605562
000360 0c 0c 27 3d 52 f2 b4 3d 4e 45 16 3e 9e d5 02 be
       0.040782973 0.088352814 0.14674875 -0.12776801
000370 97 e6 ca 3d 7a 90 bb bd 9a 9e 9a 3d 38 19 e7 bd
       0.09907263 -0.09158416 0.07549782 -0.11284107
000380 29 5a b8 3c 44 3a 80 3d 0b 4c dd 3c 99 0b 33 3e
       0.02250393 0.06261113 0.0270138 0.17484893
000390 37 0e 1f 3c 17 bd a9 3d 63 2c 03 3e 03 99 02 3e
       0.009707979 0.08288019 0.12809901 0.12753682
0003a0 af 57 ea bd 54 a4 22 be a8 fb 88 3c fa 7b 47 3e
       -0.114425056 -0.15882999 0.016721562 0.19480887
0003b0 b4 f4 0c 3e 0f 5b 94 3d 2e ea ba 3d 9b 14 96 3c
       0.13765222 0.072439305 0.091266975 0.018320372
0003c0 76 d4 7e 3d 58 62 09 bd 28 8b cb 3d 9a 9c c2 bd
       0.062214337 -0.033541054 0.09938651 -0.09502526
0003d0 6e c8 0b be 50 a5 6a 3d 68 91 77 be c1 6c b6 bd
       -0.13650677 0.05728656 -0.24176562 -0.08907462
0003e0 76 36 09 3d d5 b1 10 bd f4 30 d0 bc fb 01 1b be
       0.033499204 -0.035325844 -0.025413968 -0.15137474
0003f0 ee 98 b7 3d 71 9a fc bd 11 08 b2 3d be 46 3f 3d
       0.08964716 -0.12334145 0.08692945 0.046698324

fc_out.bias f4 [2]
000000 33 e8 5b bd 43 06 8c 3c
       -0.05368824 0.01709283
