agent2_checkpoint_actor.pth (torch_old, 142826 bytes, 6 tensors)

fc1.weight f4 [200, 24]
-0.042879976 0.017314814 -0.05219005 0.15402836 -0.102051936 0.124402076 0.006724791 0.060578726
-0.048702806 0.024756107 -0.023653148 0.07876953 -0.10578115 0.0032959292 -0.009321029 0.10340533
-0.091167785 0.07187923 -0.086169064 0.046357825 -0.024317516 -0.18833457 0.0048943823 -0.030339269
0.0031007922 0.05030112 -0.040539995 0.10740802 -0.09236468 0.09178683 0.022716694 0.08688676
0.025607727 0.06390444 -0.029764093 0.042702734 -0.03361773 0.11563784 -0.03505754 -0.010444773
-0.016115129 0.04175603 -0.034061793 -0.04782598 0.011435676 0.20584574 -0.06409793 -0.06823571
0.011320007 0.13621765 0.07955713 -0.07241955 0.04084547 0.046002768 0.092091106 -0.06893828
-0.07376529 0.19242789 -0.03251367 -0.012024201 0.13947806 0.06367375 -0.046547335 -0.101738885
-0.0040731747 0.16237198 -0.07605183 0.0070456704 0.12523687 -0.1290907 0.037928198 0.041885044
-0.066887006 0.000756723 0.007559689 -0.094871424 -0.03418793 0.025920615 0.0012157947 0.030894157
-0.112651 0.064166695 -0.06486434 0.038901906 -0.029417858 -0.077458404 -0.08908453 -0.012150464
-0.058742825 0.01765535 -0.021632629 0.011171411 -0.049396142 -0.1274263 -0.09127059 -0.059136264
-0.014075016 0.052522864 -0.080411576 -0.05309364 -0.08577263 0.037056964 0.0006882368 0.04249431
-0.028008584 0.022610458 0.022783777 0.014653917 0.100703254 0.028779529 -0.043839667 -0.013120035
-0.10281233 0.032841403 -0.008314088 -0.04045257 0.17905457 0.12438891 0.043817647 0.055771112
0.0051021916 -0.119337775 0.029892752 0.053218104 0.23141706 0.05689654 0.0022716406 -0.038202226
0.055957314 -0.028954603 -0.052098308 -0.028541228 0.16645662 0.10399834 -0.06681345 0.08824382
0.01878731 -0.034258395 0.05354415 0.09808973 0.09549227 0.058586277 -0.046978436 0.09014136
0.08608405 -0.08690413 0.11402076 0.04945104 -0.17409308 -0.21317926 0.0011301108 0.07387758
0.10461812 -0.0492734 0.06695595 0.043402787 -0.13152635 -0.10329673 -0.010889221 0.07821859
-0.01118723 0.00457696 0.030430518 0.2123587 -0.045325212 -0.044023484 0.09098355 0.14575702
0.024289442 -0.04975425 0.054154005 0.07428173 -0.08081599 0.07494992 -0.05329709 0.12370182
-0.10936493 -0.0073480397 0.0419265 -0.0044078375 0.019117601 0.12648305 0.07724911 0.093064114
-0.038655214 0.050660543 0.059984785 0.07794233 0.11675607 0.0726903 -0.06522658 -0.027393928
0.0030091782 -0.22157745 -0.00012354605 0.12544857 0.08014456 0.15706499 0.008574969 0.029974354
-0.06297711 -0.1274306 -0.037823007 0.08695463 -0.05494982 0.1380914 0.012414141 0.14084092
-0.024322515 -0.08640896 -0.004076552 0.072848864 -0.09379416 0.15429777 0.054366063 -0.0030980762
-0.09712705 -0.10896414 -0.04181097 0.097515106 -0.08785024 0.08482905 -0.00019594772 0.07748391
0.038689528 0.006184612 0.03928827 0.040524352 -0.014884822 0.08007344 -0.076389834 0.041825358
0.028856765 -0.042170342 -0.034832858 0.012238495 0.12143948 0.0994264 -0.09925481 -0.04393203
0.008777044 -0.105555885 -0.09104275 0.07408303 -0.030874766 -0.024490582 -0.08662286 0.103342846
-0.04834621 -0.104577936 0.07714429 0.18090266 -0.028143909 -0.054364923 -0.04320055 0.08736837
00000000: eaa2 2fbd ccd7 8d3c 3cc5 55bd 9cb9 1d3e
00000010: 9b00 d1bd 84c6 fe3d a35b dc3b 6621 783d
00000020: 987c 47bd 52cd ca3c 3fc4 c1bc eb51 a13d
00000030: caa3 d8bd 8400 583b 3bb7 18bc 2cc6 d33d
00000040: 2db6 babd 6b35 933d 6879 b0bd b4e1 3d3d
00000050: 8735 c7bc c7da 40be 0e61 a03b 0f8a f8bc
00000060: a936 4b3b 8c08 4e3d 440d 26bd bcf8 db3d
00000070: b129 bdbd bcfa bb3d 5c18 ba3c b0f1 b13d
00000080: 4cc7 d13c 55e0 823d d4d3 f3bc 10e9 2e3d
00000090: bfb2 09bd 88d3 ec3d 7f98 0fbd 8e20 2bbc
000000a0: e003 84bc 5f08 2b3d 6184 0bbd 2de5 43bd
000000b0: b45c 3b3c 3ac9 523e c745 83bd 2abf 8bbd
000000c0: 8d77 393c a47c 0b3e d9ee a23d b350 94bd
000000d0: 944d 273d 666d 3c3d 439a bc3d 832f 8dbd
000000e0: 4212 97bd d10b 453e 0e2d 05bd 2801 45bc
000000f0: 56d3 0e3e 6267 823d 6ba8 3ebd 7a5c d0bd
00000100: 4478 85bb d744 263e 10c1 9bbd 5edf e63b
00000110: 183e 003e 5a30 04be 995a 1b3d a78f 2b3d
00000120: 0efc 88bd d25e 463a 45b7 f73b f34b c2bd
00000130: a508 0cbd 7857 d43c 4d5b 9f3a be15 fd3c
00000140: 91b5 e6bd d469 833d 98d7 84bd 9b57 1f3d
00000150: b8fd f0bc 83a2 9ebd f371 b6bd bd12 47bc
00000160: 519c 70bd f4a1 903c e936 b1bc 4b08 373c
00000170: 9c53 4abd 0a7c 02be 13ec babd de38 72bd
00000180: e59a 66bc 3722 573d d3ae a4bd b778 59bd
00000190: 90a9 afbd 0bc9 173d ca6a 343a 830e 2e3d
000001a0: 4272 e5bc 9139 b93c 0ba5 ba3c fc16 703c
000001b0: 823d ce3d 0cc3 eb3c 3991 33bd 6af5 56bc
000001c0: 458f d2bd b584 063d d037 08bc 98b1 25bd
000001d0: 155a 373e 9dbf fe3d 227a 333d 4070 643d
000001e0: 4930 a73b 5d67 f4bd a5e1 f43c 3afb 593d
000001f0: 98f8 6c3e 590c 693d cedf 143b f079 1cbd
00000200: 7f33 653d 3432 edbc 0965 55bd 4bcf e9bc
00000210: 9b73 2a3e 15fd d43d 7dd5 88bd 2db9 b43d
00000220: d8e7 993c 8852 0cbd 1c51 5b3d 45e3 c83d
00000230: 7491 c33d 2af8 6f3d 766c 40bd 099c b83d
00000240: d64c b03d cbfa b1bd b783 e93d 2c8d 4a3d
00000250: 7545 32be aa4b 5abe 3a20 943a 214d 973d
00000260: 0642 d63d e8d2 49bd 3320 893d 1fc7 313d
00000270: d8ae 06be 3c8d d3bd b468 32bc 1131 a03d
00000280: a54a 37bc 53fa 953b 6c49 f93c 8f74 593e
00000290: eea6 39bd f851 34bd 9555 ba3d 5441 153e
000002a0: a7fa c63c 1dcb 4bbd 97d0 5d3d 0521 983d
000002b0: db82 a5bd 587f 993d 0d4e 5abd 6157 fd3d
000002c0: b8fa dfbd d3c7 f0bb 1fbb 2b3d 9f6f 90bb
000002d0: 849c 9c3c c684 013e c834 9e3d 6698 be3d
000002e0: ee54 1ebd 6e81 4f3d 9bb2 753d 3aa0 9f3d
000002f0: ce1d ef3d a7de 943d 8395 85bd 3b69 e0bc
00000300: a235 453b 33e5 62be 248c 01b9 9775 003e
00000310: d522 a43d a5d5 203e 077e 0c3c c78c f53c
00000320: 25fa 80bd 2b7d 02be 4cec 1abd 4515 b23d
00000330: 1013 61bd d567 0d3e ae64 4b3c 9a38 103e
00000340: 0340 c7bc 2ef7 b0bd 9994 85bb c931 953d
00000350: 2717 c0bd 3c00 1e3e f3ae 5e3d 1809 4bbb
00000360: 8cea c6bd 9728 dfbd fb41 2bbd 00b6 c73d
00000370: d4ea b3bd daba ad3d 5177 4db9 e2af 9e3d
00000380: e978 1e3d 49a8 ca3b bdec 203d ddfc 253d
00000390: 78df 73bc 8bfd a33d 4672 9cbd 1151 2b3d
000003a0: 0665 ec3c cfba 2cbd e6ac 0ebd f883 483c
000003b0: 43b5 f83d 12a0 cb3d 1b46 cbbd 13f2 33bd
000003c0: 97cd 0f3c af2d d8bd 9f74 babd d8b8 973d
000003d0: 14ed fcbc 79a0 c8bc 5367 b1bd 6aa5 d33d
000003e0: ad06 46bd f52c d6bd d3fd 9d3d 8c3e 393e
000003f0: 0e8e e6bc c1ad 5ebd 0ff3 30bd 30ee b23d

fc1.bias f4 [200]
0.2560206 0.04894495 0.111804634 -0.034475707 -0.15251802 -0.10301462 0.030956812 -0.08708751
0.17324638 -0.15904735 -0.0644864 -0.07385177 0.24124078 0.01276914 0.20358348 0.11245025
0.023675982 0.11345855 0.121623136 -0.12967692 -0.0238901 0.11476011 0.14619978 -0.06905692
-0.070740096 0.10891251 0.14438201 -0.0030208183 -0.083859764 -0.17196375 -0.0014751712 0.054097928
0.0070745163 -0.11518195 0.02158066 0.24681586 -0.16906287 -0.13950652 0.17402846 0.26573756
-0.19938521 -0.10639722 0.010141449 0.25064516 -0.075443834 0.028008131 0.2178593 -0.09450631
-0.055993203 -0.10355447 0.00802377 0.20448126 0.18812199 0.20248605 -0.0072385347 -0.029703781
-0.022723556 0.13876905 -0.0663344 -0.11676156 -0.08265928 0.10317702 0.24067476 -0.025105983
-0.18806165 -0.116500095 -0.14758298 0.108675145 0.14461981 0.06708167 0.10049216 0.13563503
0.1398341 0.19960001 0.14476565 0.04786197 0.08706368 -0.012385405 -0.15486805 0.08506481
0.111569636 -0.10473824 -0.13000868 -0.11691995 0.1970404 0.06975181 -0.09595424 0.07875724
-0.033806764 0.2243825 -0.068990774 -0.13341333 -0.11497607 0.17609443 -0.038316272 0.16761805
0.10827495 -0.10690153 -0.025173103 -0.029486194 0.0976152 -0.14241771 0.034910385 0.04565581
-0.120611794 -0.108774826 -0.1101071 0.16686189 0.058025755 -0.015253304 -0.12098673 -0.21290722
-0.040327556 -0.15616907 -0.15958932 -0.16305028 -0.14593115 -0.16863805 0.012074663 0.084034815
0.20434536 -0.14311503 0.16656223 0.018623274 0.12836422 -0.13192406 0.1013783 -0.22883892
0.02868867 0.18655342 0.10586827 -0.1524327 -0.007044454 0.053481586 0.16640821 -0.07636897
0.10287904 -0.023005776 -0.050677907 0.028092781 -0.15615836 -0.07738356 0.122555494 0.19607133
-0.0067270678 0.19008696 0.16864644 -0.1899481 -0.02606176 -0.23807621 0.11266369 0.043320384
-0.024794403 0.15919837 -0.047410857 -0.18991761 -0.120476335 -0.025884708 0.27095622 -0.13799994
0.00470782 0.1270563 -0.16096361 -0.10590034 0.10943972 -0.068803355 -0.062621616 0.024950413
-0.014108454 0.052344643 0.076422535 -0.14095815 0.17590477 -0.27612597 0.13230735 -0.07193056
-0.056033753 0.18847601 -0.26223612 0.0761583 0.16616681 0.19859876 -0.15914343 0.03392886
0.2705639 -0.1892085 0.081384666 -0.09451387 0.047005232 -0.17377411 0.12264189 -0.05985204
0.091867104 -0.008773892 0.0071323942 -0.07183022 -0.176562 -0.1289051 -0.03893894 -0.15288855
00000000: 2215 833e 807a 483d d4f9 e43d 6636 0dbd
00000010: af2d 1cbe 54f9 d2bd 2499 fd3c f05a b2bd
00000020: 8067 313e 4fdd 22be 7211 84bd 993f 97bd
00000030: d307 773e a835 513c 3078 503e 514c e63d
00000040: 22f4 c13c f55c e83d 8d15 f93d 07ca 04be
00000050: 2cb5 c3bc 5907 eb3d 65b5 153e b76d 8dbd
00000060: 2fe0 90bd 860d df3d e1d8 133e ecf8 45bb
00000070: abbe abbd 4417 30be 885a c1ba ca95 5d3d
00000080: 58d1 e73b 84e4 ebbd edc9 b03c 4cbd 7c3e
00000090: d11e 2dbe ccda 0ebe 8434 323e c10e 883e
000000a0: a32b 4cbe c9e6 d9bd 5228 263c 9054 803e
000000b0: 4c82 9abd 4f71 e53c 8216 5f3e 868c c1bd
000000c0: 2159 65bd 5e14 d4bd 2176 033c 8963 513e
000000d0: 0da3 403e 8158 4f3e 3b31 edbb 5855 f3bc
000000e0: c026 babc 7919 0e3e 54da 87bd af20 efbd
000000f0: 4549 a9bd 794e d33d 7273 763e 10ab cdbc
00000100: 3c93 40be 9a97 eebd fe1f 17be 1391 de3d
00000110: 3717 143e 1d62 893d d5ce cd3d e9e3 0a3e
00000120: ac30 0f3e f263 4c3e 723d 143e ea0a 443d
00000130: 714e b23d 27ec 4abc bb95 1ebe 7636 ae3d
00000140: 9f7e e43d 0181 d6bd ff20 05be ba73 efbd
00000150: f5c4 493e 09da 8e3d a883 c4bd 7a4b a13d
00000160: f678 0abd 87c4 653e 094b 8dbd 819d 08be
00000170: 9378 ebbd 1952 343e 86f1 1cbd 11a4 2b3e
00000180: 42bf dd3d 30ef dabd d337 cebc 088d f1bc
00000190: 7aea c73d f3d5 11be 31fe 0e3d 9601 3b3d
000001a0: 5103 f7bd 56c5 debd d57f e1bd d8dd 2a3e
000001b0: 6aac 6d3d fee8 79bc e4c7 f7bd 5a04 5abe
000001c0: 822e 25bd c9ea 1fbe 626b 23be a7f6 26be
000001d0: fa6e 15be 74af 2cbe cfd4 453c 721a ac3d
000001e0: e93f 513e bf8c 12be 4a8f 2a3e d68f 983c
000001f0: e971 033e 1a17 07be 6d9f cf3d c054 6abe
00000200: 8004 eb3c dc07 3f3e 77d1 d83d 5117 1cbe
00000210: 2ad5 e6bb 820f 5b3d ea66 2a3e 5667 9cbd
00000220: 3fb2 d23d 9c76 bcbc a393 4fbd d522 e63c
00000230: fae7 1fbe 467b 9ebd 60fe fa3d ecc6 483e
00000240: bc6e dcbb 28a6 423e a7b1 2c3e c181 42be
00000250: 797f d5bc 40ca 73be 38bc e63d b770 313d
00000260: a21d cbbc e604 233e e331 42bd c379 42be
00000270: 4cbc f6bd 2b0c d4bc c6ba 8a3e db4f 0dbe
00000280: 0e44 9a3b 0c1b 023e a5d3 24be 47e2 d8bd
00000290: ef21 e03d c6e8 8cbd c33f 80bd cf64 cc3c
000002a0: 2527 67bc 5667 563d 6b83 9c3d 5557 10be
000002b0: 6120 343e 6260 8dbe 947b 073e 5450 93bd
000002c0: a683 65bd dbff 403e d043 86be e2f8 9b3d
000002d0: a227 2a3e 795d 4b3e 7ff6 22be fdf8 0a3d
000002e0: 5a87 8a3e dfbf 41be 01ad a63d 7d90 c1bd
000002f0: 8f88 403d d7f1 31be ac2b fb3d 6a27 75bd
00000300: d224 bc3d 5fc0 0fbc dcb6 e93b b91b 93bd
00000310: abcc 34be b3ff 03be 707e 1fbd d18e 1cbe

fc2.weight f4 [150, 200]
0.11738049 0.049623247 0.08306715 0.100515716 0.14208214 -0.2250322 -0.040085323 -0.017391656
-0.08879411 0.08889598 -0.09506286 -0.023760518 -0.18607913 -0.057340965 0.10440666 -0.11093317
-0.008661952 0.0994215 0.10773772 -0.0472085 0.09059791 -0.02018278 -0.110977985 0.13501804
-0.1262401 0.16276167 0.14638679 0.061320875 -0.108296216 -0.07785787 -0.09336198 0.013041502
-0.0010415727 -0.2211985 0.022355374 0.10254488 0.13061403 -0.014420745 -0.08569622 -0.11805024
-0.05715746 -0.07651661 0.06452233 -0.10313378 0.031036228 -0.045556575 0.07054387 -0.0054867887
-0.1188013 -0.0151070105 -0.023297917 0.09015469 -0.16281903 0.05517028 0.10668969 -0.08502837
-0.07066378 0.023939077 0.12831627 0.15622246 -0.016960926 0.03198973 -0.199085 -0.08838159
0.021987235 0.075405575 0.06472579 0.01501214 -0.11226869 0.04857986 -0.08739187 -0.093202695
0.06822006 0.0010223563 0.10432661 -0.15882869 0.017816426 -0.12796448 -0.111626655 0.09285118
-0.11768969 -0.11957676 -0.1354614 -0.01065015 0.058226943 0.037211347 0.032015044 0.12484695
-0.023403045 -0.16881342 -0.11842123 0.031350393 0.059495687 0.08003188 0.004491242 0.058313
-0.19674826 0.026113302 0.05500032 -0.04828095 0.10303432 0.06297363 0.083369724 0.10561231
-0.03787142 -0.08664456 0.12756948 -0.17436807 0.026331237 -0.01390365 -0.09443163 0.0071317144
0.0923351 -0.0062442245 0.03932735 -0.013895742 0.060077023 0.06044813 0.027466595 0.048087455
-0.14758381 -0.10376156 0.075057894 -0.022462327 0.053454958 -0.060477067 -0.017864643 -0.11967434
-0.025914418 -0.031673703 -0.13498935 -0.14738877 -0.023494506 -0.08062589 -0.033478677 0.053806644
0.061387405 -0.085560314 0.1680337 0.05705664 -0.09590461 0.079293065 0.09356901 0.052640133
0.13366432 0.0765961 0.20314541 0.057022557 -0.09850999 0.029448869 0.03903643 0.017429994
-0.079908304 -0.13294935 0.027668301 -0.036766797 0.06999075 0.05298994 0.016051859 -0.041032158
0.015910944 0.023927005 0.03443388 0.07832103 -0.03183774 0.13662538 -0.066243686 -0.020959932
0.046767868 -0.049602844 0.10363001 -0.026055733 0.07927756 0.080273345 0.040497646 0.16159791
0.04009936 -0.032033 -0.08099794 -0.13251607 0.13638571 -0.014102395 -0.038856152 -0.12194752
0.007252093 0.08871004 -0.13673297 0.045627154 -0.06766905 0.013144552 -0.07383716 -0.09234295
0.023427699 0.018760426 0.03981408 0.15049079 -0.0012891456 0.054422688 0.004103943 -0.116207354
-0.032914903 0.09046351 -0.075947545 -0.09701271 0.08785466 -0.04050208 -0.17839055 0.06537985
0.07044162 0.020928793 0.02731011 -0.05408046 0.09950233 -0.0021345024 0.015298815 0.13656852
0.038797796 -0.06315897 0.06876753 0.08131381 -0.007729504 0.027338754 -0.028576287 0.04739113
-0.12532544 -0.091049135 -0.060155813 0.038243067 0.011150354 0.06693421 0.04456863 -0.007230014
0.002977357 -0.034569565 -0.08176958 0.07682566 0.2372756 0.0058501083 0.07500847 -0.020005697
0.11232707 -0.01364648 0.05032681 0.019565446 -0.07883436 0.0030107328 -0.038403545 -0.02409947
0.022874398 -0.029661618 0.008078889 -0.055235267 -0.041955978 0.12249985 0.015470383 0.12132589
00000000: 2f65 f03d bf41 4b3d 1c1f aa3d 2fdb cd3d
00000010: fb7d 113e d76e 66be 8230 24bd f278 8ebc
00000020: b0d9 b5bd 180f b63d 51b0 c2bd 6ba5 c2bc
00000030: 878b 3ebe 5cde 6abd 29d3 d53d ee30 e3bd
00000040: dcea 0dbc 809d cb3d 98a5 dc3d b35d 41bd
00000050: 668b b93d 5c56 a5bc 6d48 e3bd 2b42 0a3e
00000060: 1645 01be ffaa 263e 6be6 153e 992b 7b3d
00000070: 68ca ddbd f273 9fbd 9134 bfbd 06ac 553c
00000080: 6185 88ba dc81 62be 9e22 b73c 0d03 d23d
00000090: afbf 053e fd44 6cbc 8081 afbd 53c4 f1bd
000000a0: f11d 6abd beb4 9cbd 4924 843d ce37 d3bd
000000b0: b03f fe3c 8899 3abd 4e79 903d 85ca b3bb
000000c0: 194e f3bd 6583 77bc 46db bebc 06a3 b83d
000000d0: 08ba 26be 3bfa 613d 2080 da3d 5b23 aebd
000000e0: 2cb8 90bd e21b c43c 5765 033e c8f8 1f3e
000000f0: a4f1 8abc aa07 033d f0dc 4bbe 6801 b5bd
00000100: 931e b43c 3d6e 9a3d f48e 843d 7bf5 753c
00000110: 20ed e5bd adfb 463d 82fa b2bd 0ee1 bebd
00000120: f5b6 8b3d 9600 863a 31a9 d53d fda3 22be
00000130: c1f3 913c 1f09 03be 849c e4bd c228 be3d
00000140: 4b07 f1bd a9e4 f4bd 65b6 0abe f77d 2ebc
00000150: 607f 6e3d ed6a 183d 3522 033d c2af ff3d
00000160: beb7 bfbc 6ddd 2cbe d486 f2bd 4569 003d
00000170: c0b1 733d c1e7 a33d 452b 933b 9dd9 6e3d
00000180: 6078 49be 90eb d53c 0448 613d 3fc2 45bd
00000190: a803 d33d 52f8 803d bfbd aa3d 444b d83d
000001a0: 101f 1bbd b472 b1bd 93a1 023e 8b8d 32be
000001b0: 9bb4 d73c 23cc 63bc 5f65 c1bd 28b1 e93b
000001c0: 2f1a bd3d 5a9c ccbb b715 213d f7aa 63bc
000001d0: 5313 763d 7598 773d a001 e13c 5af7 443d
000001e0: 3620 17be f180 d4bd f4b7 993d ea02 b8bc
000001f0: 96f3 5a3d cdb6 77bd df58 92bc d217 f5bd
00000200: 794a d4bc 49bc 01bd a63a 0abe 15ed 16be
00000210: 8d77 c0bc 301f a5bd f020 09bd 5b64 5c3d
00000220: 5c71 7b3d 3f3a afbd 0711 2c3e 39b4 693d
00000230: a369 c4bd 6764 a23d 1ca1 bf3d 2e9d 573d
00000240: 4ddf 083e 6bde 9c3d 5a05 503e 7c90 693d
00000250: 9bbf c9bd c13e f13c aae4 1f3d 59c9 8e3c
00000260: f7a6 a3bd e023 08be a2a8 e23c c898 16bd
00000270: 4f57 8f3d fb0b 593d 307f 833c 5611 28bd
00000280: ab57 823c 9102 c43c 8a0a 0d3d c766 a03d
00000290: 4a68 02bd 86e7 0b3e c5aa 87bd 2ab4 abbc
000002a0: aa8f 3f3d 5a2c 4bbd f83b d43d d572 d5bc
000002b0: 465c a23d 5a66 a43d dce0 253d ec79 253e
000002c0: 3a3f 243d 0935 03bd 3fe2 a5bd 4bb2 07be
000002d0: b2a8 0b3e bb0d 67bc a127 1fbd 9fbf f9bd
000002e0: f7a2 ed3b 9cad b53d ba03 0cbe 8ae3 3a3d
000002f0: 1296 8abd 3f5c 573c f037 97bd 4d1e bdbd
00000300: 72eb bf3c 77af 993c 1714 233d 421a 1a3e
00000310: 8cf8 a8ba 53ea 5e3d 5e7a 863b 1ffe edbd
00000320: c7d1 06bd ef44 b93d 638a 9bbd 9aae c6bd
00000330: 25ed b33d 82e5 25bd 03ac 36be dfe5 853d
00000340: b243 903d dc72 ab3c 74b9 df3c 7983 5dbd
00000350: e1c7 cb3d 02e3 0bbb e2a7 7a3c 9ed8 0b3e
00000360: 70ea 1e3d 7d59 81bd fed5 8c3d db87 a63d
00000370: c747 fdbb 86f5 df3c d118 eabc 341d 423d
00000380: 5055 00be f877 babd f165 76bd c3a4 1c3d
00000390: f9af 363c ce14 893d 998d 363d c1e9 ecbb
000003a0: c31f 433b d198 0dbd cf76 a7bd c656 9d3d
000003b0: 60f8 723e 44b2 bf3b 0a9e 993d fde2 a3bc
000003c0: bc0b e63d 7c95 5fbc 7c23 4e3d b747 a03c
000003d0: e973 a1bd b74f 453b 094d 1dbd 406c c5bc
000003e0: 1763 bb3c ecfc f2bc 515d 043c 603e 62bd
000003f0: 08da 2bbd 34e1 fa3d 7d77 7d3c b579 f83d

fc2.bias f4 [150]
-0.027856506 0.025226558 0.055837087 -0.01876542 0.071802035 -0.039635178 0.04159777 0.048861727
-0.08666161 0.0010062292 0.04890374 -0.09298812 0.06445426 -0.03494314 0.023109628 -0.06784801
0.039988376 -0.025806693 -0.034061033 0.01640945 0.0031048944 -0.0019416577 -0.035757586 0.038105283
0.07812111 -0.0012030292 0.014530083 0.004136668 0.081043325 0.0470909 -0.07121577 0.051683687
-0.062040724 -0.052724186 -0.0035158459 0.018483797 0.032874834 -0.018313773 -0.03335203 -0.047696054
0.07298388 0.011787303 -0.025329625 -0.06036596 -0.047447134 0.051153705 0.07020921 -0.019159747
0.019094866 0.0009670545 -0.0807403 -0.09607615 -0.042790376 0.0223046 0.0033442178 0.0007338792
0.049985997 0.012337758 0.045566045 -0.06838469 0.021444364 0.04224748 -0.014938037 -0.005650035
-0.08456147 0.082911946 0.010188997 0.00017862939 -0.03811444 0.060655177 0.0588513 0.09141744
0.054483857 0.048669413 -0.047912374 0.0011963284 -0.016935926 0.07543989 -0.052683674 0.033939283
0.013369769 -0.10090871 -0.033060882 -0.061466783 0.010006679 0.06276707 0.024685755 0.026710786
0.012411268 -0.05778099 -0.016149271 -0.031516116 -0.040097445 -0.021282842 -0.022174349 0.048003577
-0.06267305 -0.06688977 -0.014548544 -0.012341366 0.12462708 -0.05347492 0.058032047 0.06293525
0.049975973 -0.04850801 -0.049185902 -0.004003458 -0.06826093 0.032161705 -0.0056021675 0.011234219
-0.021612337 0.037125535 0.036663946 0.020182755 0.002419645 -0.08382467 -0.0466923 0.038069885
0.0018688431 0.0051679965 -0.06403577 0.010130406 -0.033156548 0.1202595 -0.047259215 -0.01741836
-0.016954586 -0.036834892 0.0061256527 -0.009094658 0.053265173 -0.038831223 0.01650909 -0.006519973
0.0569313 0.06212539 0.051754028 -0.00527822 0.023247415 0.0014385205 -0.011257726 -0.04992889
-0.07147209 0.049113214 0.06734683 -0.025843654 0.028111069 -0.055233613
00000000: 5433 e4bc eda7 ce3c 6eb5 643d f0b9 99bc
00000010: f20c 933d 7f58 22bd 6c62 2a3d 3c23 483d
00000020: a47b b1bd 73e3 833a 4a4f 483d 8e70 bebd
00000030: 9800 843d 8a20 0fbd 6750 bd3c e6f3 8abd
00000040: daca 233d 8f68 d3bc 9583 0bbd 1c6d 863c
00000050: 7c7b 4b3b 397f feba 8c76 12bd 4914 1c3d
00000060: f6fd 9f3d f6ae 9dba 960f 6e3c e38c 873b
00000070: 0bfa a53d 63e2 403d 93d9 91bd 46b2 533d
00000080: 6a1e 7ebd 51f5 57bd 1b6a 66bb 556b 973c
00000090: c3a7 063d c406 96bc 239c 08bd f05c 43bd
000000a0: 9378 953d 881f 413c 1380 cfbc 4c42 77bd
000000b0: ed57 42bd 8c86 513d d9c9 8f3d e7f4 9cbc
000000c0: d66c 9c3c ee81 7d3a 2c5b a5bd 93c3 c4bd
000000d0: f644 2fbd 23b8 b63c aa2a 5b3b cd61 403a
000000e0: 1ebe 4c3d 4f24 4a3c 76a3 3a3d 460d 8cbd
000000f0: 17ac af3c b20b 2d3d abbe 74bc ee23 b9bb
00000100: 902e adbd bdcd a93d c0ef 263c 764e 3b39
00000110: e31d 1cbd 9071 783d 100e 713d 1139 bb3d
00000120: 772a 5f3d 9459 473d c43f 44bd 1fce 9c3a
00000130: 36bd 8abc 3b80 9a3d d6ca 57bd eb03 0b3d
00000140: e00c 5b3c 3aa9 cebd d96a 07bd 98c4 7bbd
00000150: 0ef3 233c 068c 803d c839 ca3c 94d0 da3c
00000160: a258 4b3c c2ab 6cbd 7a4b 84bc 0b17 01bd
00000170: 383d 24bd 5b59 aebc fba6 b5bc 669f 443d
00000180: ba5a 80bd 81fd 88bd 045d 6ebc 7133 4abc
00000190: 7c3c ff3d 8508 5bbd 03b3 6d3d 32e4 803d
000001a0: 9bb3 4c3d 56b0 46bd 2877 49bd 712f 83bb
000001b0: 63cc 8bbd febb 033d 6392 b7bb bb0f 383c
000001c0: 5b0c b1bc f210 183d ef2c 163d 4e56 a53c
000001d0: e892 1e3b 45ac abbd 6d40 3fbd 2bef 1b3d
000001e0: f8f3 f43a 4c58 a93b 3025 83bd 01fa 253c
000001f0: 29cf 07bd 9d4a f63d e192 41bd f3b0 8ebc
00000200: 58e4 8abc 2fe0 16bd b3b9 c83b c301 15bc
00000210: 952c 5a3d 7d0d 1fbd 123e 873c 7fa5 d5bb
00000220: cb30 693d 3177 7e3d 08fc 533d ebf4 acbb
00000230: 5d71 be3c bd8c bc3a 5372 38bc 3c82 4cbd
00000240: f65f 92bd f02a 493d 23ed 893d 12b6 d3bc
00000250: 2f49 e63c a43c 62bd

fc_out.weight f4 [2, 150]
0.12567854 -0.10826585 0.09407379 0.054002613 0.044279914 0.08235157 0.061228972 -0.07624212
-0.1355017 -0.030460166 -0.095076114 0.09213347 0.07987884 -0.042567275 -0.12851398 0.1263975
0.0049153157 -0.02843038 -0.06495625 -0.13247837 0.06080052 0.048332814 0.21406686 -0.2119892
0.05383121 0.14733398 -0.0004893309 -0.028575204 0.050199777 0.052428044 -0.10562422 -0.007798909
-0.17515732 0.06939059 -0.038537387 0.0015303575 0.04678708 0.022533864 -0.103995085 -0.045046564
0.05221013 -0.0077078445 0.05428793 0.07453376 -0.10361693 -0.19590047 0.006240369 0.08356927
-0.15901326 -0.0666425 -0.16958754 -0.15290691 -0.09964532 -0.11537133 -0.17875764 0.05150405
0.08368815 -0.16346246 -0.10076357 -0.082920946 -0.16847779 -0.09803181 -0.17307791 -0.37554955
-0.11739303 0.06567413 -0.12125476 0.045678116 0.009600258 -0.03297405 -0.11857318 0.0145342
0.07567527 0.032987766 -0.07840451 -0.13346311 0.054337017 0.046120126 -0.09673879 -0.13773696
-0.076824084 0.26091036 0.039247077 -0.20313576 -0.040590018 0.07476205 0.03728279 -0.15659235
0.06633758 -0.06952823 0.07391919 -0.13158216 -0.033344686 -0.06088111 -0.06381037 0.09001364
-2.486835e-05 -0.04349646 0.007979864 -0.0063702464 -0.21273172 -0.08761817 0.061483126 0.09332907
0.05766563 -0.13057472 -0.015151028 0.14703211 -0.1884629 0.033626832 0.1747342 0.055375665
-0.112807594 -0.0060388986 -0.10977103 0.08738832 -0.095602036 0.19360341 -0.1616775 -0.22104701
-0.13214323 -0.12394928 -0.17422816 0.09842654 -0.10374716 -0.18325229 -0.0996063 0.021348821
-0.09796034 0.13157389 -0.07765774 -0.12607452 -0.0076533216 -0.01767113 0.05564541 -0.16083333
0.09039971 -0.05957854 0.07318853 -0.21682532 -0.09619303 -0.17121197 0.03726371 -0.053753972
-0.21329269 0.00055973977 0.11649107 -0.090541005 -0.15051143 -0.07080439 -0.21898173 -0.019483712
0.10645983 0.10041385 -0.19343989 -0.012754761 0.05099273 0.08053935 -0.10447952 -0.20854105
0.27894127 -0.10094907 0.08202612 -0.064688385 -0.021645889 -0.2106429 -0.23114279 -0.13651195
0.21253131 0.0068290257 0.067902744 0.15655003 0.03048835 -0.003471869 -0.0262389 -0.20017828
-0.17882802 -0.16904253 0.06087736 -0.0147152785 0.008838599 -0.12222463 -0.044850487 0.01095266
0.0156196775 -0.13137573 0.079002425 0.12179995 -0.010167268 0.26205915 -0.053254843 0.17294228
0.074772805 0.12102835 -0.07696792 -0.06842834 -0.07285183 0.052803207 -0.1049686 -0.13684735
-0.024535324 -0.013188368 -0.03990765 -0.07406561 0.03728293 0.066678494 0.117999196 -0.09865385
0.2065535 -0.027013186 0.022711607 0.05365516 0.008518917 0.13527024 0.047941886 0.1293263
0.027281607 0.06908289 0.07333823 -0.10457791 -0.06896269 -0.17859855 0.1006993 -0.08466902
0.041182693 0.004167176 -0.037438434 0.1062861 0.059299204 0.009102831 -0.00086356344 0.091724165
0.15495045 -0.12679842 0.19935237 0.015852984 0.08832293 -0.05514262 0.10321772 -0.08006511
0.09258075 -0.03428021 0.32420674 0.007736176 -0.078896776 -0.00919019 -0.16707097 -0.11555302
0.22234967 -0.11709432 0.024249298 -0.14170693 0.10919405 -0.10815241 0.0746714 0.0068183956
00000000: e0b1 003e 7cba ddbd c2a9 c03d d831 5d3d
00000010: db5e 353d f1a7 a83d 3bcb 7a3d d424 9cbd
00000020: f5c0 0abe 9987 f9bc 44b7 c2bd 79b0 bc3d
00000030: 8497 a33d 065b 2ebd 2b99 03be 596e 013e
00000040: a810 a13b d4e6 e8bc c807 85bd 69a8 07be
00000050: f709 793d a1f8 453d 5834 5b3e b213 59be
00000060: 1d7e 5c3d b8de 163e 7146 00ba 8c16 eabc
00000070: 489e 4d3d cabe 563d 8351 d8bd fe8d ffbb
00000080: 715c 33be a71c 8e3d 61d9 1dbd 4796 c83a
00000090: cfa3 3f3d f098 b83c 60fb d4bd bf82 38bd
000000a0: 4ada 553d 1692 fcbb 055d 5e3d 28a5 983d
000000b0: 1d35 d4bd 229a 48be 027c cc3b 5e26 ab3d
000000c0: 5fd4 22be dd7b 88bd 5ba8 2dbe a193 1cbe
000000d0: d812 ccbd ce47 ecbd 3e0c 37be e9f5 523d
000000e0: b164 ab3d b462 27be 215d cebd 75d2 a9bd
000000f0: 7185 2cbe e7c4 c8bd 563b 31be 0848 c0be
00000100: c26b f0bd 2980 863d 6a54 f8bd fa18 3b3d
00000110: 674a 1d3c cc0f 07bd 7fd6 f2bd da20 6e3c
00000120: a3fb 9a3d 2e1e 073d 8b92 a0bd 8eaa 08be
00000130: 7e90 5e3d 75e8 3c3d fd1e c6bd eb0a 0dbe
00000140: f255 9dbd 0b96 853e 8bc1 203d d202 50be
00000150: b841 26bd d81c 993d d7b5 183d bf59 20be
00000160: ffdb 873d d164 8ebd f262 973d 79bd 06be
00000170: 7094 08bd 795e 79bd 03af 82bd 1259 b83d
00000180: 609c d0b7 5829 32bd fabd 023c 80bd d0bb
00000190: 58d6 59be 2871 b3bd bbd5 7b3d 5023 bf3d
000001a0: cc32 6c3d 61b5 05be 043c 78bc 968f 163e
000001b0: 6bfc 40be 4abc 093d 86ed 323e 98d1 623d
000001c0: ab07 e7bd f4e1 c5bb a2cf e0bd a6f8 b23d
000001d0: 00cb c3bd f93f 463e c98e 25be 265a 62be
000001e0: 8e50 07be 1fd9 fdbd de68 32be db93 c93d
000001f0: 6479 d4bd 7da6 3bbe 63fe cbbd b9e3 ae3c
00000200: 6e9f c8bd 4ebb 063e 050b 9fbd ae19 01be
00000210: b7c8 fabb 0cc3 90bc 71ec 633d 7eb1 24be
00000220: 7c23 b93d a108 74bd dee3 953d 7507 5ebe
00000230: da00 c5bd 3152 2fbe d5a1 183d 202d 5cbd
00000240: 6669 5abe 80bb 123a df92 ee3d 906d b9bd
00000250: ab1f 1abe e401 91bd bf3c 60be 4e9c 9fbc
00000260: 9d07 da3d c7a5 cd3d 1b15 46be 58f9 50bc
00000270: c1dd 503d d1f1 a43d 5cf9 d5bd c98b 55be
00000280: 64d1 8e3e 63be cebd 4ffd a73d 587b 84bd
00000290: b852 b1bc c6b2 57be b2b0 6cbe cac9 0bbe
000002a0: cfa1 593e 05c6 df3b 9810 8b3d a74e 203e
000002b0: b4c2 f93c 4c88 63bb f6f2 d6bc 89fb 4cbe
000002c0: b11e 37be 7c19 2dbe 8a5a 793d 5a18 71bc
000002d0: c5cf 103c e850 fabd 25b5 37bd c972 333c
000002e0: ade9 7f3c 5c87 06be 06cc a13d 4172 f93d
000002f0: 9d94 26bc 9e2c 863e c021 5abd c817 313e
00000300: 7c22 993d b6dd f73d 5ba1 9dbd 2824 8cbd
00000310: 5733 95bd 2d48 583d c7f9 d6bd b621 0cbe
00000320: 4efe c8bc 0614 58bc 3476 23bd b6af 97bd
00000330: fcb5 183d bc8e 883d 90a9 f13d 080b cabd
00000340: c382 533e c24a ddbc b10d ba3c 83c5 5b3d
00000350: ed92 0b3c 4884 0a3e b65e 443d 1d6e 043e
00000360: ad7d df3c 557b 8d3d 5b32 963d f12c d6bd
00000370: 503c 8dbd 8ae2 36be 6f3b ce3d f366 adbd
00000380: 2faf 283d ce8c 883b 0b59 19bd 87ac d93d
00000390: b9e3 723d 0a24 153c c360 62ba e1d9 bb3d
000003a0: 55ab 1e3e 72d7 01be 0723 4c3e 1ede 813c
000003b0: a7e2 b43d 3add 61bd d063 d33d 2df9 a3bd
000003c0: fa9a bd3d 6869 0cbd 6dfe a53e bf7f fd3b
000003d0: a294 a1bd 7392 16bc a714 2bbe 10a7 ecbd
000003e0: a2af 633e 26cf efbd 77a6 c63c 9f1b 11be
000003f0: 21a1 df3d 037f ddbd 52ed 983d d96c df3b

fc_out.bias f4 [2]
-0.022377921 0.08174319
00000000: e751 b7bc f968 a73d
