agent2_checkpoint_actor_target.pth (torch_old, 142826 bytes, 6 tensors)

fc1.weight f4 [200, 24]
0	0xbd2fc667	-0.04291382
1	0x3c8b45f8	0.017001137
2	0xbd58f295	-0.05296572
3	0x3e1c491a	0.15262261
4	0xbdcfe412	-0.10150923
5	0x3dfbd533	0.12296524
6	0x3bc2f71c	0.005949868
7	0x3d725db9	0.059171412
8	0xbd47ff31	-0.048827354
9	0x3cc3f0fb	0.02391862
10	0xbcbb3224	-0.022851057
11	0x3da0a8f9	0.07844729
12	0xbdd7e2d7	-0.10541313
13	0x3b1bdfe6	0.0023784577
14	0xbc0b9250	-0.00851877
15	0x3dd31d64	0.1030834
16	0xbdbb06c4	-0.0913215
17	0x3d90d512	0.0707189
18	0xbdb05a86	-0.08611016
19	0x3d438b58	0.04774031
20	0xbcc4e043	-0.024032718
21	0xbe408da4	-0.18804032
22	0x3ba258a4	0.0049544144
23	0xbced38b8	-0.02895771
24	0x3b04d799	0.0020270108
25	0x3d4dcaaf	0.050242122
26	0xbd23b22b	-0.039964836
27	0x3dde2ba5	0.10848168
28	0xbdbe0863	-0.092789434
29	0x3dbc40cb	0.09192046
30	0x3cbed039	0.023292648
31	0x3db4246e	0.08796011
32	0x3ccae3eb	0.024766883
33	0x3d835efb	0.064146005
34	0xbcf72804	-0.030170448
35	0x3d2f4b12	0.042796202
36	0xbd0ce6c9	-0.03439978
37	0x3dec66a8	0.115430176
38	0xbd1142c0	-0.03546405
39	0xbc299b8f	-0.010352029
40	0xbc8961de	-0.0167703
41	0x3d2d9c10	0.04238516
42	0xbd025538	-0.031819552
43	0xbd41d768	-0.047324568
44	0x3c2d6871	0.010583983
45	0x3e521f72	0.20519808
46	0xbd7d5cbf	-0.061856028
47	0xbd8ab859	-0.06773443
48	0x3c4818ef	0.012212976
49	0x3e0904e8	0.13380778
50	0x3da20d59	0.07912702
51	0xbd91c363	-0.07117345
52	0x3d2dda71	0.04244465
53	0x3d404a2b	0.046945732
54	0x3dbbb8c1	0.091660984
55	0xbd8aa233	-0.06769218
56	0xbd95572a	-0.07292016
57	0x3e41f80a	0.18942276
58	0xbd026c92	-0.031841822
59	0xbc33bfaf	-0.010970994
60	0x3e100739	0.14065255
61	0x3d84bd5b	0.06481429
62	0xbd3be81d	-0.045875657
63	0xbdce34d7	-0.10068672
64	0xbb6ad8bd	-0.0035834752
65	0x3e229b66	0.15879592
66	0xbda119d9	-0.07866258
67	0x3bb1ea79	0.0054295626
68	0x3e008a9c	0.12552875
69	0xbe0209f5	-0.12699111
70	0x3d10aa91	0.035318915
71	0x3d24f18b	0.040269416
72	0xbd88231a	-0.0664732
73	0x39383198	0.00017566083
74	0x3c04f16f	0.008114203
75	0xbdc39d8b	-0.09551533
76	0xbd0ec5e8	-0.034856707
77	0x3cd83be4	0.026395746
78	0x3ae806a2	0.0017702172
79	0x3cf7d2a2	0.030251805
80	0xbde6690b	-0.11250504
81	0x3d81a116	0.06329553
82	0xbd868e85	-0.06570152
83	0x3d21f602	0.039541252
84	0xbcf41cb7	-0.029798849
85	0xbd9dcaea	-0.077047184
86	0xbdb82915	-0.08992211
87	0xbc3c9b6f	-0.011511668
88	0xbd701823	-0.05861677
89	0x3c88c1a3	0.016693896
90	0xbcb0c90b	-0.02158024
91	0x3c595068	0.013263799
92	0xbd4bb00b	-0.049728435
93	0xbe01fcb0	-0.12694049
94	0xbdbad114	-0.0912191
95	0xbd69a7d8	-0.057044834
96	0xbc67d139	-0.014149004
97	0x3d526537	0.051366057
98	0xbda64fb6	-0.081206724
99	0xbd52f582	-0.051503666
100	0xbdacbc3c	-0.0843434
101	0x3d12c2ae	0.035830192
102	0xb8dde7b3	-0.000105812585
103	0x3d34930e	0.044085555
104	0xbce54a41	-0.027989509
105	0x3cb2f535	0.02184544
106	0x3cbed0e4	0.023292966
107	0x3c90fefa	0.017699707
108	0x3dce94ed	0.10086999
109	0x3ce7356a	0.028223712
110	0xbd317c3f	-0.04333138
111	0xbc250fd2	-0.010074573
112	0xbdd28bb8	-0.102805555
113	0x3d049b00	0.032374382
114	0xbc0fa7a5	-0.008767997
115	0xbd22e0f1	-0.039765302
116	0x3e36ab4f	0.17838787
117	0x3dff4806	0.12464909
118	0x3d319ed4	0.04336436
119	0x3d674245	0.056459684
120	0x3b832bc2	0.004003019
121	0xbdf7c364	-0.12097815
122	0x3cf74f08	0.030189052
123	0x3d622375	0.055209596
124	0x3e6fc316	0.23414263
125	0x3d716aed	0.058939863
126	0x3b284525	0.002567598
127	0xbd1452f4	-0.036211923
128	0x3d60d2bf	0.054888483
129	0xbcfc2c10	-0.03078273
130	0xbd492882	-0.049110897
131	0xbce2ba5d	-0.027676756
132	0x3e2ce50d	0.16884251
133	0x3dd89891	0.10575975
134	0xbd82b754	-0.06382623
135	0x3db67f26	0.089109704
136	0x3c90784d	0.017635489
137	0xbd1565a4	-0.036473885
138	0x3d66b4f0	0.0563249
139	0x3dc4dff1	0.09613026
140	0x3dc73f26	0.097288415
141	0x3d778d31	0.060437385
142	0xbd350a07	-0.044199016
143	0x3db498b8	0.08818191
144	0x3dac80d9	0.08423013
145	0xbdb1558f	-0.08658897
146	0x3de70a8b	0.11281308
147	0x3d542a47	0.05179813
148	0xbe31035d	-0.17286439
149	0xbe5b89fc	-0.21439356
150	0xb8a5a404	-7.8983634e-05
151	0x3d9c1bf1	0.07622517
152	0x3dd25141	0.10269404
153	0xbd435f46	-0.04769828
154	0x3d86a8ab	0.065751396
155	0x3d3a07d3	0.045417618
156	0xbe0520f5	-0.13000853
157	0xbdd5c605	-0.1043816
158	0xbc4628e4	-0.01209471
159	0x3da451a9	0.08023388
160	0xbc59c66f	-0.013291939
161	0x3bf31327	0.0074180546
162	0x3cfac253	0.03061024
163	0x3e58c22d	0.21167822
164	0xbd318086	-0.04333546
165	0xbd375d2c	-0.04476659
166	0x3dbab439	0.09116406
167	0x3e148ec3	0.14507584
168	0x3cc11f18	0.023574397
169	0xbd5072fc	-0.050890908
170	0x3d5d49c3	0.054025423
171	0x3d99bb6c	0.07506451
172	0xbda32b25	-0.079672135
173	0x3d97add8	0.07406205
174	0xbd5ad67f	-0.053427216
175	0x3dfef229	0.12448532
176	0xbde12847	-0.109940104
177	0xbc024d0a	-0.007952938
178	0x3d2bebfc	0.0419731
179	0xbb20effb	-0.0024557102
180	0x3c99bd18	0.018766925
181	0x3e010ff3	0.1260374
182	0x3d9e4d70	0.07729614
183	0x3dc2987d	0.09501741
184	0xbd2096fc	-0.03920649
185	0x3d4d70a4	0.05015625
186	0x3d769ddf	0.06020915
187	0x3d9d2ba1	0.07674337
188	0x3deca97e	0.115557656
189	0x3d9628a1	0.07331968
190	0xbd8520b3	-0.065003775
191	0xbcea3ea2	-0.028594319
192	0x3b2c12b7	0.0026256272
193	0xbe630667	-0.22170411
194	0xb9f0ede9	-0.00045953624
195	0x3e00c745	0.12576015
196	0x3da35649	0.07975442
197	0x3e229ab0	0.15879321
198	0x3c06fd42	0.008239092
199	0x3cf8179e	0.030284699
200	0xbd8181af	-0.06323563
201	0xbe0252fd	-0.1272697
202	0xbd1ae39d	-0.037814725
203	0x3db43ec3	0.08801033
204	0xbd60d91c	-0.05489455
205	0x3e0dc44c	0.13844413
206	0x3c4b8a3a	0.0124230925
207	0x3e114d7b	0.14189713
208	0xbcc8b19d	-0.024498755
209	0xbdae0fb2	-0.084990874
210	0xbb888574	-0.0041662995
211	0x3d97b24d	0.07407055
212	0xbdbf5cb6	-0.09343855
213	0x3e1b3df3	0.1516035
214	0x3d5e51b8	0.05427715
215	0xbaf6111a	-0.0018773407
216	0xbdc6bdcf	-0.09704172
217	0xbde1b577	-0.1102094
218	0xbd2ec126	-0.04266467
219	0x3dc941fc	0.09827039
220	0xbdae88fe	-0.08522223
221	0x3daa0eb0	0.08303583
222	0xba897fa0	-0.0010490306
223	0x3da03bb8	0.078238904
224	0x3d1f6731	0.03891677
225	0x3bb08ec5	0.005388113
226	0x3d22bc4e	0.039730363
227	0x3d2d1dc3	0.04226471
228	0xbc64c412	-0.013962762
229	0x3da1ac7e	0.078942284
230	0xbd9b8b45	-0.07594923
231	0x3d3271fa	0.043565728
232	0x3cedd90e	0.029034164
233	0xbd2dfd09	-0.04247764
234	0xbd1527f5	-0.03641506
235	0x3c827329	0.015924053
236	0x3df8073a	0.12110753
237	0x3dcaea84	0.099080116
238	0xbdce8415	-0.100837864
239	0xbd24da54	-0.040247276
240	0x3c2264e3	0.009911749
241	0xbdd7bb18	-0.10533732
242	0xbdb971fd	-0.09054945
243	0x3d934bdd	0.07192204
244	0xbcfeb7ed	-0.031093562
245	0xbcd4fe41	-0.026000144
246	0xbdb064b0	-0.086129546
247	0x3dcf389b	0.101182185
248	0xbd422b07	-0.047404315
249	0xbdd6bad2	-0.10484852
250	0x3d9b9294	0.07596317
251	0x3e36d274	0.17853719
252	0xbce41820	-0.027843535
253	0xbd64ebea	-0.055889048
254	0xbd35cb27	-0.044383194
255	0x3dae1558	0.08500165

fc1.bias f4 [200]
0	0x3e83445e	0.25638098
1	0x3d49aa95	0.049234945
2	0x3de4faaa	0.11180623
3	0xbd0b4d57	-0.034009304
4	0xbe1c6ee0	-0.1527667
5	0xbdcdc580	-0.10047436
6	0x3cfcfa51	0.030881079
7	0xbdb14950	-0.086565614
8	0x3e315713	0.17318372
9	0xbe22de9a	-0.15905228
10	0xbd861cd9	-0.06548471
11	0xbd991160	-0.07474017
12	0x3e765c6a	0.2405869
13	0x3c41b920	0.011823922
14	0x3e50236e	0.20326015
15	0x3de61e72	0.11236276
16	0x3cb8b0ae	0.022545185
17	0x3dea6716	0.11445443
18	0x3dfb89f8	0.12282175
19	0xbe05e9cd	-0.13077469
20	0xbcbb36c9	-0.022853272
21	0x3deb0a1c	0.114765376
22	0x3e15fe8f	0.14647888
23	0xbd8e1285	-0.06937126
24	0xbd918f78	-0.071074426
25	0x3dddc2a5	0.10828141
26	0x3e138a24	0.14408165
27	0xbb6c3939	-0.003604485
28	0xbdac18c7	-0.084031634
29	0xbe335843	-0.17514138
30	0xbab408e1	-0.0013735556
31	0x3d55a120	0.052155614
32	0x3c037297	0.008022926
33	0xbded5bf6	-0.11589806
34	0x3cb2c103	0.02182055
35	0x3e7c8277	0.24659143
36	0xbe2f15b0	-0.17098117
37	0xbe0f6ce6	-0.14006385
38	0x3e31767e	0.17330357
39	0x3e881d19	0.265847
40	0xbe4c4840	-0.19949436
41	0xbddda9b6	-0.108233854
42	0x3c2b3bad	0.0104512395
43	0x3e811b57	0.2521617
44	0xbd9a9373	-0.07547655
45	0x3ce06610	0.027392417
46	0x3e5f27c1	0.21792509
47	0xbdc18d59	-0.09450788
48	0xbd64b2ba	-0.05583451
49	0xbdd29610	-0.102825284
50	0x3c097d66	0.008391714
51	0x3e5249f0	0.20536017
52	0x3e3e913b	0.18610089
53	0x3e4f099f	0.20218514
54	0xbbed73db	-0.007246477
55	0xbcf1b8a1	-0.029506983
56	0xbcba6b6e	-0.022756305
57	0x3e0cfc12	0.13768032
58	0xbd8b0289	-0.06787593
59	0xbdeeefea	-0.11666854
60	0xbda65f13	-0.08123603
61	0x3dd2978f	0.10282814
62	0x3e762684	0.2403813
63	0xbcd0e3a2	-0.025499169
64	0xbe40fa2f	-0.18845437
65	0xbdeeb2e4	-0.116552144
66	0xbe16e31f	-0.14735077
67	0x3dddb21d	0.10824988
68	0x3e1486a8	0.14504492
69	0x3d895d42	0.06707241
70	0x3dcd82e6	0.100347325
71	0x3e0a6d5a	0.13518277
72	0x3e0f77be	0.14010522
73	0x3e4c54f5	0.19954284
74	0x3e138783	0.14407162
75	0x3d44a8c5	0.048012514
76	0x3db2ba9a	0.08726998
77	0xbc78f9c9	-0.015196272
78	0xbe1f3d85	-0.15550812
79	0x3daeaded	0.085292675
80	0x3de37c6f	0.11107718
81	0xbdd51bf3	-0.104057215
82	0xbe049693	-0.12948065
83	0xbdee264e	-0.116284
84	0x3e48e91b	0.19620173
85	0x3d8d26d1	0.06892169
86	0xbdc69130	-0.09695661
87	0x3da10f92	0.07864298
88	0xbd027c5f	-0.03185689
89	0x3e673826	0.22580013
90	0xbd8bb0d4	-0.06820837
91	0xbe08e093	-0.13366918
92	0xbdeb9bc0	-0.11504316
93	0x3e349976	0.17636666
94	0xbd1bdeed	-0.038054395
95	0x3e2bfb89	0.16795172
96	0x3dd9eeee	0.10641275
97	0xbddae6cb	-0.106885515
98	0xbccc6974	-0.024952628
99	0xbcefe3e2	-0.029283468
100	0x3dc89612	0.09794249
101	0xbe0eaa8b	-0.13932244
102	0x3d0c52e8	0.034258753
103	0x3d3e56e7	0.046469595
104	0xbdf65dec	-0.12029633
105	0xbdde22dc	-0.10846493
106	0xbde13ffb	-0.109985314
107	0x3e2b0ed8	0.16704881
108	0x3d5f9148	0.05458191
109	0xbc9263b8	-0.017869815
110	0xbdf9dae4	-0.12199953
111	0xbe5aa4a1	-0.21351863
112	0xbd283632	-0.04106731
113	0xbe1d963a	-0.15389338
114	0xbe22df54	-0.15905505
115	0xbe26eac1	-0.16300489
116	0xbe137d73	-0.14403324
117	0xbe303479	-0.17207517
118	0x3c5edd26	0.013602531
119	0x3dac7fcb	0.08422812
120	0x3e51cda3	0.204886
121	0xbe125748	-0.14291108
122	0x3e2a4a54	0.16629916
123	0x3c972e29	0.018454628
124	0x3e0396f5	0.12850554
125	0xbe055624	-0.13021141
126	0x3dd1d255	0.10245196
127	0xbe674874	-0.22586232
128	0x3ceae868	0.028675273
129	0x3e3eb9f5	0.18625624
130	0x3dd94eb7	0.10610717
131	0xbe1e49a3	-0.15457778
132	0xbbd46243	-0.0064814403
133	0x3d5c0bbf	0.05372214
134	0x3e2995d6	0.16561064
135	0xbd9c69a8	-0.0763734
136	0x3dd214bb	0.1025786
137	0xbcaf1824	-0.021373816
138	0xbd5309e0	-0.05152309
139	0x3ce1ce6e	0.027564254
140	0xbe1f78cf	-0.15573429
141	0xbd9dfbd3	-0.07714047
142	0x3df7fb41	0.1210847
143	0x3e4a20af	0.1973903
144	0xbbdf3854	-0.0068121348
145	0x3e4252c6	0.18976888
146	0x3e2c8abf	0.16849802
147	0xbe40021d	-0.18750806
148	0xbccf9655	-0.025340239
149	0xbe73a162	-0.23792031
150	0x3de73971	0.11290253
151	0x3d2e1f43	0.042510282
152	0xbcbe57a2	-0.023235146
153	0x3e22ca59	0.15897502
154	0xbd43b578	-0.047780484
155	0xbe41aef7	-0.189144
156	0xbdf6a8bf	-0.120439045
157	0xbccf693e	-0.025318738
158	0x3e8ac207	0.27101156
159	0xbe0b2199	-0.13587035
160	0x3b840658	0.0040290765
161	0x3e016dd0	0.12639546
162	0xbe242123	-0.16028266
163	0xbdd8d67b	-0.10587784
164	0x3ddd05ab	0.10792097
165	0xbd8d9ded	-0.069148876
166	0xbd81b879	-0.063340135
167	0x3cd5027f	0.026002167
168	0xbc67e5b8	-0.01415389
169	0x3d4fbe97	0.05071887
170	0x3d9f1d8b	0.07769307
171	0xbe119606	-0.14217386
172	0x3e33e482	0.17567638
173	0xbe8d88d5	-0.27643457
174	0x3e07cb37	0.13261114
175	0xbd940636	-0.07227747
176	0xbd65d0d8	-0.056107372
177	0x3e40b9e7	0.18820916
178	0xbe863ad3	-0.26216754
179	0x3d9ba557	0.075998954
180	0x3e2afa39	0.16697015
181	0x3e4b4a91	0.19852664
182	0xbe22f390	-0.15913224
183	0x3d08c876	0.0333943
184	0x3e8ae2c3	0.2712613
185	0xbe426167	-0.18982469
186	0x3da3fca3	0.08007171
187	0xbdc3e849	-0.09565789
188	0x3d38b9f1	0.045099203
189	0xbe320281	-0.17383768
190	0x3dfa4ad9	0.12221307
191	0xbd734946	-0.05939605
192	0x3dbac7e6	0.09120159
193	0xbc1c9cca	-0.009558866
194	0x3bd96321	0.0066341315
195	0xbd93c58c	-0.072154135
196	0xbe34a646	-0.17641553
197	0xbe030b8a	-0.1279737
198	0xbd194d08	-0.03742698
199	0xbe1be88c	-0.15225428

fc2.weight f4 [150, 200]
0	0x3dee7df5	0.11645118
1	0x3d484f70	0.048903883
2	0x3da84f66	0.08218269
3	0x3dcc53aa	0.09976895
4	0x3e0fbea5	0.14037569
5	0xbe631206	-0.22174844
6	0xbd254bb5	-0.040355403
7	0xbc9d67ee	-0.019214597
8	0xbdb7d980	-0.08977032
9	0x3db4e7c5	0.08833269
10	0xbdc32652	-0.095287934
11	0xbcb9087d	-0.022587055
12	0xbe3dc5e0	-0.18532515
13	0xbd6b2f90	-0.057418406
14	0x3dd73724	0.10508564
15	0xbde34582	-0.11097242
16	0xbc0c2348	-0.008553334
17	0x3dca6ee4	0.09884432
18	0x3dd84746	0.10560469
19	0xbd3fbbdb	-0.046810012
20	0x3db3af6e	0.08773695
21	0xbca1dd00	-0.019758701
22	0xbddff3e7	-0.109351926
23	0x3e091a14	0.13388854
24	0xbdfd2b44	-0.12361768
25	0x3e2af816	0.166962
26	0x3e15af8b	0.14617746
27	0x3d7943dc	0.06085573
28	0xbde05c56	-0.10955112
29	0xbd9e1d10	-0.07720387
30	0xbdbe40c2	-0.09289695
31	0x3c4bd6a8	0.012441315
32	0x3b078ab5	0.002068204
33	0xbe603602	-0.21895602
34	0x3cb6ed94	0.022330083
35	0x3dd13084	0.10214332
36	0x3e0b8d0f	0.13628028
37	0xbc5f2a4c	-0.013620924
38	0xbdaa7bcf	-0.08324396
39	0xbde9833c	-0.11401984
40	0xbd65addb	-0.056074005
41	0xbd97e983	-0.07417586
42	0x3d87b9e3	0.06627252
43	0xbdd2c7e4	-0.10292032
44	0x3cfae758	0.030627891
45	0xbd3a8b77	-0.04554316
46	0x3d9487cb	0.07252463
47	0xbb9bc45a	-0.0047536315
48	0xbdf3147f	-0.11869144
49	0xbc74e17f	-0.014946341
50	0xbcb86fb3	-0.0225142
51	0x3dbb948c	0.091591924
52	0xbe248a56	-0.16068396
53	0x3d742c26	0.059612416
54	0x3dd706bf	0.104993336
55	0xbdaf5fb4	-0.08563176
56	0xbd985684	-0.074383765
57	0x3cc1499d	0.023594672
58	0x3e03d515	0.12874253
59	0x3e1ef6d1	0.1552384
60	0xbc84f255	-0.016228834
61	0x3cff445a	0.031160522
62	0xbe4b5b8e	-0.19859144
63	0xbdb58f93	-0.08865275
64	0x3ca10d68	0.019659713
65	0x3d9d74ad	0.0768827
66	0x3d82faad	0.06395469
67	0x3c9062b9	0.0176252
68	0xbdea2193	-0.11432185
69	0x3d4049a0	0.046945214
70	0xbdb28629	-0.08716995
71	0xbdbe6052	-0.092957154
72	0x3d8d7bae	0.06908356
73	0x3a6872bf	0.0008867196
74	0x3dd5f8c2	0.104478374
75	0xbe2059c0	-0.15659237
76	0x3c8ad68a	0.016948003
77	0xbdffc4d6	-0.12488715
78	0xbde527cb	-0.111892305
79	0x3dbcf944	0.09227231
80	0xbded213e	-0.11578606
81	0xbdefa9ad	-0.11702285
82	0xbe08e62e	-0.13369057
83	0xbc2cfa77	-0.010557762
84	0x3d669688	0.0562959
85	0x3d1ff951	0.039056126
86	0x3d0cc706	0.03436949
87	0x3e03ed38	0.1288346
88	0xbcbf0358	-0.023317024
89	0xbe2cb767	-0.16866837
90	0xbdf1ef7b	-0.118132554
91	0x3cfac26b	0.030610284
92	0x3d75d8c5	0.06002118
93	0x3da49465	0.080361165
94	0x3b9fbf8d	0.0048751296
95	0x3d74aa98	0.059733003
96	0xbe464506	-0.19362268
97	0x3ce1d84d	0.02756896
98	0x3d5ea36f	0.05435508
99	0xbd4337cc	-0.047660634
100	0x3dd179a4	0.10228279
101	0x3d7904d1	0.06079561
102	0x3dac4d08	0.0841313
103	0x3dd79c69	0.1052788
104	0xbd1b1ec8	-0.037871152
105	0xbdb2c1a3	-0.087283395
106	0x3e023439	0.12715234
107	0xbe3287cf	-0.1743462
108	0x3cd42767	0.025897695
109	0xbc55d254	-0.013050634
110	0xbdc17245	-0.09445623
111	0x3bcce449	0.0062527996
112	0x3dbca84f	0.0921179
113	0xbb895516	-0.0041910512
114	0x3d1d000a	0.038330115
115	0xbc5f65b1	-0.013635085
116	0x3d80a262	0.06280972
117	0x3d818879	0.06324858
118	0x3ce18bc2	0.027532462
119	0x3d3b3f0f	0.045714434
120	0xbe16d388	-0.1472913
121	0xbdd65963	-0.10466268
122	0x3d97e8c8	0.074174464
123	0xbcc6af5c	-0.02425354
124	0x3d57d09d	0.052689184
125	0xbd69b13c	-0.05705379
126	0xbc98e94f	-0.018665938
127	0xbded22c7	-0.11578899
128	0xbcdfc866	-0.027317237
129	0xbcec9b67	-0.028882695
130	0xbe086428	-0.13319457
131	0xbe11a54c	-0.14223212
132	0xbcb9d76b	-0.022685727
133	0xbda4bd41	-0.0804391
134	0xbcfc4d22	-0.030798499
135	0x3d5d1ab0	0.05398053
136	0x3d7d095e	0.06177651
137	0xbda64bac	-0.08119902
138	0x3e2b2a71	0.16715409
139	0x3d67548d	0.05647712
140	0xbdc397aa	-0.09550412
141	0x3da23f36	0.07922213
142	0x3dbb0212	0.09131254
143	0x3d5beaa4	0.053690568
144	0x3e08d290	0.13361573
145	0x3d9854e3	0.07438066
146	0x3e5254ea	0.20540205
147	0x3d600768	0.054694563
148	0xbdc85137	-0.097811155
149	0x3d0b46ed	0.034003187
150	0x3d212e61	0.03935087
151	0x3c9aa2f9	0.01887654
152	0xbda1fa40	-0.079090595
153	0xbe0536ed	-0.13009234
154	0x3cd54d1a	0.026037741
155	0xbd1c42b2	-0.038149543
156	0x3d9590cd	0.07303009
157	0x3d57be20	0.05267155
158	0x3c7b3c42	0.015334191
159	0xbd154797	-0.036445227
160	0x3c93cd48	0.018042222
161	0x3ccc44c0	0.024935126
162	0x3d07ea51	0.033182446
163	0x3da087e6	0.078384206
164	0xbcf4fdef	-0.029906241
165	0x3e0b1917	0.1358379
166	0xbd8f3312	-0.06992163
167	0xbc9d2f7f	-0.019187687
168	0x3d414fe5	0.047195334
169	0xbd3b2fc8	-0.045699865
170	0x3dd03672	0.101666346
171	0xbcd8b321	-0.026452603
172	0x3da01a6f	0.07817542
173	0x3da1ee7c	0.079068154
174	0x3d27cc5b	0.040966373
175	0x3e1f2aa8	0.15543616
176	0x3d31877b	0.043342095
177	0xbd03b4e9	-0.03215495
178	0xbda72bdd	-0.08162663
179	0xbe05c856	-0.13064703
180	0x3e0c2d10	0.13689065
181	0xbc6e991b	-0.01456287
182	0xbd21dd1f	-0.039517518
183	0xbdfa1caf	-0.12212502
184	0x3baf9fd4	0.005359629
185	0x3db88ce5	0.090112485
186	0xbe0aac54	-0.135423
187	0x3d4ae480	0.04953432
188	0xbd8dc2a8	-0.06921893
189	0x3c4c3f96	0.012466332
190	0xbd95720a	-0.07297142
191	0xbdb9f30f	-0.09079563
192	0x3ccc0490	0.02490452
193	0x3cabcd2f	0.020971863
194	0x3d244a7e	0.040110104
195	0x3e1a4717	0.15066181
196	0xbad6ac1a	-0.0016378195
197	0x3d620c43	0.055187475
198	0xbb7538ca	-0.0037417882
199	0xbdeca3c9	-0.11554677
200	0xbd0c64b8	-0.03427574
201	0x3dba4e01	0.09096909
202	0xbd9ff73b	-0.07810827
203	0xbdc91097	-0.098176174
204	0x3db6de82	0.08929159
205	0xbd2e868e	-0.04260879
206	0xbe3938eb	-0.18088119
207	0x3d83ce1b	0.06435796
208	0x3d8e0606	0.06934743
209	0x3cad2e4d	0.021140242
210	0x3cce362b	0.025172314
211	0xbd5f54bc	-0.05452417
212	0x3dc6e084	0.09710792
213	0xbb5678b0	-0.0032725744
214	0x3c89c7dc	0.016818933
215	0x3e0bd574	0.13655645
216	0x3d1a8319	0.03772268
217	0xbd829263	-0.06375577
218	0x3d8acd1a	0.06777401
219	0x3da922f2	0.082586184
220	0xbc0c6e95	-0.008571287
221	0x3cd0afcf	0.025474457
222	0xbce288ba	-0.027653087
223	0x3d3f9743	0.046775114
224	0xbe021262	-0.12702325
225	0xbdb712bb	-0.089391194
226	0xbd7b36fb	-0.06133173
227	0x3d1d39f4	0.038385347
228	0x3c2a1ab4	0.010382343
229	0x3d8a0f9d	0.06741259
230	0x3d3936fa	0.045218445
231	0xbc00afa8	-0.00785438
232	0x3b02cdd1	0.0019959102
233	0xbd140365	-0.03613605
234	0xbda67a6f	-0.08128821
235	0x3d9e5a05	0.077320136
236	0x3e6c5f1f	0.23083161
237	0x3becc83a	0.0072260173
238	0x3d99fcf5	0.07518951
239	0xbccb4d2b	-0.02481707
240	0x3de508b4	0.111833006
241	0xbc6b9681	-0.014379145
242	0x3d51640a	0.051120795
243	0x3c8d75c5	0.017268071
244	0xbda2e85e	-0.07954477
245	0x393bf75d	0.0001792586
246	0xbd28d4d8	-0.04121861
247	0xbcc44188	-0.023957029
248	0x3cb83597	0.022486491
249	0xbcfc2456	-0.030779045
250	0x3be8d54d	0.0071055056
251	0xbd5eaa30	-0.054361522
252	0xbd329db5	-0.043607432
253	0x3df4ab01	0.11946679
254	0x3c5bca35	0.013414909
255	0x3df751f5	0.12076179

fc2.bias f4 [150]
0	0xbcebb828	-0.028774336
1	0x3cbe4367	0.0232255
2	0x3d696e37	0.056989875
3	0xbc99f6dc	-0.01879447
4	0x3d90ee0f	0.07076656
5	0xbd22cc88	-0.039745837
6	0x3d2b9b53	0.041896176
7	0x3d49c70d	0.049262095
8	0xbdae649d	-0.08515284
9	0x3b13b747	0.0022539662
10	0x3d4cfee1	0.05004776
11	0xbdc0690c	-0.09395036
12	0x3d84790e	0.06468402
13	0xbd0fc705	-0.03510191
14	0x3cc02899	0.023456858
15	0xbd8b561e	-0.06803535
16	0x3d21a300	0.03946209
17	0xbcd4fa7a	-0.025998343
18	0xbd0e5af7	-0.03475472
19	0x3c87f739	0.016597377
20	0x3b6a7b81	0.003577918
21	0xbaca8c15	-0.0015453125
22	0xbd11dc2c	-0.035610363
23	0x3d1c7fa0	0.03820765
24	0x3d9fc6b5	0.07801572
25	0xbac687bb	-0.0015146652
26	0x3c67ba90	0.014143601
27	0x3b7ac51b	0.0038264457
28	0x3da76261	0.08173061
29	0x3d40775d	0.046988834
30	0xbd917651	-0.07102645
31	0x3d51d2dc	0.05122648
32	0xbd7e31fc	-0.062059388
33	0xbd57aaaa	-0.052652992
34	0xbba64f2b	-0.0050753555
35	0x3c93c402	0.0180378
36	0x3d07eab3	0.03318281
37	0xbc90acf8	-0.017660603
38	0xbd090e79	-0.033461068
39	0xbd446135	-0.047944266
40	0x3d94ff22	0.07275225
41	0x3c4a6f93	0.012355703
42	0xbccecc06	-0.02524377
43	0xbd778378	-0.060428113
44	0xbd40b97d	-0.047051895
45	0x3d4fe3c3	0.05075432
46	0x3d8ebcda	0.06969614
47	0xbc97abb8	-0.018514499
48	0x3c91d3a3	0.017801112
49	0x381f5eba	3.7996775e-05
50	0xbda5c364	-0.080939084
51	0xbdc25a8d	-0.094899274
52	0xbd30cadb	-0.043162208
53	0x3cae3189	0.021263855
54	0x3b8f1bdf	0.004367336
55	0x3a98f665	0.0011670111
56	0x3d4faf01	0.050704006
57	0x3c55c198	0.013046645
58	0x3d3ae80e	0.04563146
59	0xbd8cf2e1	-0.06882263
60	0x3cad4c12	0.021154437
61	0x3d2a9ad1	0.04165155
62	0xbc8a36f8	-0.016871914
63	0xbbbbe277	-0.005733784
64	0xbdab99a5	-0.08378915
65	0x3daae417	0.08344286
66	0x3c13fd40	0.0090325475
67	0x39c43d91	0.00037429904
68	0xbd1a31e2	-0.03764523
69	0x3d7a7735	0.06114884
70	0x3d6a6e01	0.057233814
71	0x3db886f6	0.09010117
72	0x3d608916	0.054818235
73	0x3d461124	0.04835619
74	0xbd4880ad	-0.04895084
75	0x3a6bcd4a	0.0008995129
76	0xbc87bedf	-0.016570507
77	0x3d9b2f00	0.07577324
78	0xbd570b3d	-0.052500952
79	0x3d0a3161	0.033738498
80	0x3c4a2c6f	0.012339695
81	0xbdcde453	-0.10053315
82	0xbd046afc	-0.03232859
83	0xbd7eb52f	-0.06218451
84	0x3c2b328f	0.010449066
85	0x3d816c9d	0.063195445
86	0x3ccfd1a7	0.025368525
87	0x3cd4c2b2	0.025971744
88	0x3c516fde	0.012783019
89	0xbd6e2763	-0.05814303
90	0xbc7f7ecd	-0.0155941965
91	0xbd02a17c	-0.031892285
92	0xbd2731dc	-0.040819034
93	0xbcaf3809	-0.021389024
94	0xbcba228c	-0.022721551
95	0x3d447df0	0.047971666
96	0xbd81db9d	-0.06340716
97	0xbd8b0b5f	-0.06789278
98	0xbc672cee	-0.014109833
99	0xbc55922e	-0.01303534
100	0x3dfd5bde	0.12371038
101	0xbd59f0f2	-0.0532083
102	0x3d7008a9	0.05860201
103	0x3d804d7f	0.06264781
104	0x3d4e3f1d	0.05035316
105	0xbd485867	-0.048912432
106	0xbd4c6929	-0.049904976
107	0xbb6297f7	-0.0034575441
108	0xbd8b8943	-0.0681329
109	0x3d05947f	0.03261232
110	0xbbadf166	-0.005308318
111	0x3c3ae654	0.011407454
112	0xbcb4928a	-0.022042532
113	0x3d16d01a	0.036819555
114	0x3d17728b	0.03697447
115	0x3c9ba5b2	0.018999908
116	0x3b1e5dac	0.002416472
117	0xbdacccad	-0.08437476
118	0xbd3b55c2	-0.045736082
119	0x3d16a313	0.036776613
120	0x3a24b96d	0.0006283734
121	0x3bb9c3af	0.0056690793
122	0xbd832c2a	-0.06404908
123	0x3c325a09	0.010885724
124	0xbd07ac47	-0.03312328
125	0x3df57550	0.11985266
126	0xbd422b55	-0.047404606
127	0xbc8b46dd	-0.017001564
128	0xbc8bc7d0	-0.017063051
129	0xbd15a09e	-0.03653013
130	0x3bc20e67	0.005922127
131	0xbc17bf34	-0.009261895
132	0x3d5b8209	0.053590808
133	0xbd197f12	-0.0374747
134	0x3c856642	0.016284112
135	0xbbb9c51f	-0.0056692506
136	0x3d6c4f10	0.057692587
137	0x3d7c7033	0.06163044
138	0x3d5321c7	0.051545884
139	0xbbfc0583	-0.0076910867
140	0x3cbc51fc	0.022988312
141	0x39cec3b2	0.00039437186
142	0xbc3003f4	-0.01074313
143	0xbd4ba63b	-0.049719077
144	0xbd908538	-0.070566595
145	0x3d492af0	0.049113214
146	0x3d89c7e5	0.0672758
147	0xbccf332b	-0.025292953
148	0x3cdb564c	0.026774548
149	0xbd6384cc	-0.055546567

fc_out.weight f4 [2, 150]
0	0x3dfcbb49	0.12340409
1	0xbddd773b	-0.10813757
2	0x3dc09bdf	0.0940473
3	0x3d5df1c7	0.054185655
4	0x3d2d830a	0.042361297
5	0x3da6ed0e	0.08150683
6	0x3d79225a	0.060823776
7	0xbd9a026c	-0.07519993
8	0xbe092fe5	-0.13397177
9	0xbce7c82e	-0.028293695
10	0xbdc54794	-0.09632793
11	0x3dbd6ab6	0.09248869
12	0x3da22294	0.079167515
13	0xbd305338	-0.043048114
14	0xbe01df1f	-0.1268277
15	0x3df63f86	0.12023835
16	0x3b46f0f6	0.0030356026
17	0xbcef0531	-0.02917728
18	0xbd82a8d1	-0.063798554
19	0xbe065a5c	-0.13120407
20	0x3d78f3cf	0.06077939
21	0x3d461ada	0.04836545
22	0x3e595e15	0.21227296
23	0xbe58b500	-0.21162796
24	0x3d59af6d	0.053145815
25	0x3e113c8a	0.1418325
26	0xba26f778	-0.0006369273
27	0xbcf3aeb9	-0.0297464
28	0x3d4d6670	0.05014652
29	0x3d55abae	0.05216568
30	0xbdd60b23	-0.10451343
31	0xbc063ba6	-0.008192932
32	0xbe325a7e	-0.17417333
33	0x3d8d7990	0.06907952
34	0xbd01276e	-0.031531744
35	0x3a57851a	0.0008221433
36	0x3d3e7aab	0.046503704
37	0x3cb10c14	0.021612205
38	0xbdd53019	-0.104095645
39	0xbd365591	-0.044515196
40	0x3d536d7f	0.051618095
41	0xbbf5f688	-0.0075061955
42	0x3d5d43c5	0.05401971
43	0x3d979a5b	0.07402488
44	0xbdd480e4	-0.103761464
45	0xbe4310b5	-0.19049342
46	0x3bafa2d2	0.005359986
47	0x3da9b2ff	0.08286094
48	0xbe207233	-0.15668564
49	0xbd896f1f	-0.06710648
50	0xbe2c91ff	-0.16852568
51	0xbe1c19e8	-0.15244257
52	0xbdcaa7e5	-0.098953046
53	0xbde7aec7	-0.11312633
54	0xbe330d94	-0.17485648
55	0x3d515b16	0.051112257
56	0x3daa0bb1	0.08303011
57	0xbe2455fe	-0.16048428
58	0xbdcd9366	-0.1003788
59	0xbda814be	-0.08207081
60	0xbe28ed3e	-0.1649675
61	0xbdc85c09	-0.09783179
62	0xbe2c3654	-0.168176
63	0xbebda0da	-0.37036783
64	0xbdef8d05	-0.11696819
65	0x3d868565	0.06568412
66	0xbdf8bbed	-0.12145219
67	0x3d38f9bb	0.045160037
68	0x3c245616	0.01003029
69	0xbd0cca9f	-0.034372922
70	0xbdee2ca8	-0.11629611
71	0x3c5c0a16	0.013430139
72	0x3d9abca4	0.075555116
73	0x3d0467cb	0.032325547
74	0xbda006c9	-0.07813794
75	0xbe0710ea	-0.13190046
76	0x3d5b1a25	0.05349173
77	0x3d3c337e	0.045947544
78	0xbdc3c97c	-0.095599145
79	0xbe0adbfb	-0.13560478
80	0xbd9bc6ab	-0.07606252
81	0x3e8353b8	0.2564981
82	0x3d214a49	0.039377484
83	0xbe4e11c5	-0.20123966
84	0xbd25e270	-0.04049915
85	0x3d984d75	0.07436649
86	0x3d16b744	0.03679587
87	0xbe1db102	-0.15399554
88	0x3d86ee91	0.06588472
89	0xbd8faff3	-0.070159815
90	0x3d972c50	0.07381499
91	0xbe04b324	-0.12958962
92	0xbd094e4d	-0.03352194
93	0xbd7a090e	-0.06104379
94	0xbd83ecaf	-0.06441628
95	0x3db7616c	0.089541286
96	0xba33f044	-0.00068641105
97	0xbd318476	-0.043339215
98	0x3c043b63	0.0080707995
99	0xbbf94d1b	-0.0076080686
100	0xbe572cf4	-0.21013242
101	0xbdb5f51c	-0.088846415
102	0x3d7c7df3	0.061643552
103	0x3dbe24b6	0.09284346
104	0x3d6c6255	0.057710964
105	0xbe042972	-0.12906435
106	0xbc832411	-0.016008409
107	0x3e15330d	0.14570256
108	0xbe3fcaf4	-0.18729764
109	0x3d085911	0.033288065
110	0x3e3154a7	0.17317449
111	0x3d64a530	0.055821598
112	0xbde653b1	-0.112464316
113	0xbc2f8107	-0.010711915
114	0xbddfdfb2	-0.10931338
115	0x3db20d55	0.08693949
116	0xbdc3e64a	-0.095654085
117	0x3e4469db	0.19181006
118	0xbe23c0a8	-0.15991461
119	0xbe5e7d50	-0.2172749
120	0xbe06f61a	-0.13179818
121	0xbdfc7303	-0.12326624
122	0xbe320c0b	-0.17387407
123	0x3dc90605	0.09815601
124	0xbdd408c9	-0.10353238
125	0xbe3bc07d	-0.18335147
126	0xbdcd4c73	-0.10024347
127	0x3cad10ef	0.021126239
128	0xbdc34b42	-0.09535839
129	0x3e05e96f	0.13077329
130	0xbd9ec991	-0.077532895
131	0xbe009388	-0.12556279
132	0xbbf6226e	-0.0075114286
133	0xbc9ea8ed	-0.01936766
134	0x3d5f463c	0.05451034
135	0xbe22c09c	-0.15893787
136	0x3db57fcb	0.08862265
137	0xbd73e556	-0.059544884
138	0x3d94c080	0.07263279
139	0xbe5e2a7f	-0.21695898
140	0xbdc66464	-0.09687117
141	0xbe2b9c5f	-0.1675887
142	0x3d1b1305	0.037859935
143	0xbd5f0ce6	-0.05445566
144	0xbe5524e8	-0.2081486
145	0x3a12bb80	0.00055973977
146	0x3ded69e3	0.11592462
147	0xbdb7f351	-0.08981956
148	0xbe19a3e1	-0.15003921
149	0xbd9157c7	-0.0709682
150	0xbe5f523b	-0.21808712
151	0xbc9d0266	-0.019166183
152	0x3dd82748	0.10554367
153	0x3dc44ce6	0.0958498
154	0xbe44e8bf	-0.1922941
155	0xbc59ec67	-0.013300992
156	0x3d513768	0.05107823
157	0x3da3253b	0.079660855
158	0xbdcf4bcd	-0.1012188
159	0xbe54d01e	-0.20782515
160	0x3e8ee270	0.27907133
161	0xbdcfef8e	-0.10153113
162	0x3da73fd4	0.08166471
163	0xbd843f69	-0.06457407
164	0xbcbc2119	-0.022965001
165	0xbe5547ea	-0.20828214
166	0xbe684ccc	-0.22685546
167	0xbe0b352e	-0.13594505
168	0x3e5a900d	0.21344014
169	0x3bcee430	0.006313823
170	0x3d8a61b5	0.067569174
171	0x3e1f9573	0.15584354
172	0x3cf6726c	0.030083857
173	0xbb6b0a42	-0.0035864268
174	0xbcd8b30f	-0.02645257
175	0xbe4c4756	-0.19949088
176	0xbe36d300	-0.17853928
177	0xbe2c9f75	-0.16857703
178	0x3d7a7ccb	0.061154168
179	0xbc76f35e	-0.015072672
180	0x3bf865a3	0.0075804754
181	0xbdfabfd3	-0.12243619
182	0xbd38977b	-0.045066338
183	0x3c2bbbaf	0.010481759
184	0x3c43c3a7	0.011948503
185	0xbe06e269	-0.13172306
186	0x3da04ddd	0.07827351
187	0x3df79987	0.1208983
188	0xbc20f141	-0.009823144
189	0x3e861f8b	0.2619594
190	0xbd5aa55b	-0.05338035
191	0x3e313249	0.17304339
192	0x3d985f00	0.07439995
193	0x3df536ab	0.11973318
194	0xbd9bcfab	-0.07607969
195	0xbd8ee16e	-0.06976591
196	0xbd94ab7c	-0.072592705
197	0x3d5634ef	0.052296575
198	0xbdd7157c	-0.10502145
199	0xbe0ba1da	-0.1363596
200	0xbcc1132a	-0.023568708
201	0xbc4f2337	-0.012642673
202	0xbd204a96	-0.03913363
203	0xbd9805cf	-0.07422983
204	0x3d213933	0.03936119
205	0x3d87fe53	0.06640305
206	0x3dea6232	0.114445105
207	0xbdc79c7a	-0.097466424
208	0x3e545674	0.20736104
209	0xbcdb5c05	-0.026777277
210	0x3cbffbc5	0.023435483
211	0x3d5b1ddb	0.05349527
212	0x3bdc54b2	0.0067239637
213	0x3e09c079	0.13452329
214	0x3d43645c	0.047703132
215	0x3e029be1	0.12754776
216	0x3ce0a0da	0.02742045
217	0x3d8b952b	0.06815561
218	0x3d96359d	0.07334445
219	0xbdd61c3b	-0.10454603
220	0xbd89d64e	-0.067303285
221	0xbe34c265	-0.1765228
222	0x3dcc9844	0.0998998
223	0xbdae57b9	-0.085128255
224	0x3d28e945	0.04123809
225	0x3b81182a	0.003939648
226	0xbd22cede	-0.039748065
227	0x3dd91076	0.10598843
228	0x3d70073d	0.058600653
229	0x3c116468	0.008874036
230	0xba471809	-0.0007594829
231	0x3dbc2211	0.09186185
232	0x3e1e1cdd	0.15440698
233	0xbe01a5f5	-0.12660964
234	0x3e4b915d	0.1987967
235	0x3c76341e	0.015027074
236	0x3db4fcde	0.08837293
237	0xbd61316b	-0.05497877
238	0x3dd3f551	0.10349525
239	0xbda1c230	-0.078983665
240	0x3dbc5643	0.091961406
241	0xbd0e6acb	-0.034769814
242	0x3ea48163	0.32129964
243	0x3c002e74	0.007823575
244	0xbda158fd	-0.07878301
245	0xbc1883f7	-0.009308807
246	0xbe2ae69b	-0.16689532
247	0xbdec5a2b	-0.11540636
248	0x3e63dac7	0.22251426
249	0xbdf03352	-0.117285386
250	0x3cc85322	0.024453703
251	0xbe10cf66	-0.14141616
252	0x3ddea581	0.10871411
253	0xbddd2907	-0.10798841
254	0x3d980952	0.07423653
255	0x3bd1062c	0.0063789096

fc_out.bias f4 [2]
0	0xbcb80c01	-0.022466661
1	0x3da8529a	0.0821888
